2. Policy-Based Methods/continuous-control/actor_checkpoint.pth (torch_old, 548258 bytes, 10 tensors)

fc1.weight f4 [400, 33]
-0.07065343 0.78950715 -0.5912004 -0.060071267 -0.61718833 -0.43011957 -0.11478957 -0.19232826
-0.036938366 -0.03359293 -0.019442244 0.12673002 -0.07884097 -0.46425915 -0.10448168 0.40714678
-1.1390144 0.611175 1.280854 0.25555652 -0.16340578 -0.15361384 0.13446423 -0.34057057
-0.05827317 -0.22152945 -0.13239594 0.80048037 0.19370179 0.032393258 -0.82862663 -0.03482055
1.3058678 0.4081026 0.43807745 0.337753 0.0143525535 0.079637505 0.3494045 -0.52083516
0.15059765 -0.5561481 0.36113355 0.37619126 0.53601027 0.026883695 -0.20113496 0.28426895
0.77841055 0.38148135 -0.5807562 -0.41485947 0.8245921 -0.2689372 0.20347169 0.40121114
0.09139784 0.5383194 0.31890583 0.25683033 0.65453833 -0.059277654 0.023334336 -0.7072624
-6.078556e-05 0.34104314 0.37317532 0.5097041 0.10080772 0.036789507 0.32435042 0.6218449
-0.18091722 0.21234374 0.39977717 -0.32788035 0.05262785 0.37522265 0.19777744 0.55489504
-0.27227214 0.3441947 -1.3079216 0.09748817 -0.39741823 -0.41006333 -0.028378773 0.17181712
0.22402582 0.14834939 0.14500137 0.023909604 -0.4805883 0.533345 0.0767764 -0.041129123
-0.54074085 0.03084309 -2.1884403 -0.16144477 0.66510886 -0.1214157 -0.2297388 0.88791525
-0.6494255 -0.70174146 -0.07300411 -0.45784622 -0.016829018 0.3781377 0.1277961 -0.29871365
0.48651397 -0.316288 -0.025926307 -0.87001836 -0.08377473 0.9711715 0.1661288 -0.08214808
0.41566923 0.10538831 0.29132283 -0.017363217 0.19383642 -0.63648534 0.85831094 -0.16634315
-0.017574169 -0.8588582 0.0016973391 0.73401564 0.27001125 0.0060025514 0.0033972329 1.7112138
-0.09616088 -0.17000903 -0.73825246 -0.06051818 0.08027879 -0.074711196 0.3537908 0.02717559
-0.21467963 -0.1767368 -0.042272337 -0.63737065 -0.64383715 -1.3409914 -0.1486578 -0.113596335
0.54216474 0.16589251 0.19597128 -0.15060288 -0.0535893 -0.111254565 0.31891298 0.8921407
0.27731907 0.01115172 -0.9076903 -0.034486383 0.71087533 -0.8399075 0.32192013 0.026867539
-1.2147893 -0.3261365 -0.7396019 -0.038891677 -0.014653529 0.32605207 0.08809612 -0.25421956
-0.18374683 0.10080836 0.5289854 -0.3155805 0.19341746 -0.35788688 -0.40978572 1.3406005
-0.20065157 -0.011481897 0.25570184 0.012173112 0.13239485 -0.20834124 0.49551594 -0.44918445
0.20849293 -0.020148013 0.004087437 -0.24882343 0.02342103 -0.8803211 0.39540568 0.41744217
-0.2593605 -0.39911467 0.06406189 0.04936508 0.13531463 0.18291557 -0.0371258 -0.1329001
0.41926566 -0.22435232 0.014807364 0.32616395 0.16827106 -0.3345424 -0.82002836 0.06312355
1.0132102 1.5117742 -0.34898588 -0.5953765 -0.033375222 -0.6621271 -0.13143806 0.15564898
0.033883467 0.6564211 0.29142827 0.04244778 -0.68901956 0.027850714 1.0760151 -0.39591837
0.3283677 0.6978082 -0.233718 -1.0304329 -0.33753997 -0.11847699 0.22224665 -0.26131007
0.119205795 0.14221945 0.16962652 0.18747462 0.07061676 -0.91367227 -0.27187675 -0.5034677
-0.44179747 0.1243145 0.46902823 -0.35681137 0.66449416 -0.100949526 -0.11120345 -0.15853994
00000000: bfb2 90bd 241d 4a3f e958 17bf 4a0d 76bd
00000010: 0e00 1ebf a238 dcbe cb16 ebbd b3f1 44be
00000020: af4c 17bd bd98 09bd 5745 9fbc 84c5 013e
00000030: 6077 a1bd 60b3 edbe 7efa d5bd 8b75 d03e
00000040: 39cb 91bf f775 1c3f 06f3 a33f 4ed8 823e
00000050: d853 27be f24c 1dbe feb0 093e 445f aebe
00000060: d9af 6ebd 9ed8 62be cd92 07be 48ec 4c3f
00000070: c359 463e cbae 043d e020 54bf fe9f 0ebd
00000080: ad26 a73f d3f2 d03e b04b e03e f6ed ac3e
00000090: f926 6b3c fd18 a33d 26e5 b23e 7455 05bf
000000a0: 4536 1a3e b95f 0ebf 7fe6 b83e 249c c03e
000000b0: f837 093f 323b dc3c 53f6 4dbe b38b 913e
000000c0: ea45 473f 8651 c33e 70ac 14bf 7668 d4be
000000d0: 7818 533f 23b2 89be e25a 503e 8c6b cd3e
000000e0: ca2e bb3d 4dcf 093f a047 a33e 447f 833e
000000f0: d38f 273f 20cd 72bd a627 bf3c 260f 35bf
00000100: 00f4 7eb8 359d ae3e d610 bf3e f87b 023f
00000110: 4774 ce3d 98b0 163d 4211 a63e 3a31 1f3f
00000120: 5d42 39be a370 593e 98af cc3e efdf a7be
00000130: 4d90 573d 2f1d c03e 2b86 4a3e 9a0d 0e3f
00000140: 4167 8bbe 4a3a b03e fa69 a7bf e1a7 c73d
00000150: 677a cbbe d2f3 d1be 9a7a e8bc d4f0 2f3e
00000160: 0667 653e e7e8 173e 3d7b 143e 13de c33c
00000170: ab0f f6be 4c89 083f f23c 9d3d 0377 28bd
00000180: fe6d 0abf a6aa fc3c 680f 0cc0 c751 25be
00000190: 9344 2a3f cba8 f8bd a640 6bbe 6a4e 633f
000001a0: c040 26bf 54a5 33bf 2e83 95bd d26a eabe
000001b0: 02dd 89bc 449b c13e fbdc 023e fff0 98be
000001c0: 5c18 f93e 80f0 a1be 6863 d4bc 86b9 5ebf
000001d0: 1692 abbd b29e 783f ab1d 2a3e 413d a8bd
000001e0: 99d2 d43e d4d5 d73d 4428 953e 4e3d 8ebc
000001f0: 0e7d 463e b4f0 22bf 44ba 5b3f dc55 2abe
00000200: b4f7 8fbc 22de 5bbf 4079 de3a 73e8 3b3f
00000210: ea3e 8a3e 0db1 c43b 1ca4 5e3b 0e09 db3f
00000220: ffef c4bd d916 2ebe 1dfe 3cbf e9e1 77bd
00000230: 3569 a43d 2f02 99bd 1124 b53e 589f de3c
00000240: fad4 5bbe 7efa 34be c225 2dbd b92a 23bf
00000250: 83d2 24bf 9ba5 abbf c039 18be 32a5 e8bd
00000260: 4fcb 0a3f badf 293e b2ac 483e a437 1abe
00000270: 7480 5bbd 6fd9 e3bd 9048 a33e 5563 643f
00000280: c4fc 8d3e b4b5 363c 645e 68bf 9841 0dbd
00000290: edfb 353f 2e04 57bf b7d2 a43e 5019 dc3c
000002a0: 377e 9bbf 5dfb a6be 8d56 3dbf e14c 1fbd
000002b0: 5b15 70bc 4cf0 a63e bd6b b43d 1129 82be
000002c0: 2128 3cbe 9d74 ce3d 966b 073f c493 a1be
000002d0: 3a0f 463e f33c b7be 6fcf d1be cc98 ab3f
000002e0: 9b77 4dbe 911e 3cbc 5aeb 823e bb71 473c
000002f0: 8492 073e 6857 55be 44b4 fd3e 81fb e5be
00000300: 2c7f 553e 720d a5bc e8ef 853b 92cb 7ebe
00000310: 76dd bf3c b95c 61bf 9d72 ca3e fbba d53e
00000320: e6ca 84be c258 ccbe e132 833d 0a33 4a3d
00000330: eb8f 0a3e 384e 3b3e 3911 18bd f716 08be
00000340: fda9 d63e 9dbc 65be 969a 723c f6fe a63e
00000350: 404f 2c3e 2449 abbe 61ed 51bf eb46 813d
00000360: dfb0 813f d181 c13f 47ae b2be 986a 18bf
00000370: 75b4 08bd 2981 29bf b397 06be 7262 1f3e
00000380: 64c9 0a3d 370b 283f 1636 953e b9dd 2d3d
00000390: 9663 30bf 2e27 e43c ddba 893f d0b5 cabe
000003a0: d01f a83e 8fa3 323f c553 6fbe 3ae5 83bf
000003b0: 0ad2 acbe 10a4 f2bd a094 633e 6fca 85be
000003c0: 2b22 f43d faa1 113e 93b2 2d3e 59f9 3f3e
000003d0: 859f 903d 6de6 69bf 6e33 8bbe 42e3 00bf
000003e0: 4733 e2be 9a98 fe3d 7824 f03e fbaf b6be
000003f0: 4a1c 2a3f a0be cebd a2be e3bd 4b58 22be

fc1.bias f4 [400]
-0.8023837 -0.5073155 -0.4870516 -0.90257037 -0.8162268 -0.12810898 -0.7535096 -1.1272367
-0.16016029 -1.0096642 -0.6767825 -0.2607914 -0.4053477 -0.52467525 -0.81734747 -1.107262
-0.99768686 -0.6139507 -0.38766477 -0.7391104 -0.6430493 -0.9013238 -0.6237808 -0.54275733
-0.5937442 -0.374911 -0.117067456 -0.7789004 -0.5287341 -0.61481553 -0.4347251 -1.0168593
-0.927183 -1.0837307 -0.3519024 -1.1985826 -0.6879978 -0.26242632 -0.51172996 -1.0385803
-0.72276366 -0.63472307 -0.4605055 -1.0567125 -0.6277265 -0.400244 -0.80799335 -0.49652073
-0.6895504 0.20972031 -0.8638695 -0.090921044 -0.6344263 -0.7919875 -0.5331273 -0.3842329
-1.0465803 -0.5799448 -0.2766367 -0.50633514 -1.0197678 -0.61472535 -0.40188283 -0.67920005
-0.6916329 -0.5386087 -0.25258204 -0.76352614 -0.22667542 -0.51278615 -0.86213076 -0.5400687
-0.5577298 -0.36414972 -1.1030508 -0.17869149 -0.66849315 -0.68679446 0.33575782 -0.62015426
-0.39474794 -0.70651674 -0.7875105 -0.77749586 -0.43547577 -0.7317319 -0.5140089 -0.8448995
-1.15479 -0.7069911 -0.61591965 -0.91998374 -0.57429135 -0.56049144 -0.6249348 -0.8343851
-0.6016713 -0.064617716 -0.64006263 -1.1069635 -0.48350886 -1.0069313 -0.4270304 -1.038618
-0.21034673 -0.03909907 -0.50730246 -0.9116997 -0.79996264 -0.66509265 -0.31669587 -0.20432192
-0.78043514 -0.7286992 -0.95093954 -0.70081276 -1.1902162 -0.43362737 -0.2804231 -0.76082385
-0.9793921 -0.6818407 -0.7768126 -0.97829825 -0.41821593 -0.8480151 -0.8251406 -0.7104115
-0.7930186 -0.46357659 -0.6875366 -0.7075103 -0.54708636 -0.5021183 -0.53415865 -0.9475344
-0.5547534 -0.88225013 -0.31132135 -0.73234904 -0.89800733 -0.51449645 -0.7736554 -0.99745727
-0.3070737 -0.60797215 -0.52983487 -0.8725266 -1.0204861 -0.88674253 -0.79207623 -0.8973732
-0.524598 -0.7880041 -1.0794897 -0.6609166 -0.8087543 -0.54205626 -0.6669718 -0.47302625
-0.8609437 -0.97116905 -0.24332267 -0.6270657 -0.8629434 -0.91316456 -0.44109657 -0.83464897
-0.57157874 -0.6308483 -0.04642375 -0.2798241 -0.6657629 0.033731267 -0.7772093 -0.31341168
-0.42928448 0.19086291 -0.6568013 -0.40942883 -0.66144156 -0.34478214 -0.08370856 -0.6971451
-0.3840412 -0.78837967 -0.9028486 -0.27435735 -0.46117598 -0.68428814 -0.21840203 -0.8099621
-0.9313979 -0.73195726 -0.520783 -0.20517233 -0.5299252 -0.87718433 -0.22303683 -0.54577947
-0.28035566 -0.8096767 -0.9403672 -0.65352124 -0.7705226 -0.8989412 -0.0945231 -0.40700018
-0.6917522 -0.8485666 -1.0976479 -0.75765973 -0.78215015 -0.7968848 -1.0611824 -0.80253553
-0.42237142 -0.40687498 -0.90166783 -1.0171999 -0.5407506 -0.9650442 -0.7072752 0.3113313
-0.3612563 -0.7337666 -0.49716684 -1.0898775 -0.5185333 -0.548345 -0.61645985 -0.06675931
-0.8037228 -0.73765534 -0.86636454 -0.28416926 -0.66365844 -0.50759816 -0.727444 -0.74376833
0.26120093 -0.9132162 -0.85386884 -0.42069694 -0.59750974 -0.36614683 -0.56037325 -0.80925095
-0.081103094 -0.5837583 -0.7640838 -0.45387983 -0.3926732 -0.050743043 -0.59117466 -0.74583
00000000: 0569 4dbf 6edf 01bf d45e f9be da0e 67bf
00000010: 3df4 50bf 002f 03be 01e6 40bf 4b49 90bf
00000020: 0f01 24be ad3c 81bf 9e41 2dbf 7386 85be
00000030: bc89 cfbe 1e51 06bf af3d 51bf c3ba 8dbf
00000040: 6868 7fbf e02b 1dbf ff7b c6be 5736 3dbf
00000050: e19e 24bf 28bd 66bf 19b0 1fbf 25f2 0abf
00000060: 9fff 17bf 56f4 bfbe 10c1 efbd 0466 47bf
00000070: 1e5b 07bf 8d64 1dbf 4a94 debe 7228 82bf
00000080: dd5b 6dbf b0b7 8abf 8d2c b4be 286b 99bf
00000090: a020 30bf be5c 86be bc00 03bf 33f0 84bf
000000a0: 0a07 39bf 367d 22bf 60c7 ebbe 5b42 87bf
000000b0: afb2 20bf c8ec ccbe a7d8 4ebf f737 febe
000000c0: 6086 30bf ecc0 563e 8d26 5dbf d034 babd
000000d0: c369 22bf b1bf 4abf 087b 08bf 2dba c4be
000000e0: 58f6 85bf 4377 14bf 53a3 8dbe 2e9f 01bf
000000f0: c087 82bf a45e 1dbf 96c3 cdbe 0ee0 2dbf
00000100: db0e 31bf 42e2 09bf 6f52 81be 7376 43bf
00000110: 9a1d 68be f445 03bf 9ab4 5cbf f141 0abf
00000120: 61c7 0ebf d571 babe c530 8dbf e7fa 36be
00000130: 5e22 2bbf c3d1 2fbf 73e8 ab3e 6ec2 1ebf
00000140: 671c cabe 48de 34bf 4a9a 49bf f809 47bf
00000150: aef6 debe c852 3bbf 1696 03bf 554b 58bf
00000160: 29d0 93bf 5efd 34bf e9ac 1dbf 0e84 6bbf
00000170: c204 13bf 5e7c 0fbf bafb 1fbf 439a 55bf
00000180: 2107 1abf 4b56 84bd 25db 23bf fbb0 8dbf
00000190: 798e f7be 20e3 80bf bba3 dabe 6ff1 84bf
000001a0: 2265 57be 5926 20bd 93de 01bf 2765 69bf
000001b0: 5aca 4cbf 8343 2abf f625 a2be c439 51be
000001c0: 99ca 47bf 088c 3abf c670 73bf 7768 33bf
000001d0: 0159 98bf 6804 debe 9e93 8fbe 5ac5 42bf
000001e0: 71b9 7abf 1d8d 2ebf 31dd 46bf c171 7abf
000001f0: 6620 d6be 8517 59bf 6a3c 53bf 87dd 35bf
00000200: 4403 4bbf e959 edbe 6602 30bf 651f 35bf
00000210: da0d 0cbf d38a 00bf 9fbe 08bf 9d91 72bf
00000220: 5204 0ebf 25db 61bf 8365 9fbe 3a7b 3bbf
00000230: cfe3 65bf 0ab6 03bf 480e 46bf 5c59 7fbf
00000240: c438 9dbe 10a4 1bbf 42a3 07bf e75d 5fbf
00000250: 4a9f 82bf 8f01 63bf 82c5 4abf 40ba 65bf
00000260: 0e4c 06bf a3ba 49bf b82c 8abf d531 29bf
00000270: 860a 4fbf 33c4 0abf aabe 2abf 7f30 f2be
00000280: ce66 5cbf 899e 78bf 9429 79be 6187 20bf
00000290: dce9 5cbf 27c5 69bf 69d7 e1be 8eab 55bf
000002a0: fc52 12bf 467f 21bf d526 3ebd 1b45 8fbe
000002b0: 706f 2abf cc29 0a3d 30f7 46bf 7f77 a0be
000002c0: 2dcb dbbe 9171 433e 2124 28bf a8a0 d1be
000002d0: 3c54 29bf 4987 b0be 656f abbd 1a78 32bf
000002e0: 0ca1 c4be 40d3 49bf 1621 67bf 9178 8cbe
000002f0: 421f ecbe 822d 2fbf c8a4 5fbe ad59 4fbf
00000300: 1870 6ebf 8d61 3bbf 0952 05bf b218 52be
00000310: 2ea9 07bf 278f 60bf c463 64be 34b8 0bbf
00000320: c78a 8fbe f946 4fbf e8bb 70bf 2b4d 27bf
00000330: f840 45bf 0321 66bf 5495 c1bd 5462 d0be
00000340: ac16 31bf a93b 59bf ba7f 8cbf fdf5 41bf
00000350: fe3a 48bf a400 4cbf d3d4 87bf f872 4dbf
00000360: 1141 d8be eb51 d0be b4d3 66bf 9b33 82bf
00000370: a26e 0abf 230d 77bf fd0f 35bf d166 9f3e
00000380: 96f6 b8be 21d8 3bbf a78c febe 1b81 8bbf
00000390: 99be 04bf 5760 0cbf 50d0 1dbf 1bb9 88bd
000003a0: c7c0 4dbf fbd6 3cbf 11ca 5dbf a27e 91be
000003b0: 85e5 29bf f4f1 01bf c539 3abf 9a67 3ebf
000003c0: 21bc 853e 89c8 69bf 2697 5abf 9765 d7be
000003d0: 66f6 18bf 9977 bbbe 9f74 0fbf 122b 4fbf
000003e0: 6119 a6bd 2f71 15bf ff9a 43bf f062 e8be
000003f0: 760c c9be f0d7 4fbd 3957 17bf b7ee 3ebf

bn1.weight f4 [400]
0.7369609 0.53203344 0.59430337 0.71001005 0.5525154 0.75947547 0.46286032 0.5026674
0.7360584 0.5384559 0.59961474 0.8312853 0.40618446 0.5657043 0.6686306 0.5204647
0.52134323 0.24708334 -0.5940466 0.60008633 0.49188492 0.6064015 0.57059306 0.84256524
0.3782691 0.62691015 0.44240573 0.41754597 0.44403392 0.44189703 0.54048544 0.39023942
0.6203439 0.4100308 0.39669317 0.5309795 0.59324235 0.43259272 0.5342753 -0.42369735
0.5496041 0.70225704 0.38209903 0.43450436 0.44697568 0.6538476 0.39813218 0.8664348
0.36456183 0.4569211 0.8116651 0.8826284 0.5236968 0.91814625 0.7169557 0.48010302
0.51338595 0.8395841 -0.42181817 0.4340898 0.5185046 1.002272 0.20547174 0.6723529
0.8199348 0.30174214 0.49890506 0.32426587 0.7838356 0.7381741 0.4892746 0.680267
0.48557454 0.63521826 0.3603425 1.3077745 0.8073291 0.48693064 0.6572905 0.56499714
0.4614967 0.59572244 0.6485963 0.51402813 0.6748924 0.46315876 0.32296136 0.7998164
0.6360378 0.5316247 0.6317231 0.5032523 0.6246134 0.22724468 0.31795615 0.9357781
0.9167419 0.72940063 0.36669922 0.49050438 0.624765 -0.55379105 0.8863607 0.6035904
0.77519774 0.7012592 0.53739786 0.3875075 0.42634234 0.46396604 0.63020575 0.7931534
0.43677843 0.47598925 0.23156707 0.4258192 0.44476873 0.34673938 0.6491482 0.5258383
0.71839535 0.6096617 0.6597887 0.5947121 -0.42350888 0.4752868 0.52269423 0.7345595
0.46551558 0.79911774 0.6187244 0.6405608 0.46666616 0.7063054 0.56324273 0.5657333
0.8923192 0.5428344 -0.7279774 0.59711534 0.6283017 -0.010024028 0.44351375 0.72200316
0.5629848 0.46282247 0.310226 0.4681735 0.45550102 0.57199585 0.45386997 0.6021345
0.5153192 0.44370964 0.64479387 0.3641768 0.50008553 0.74724346 0.38026193 0.50182116
0.6603903 0.38799578 0.5700333 0.6605906 0.78376573 0.5760047 0.495007 0.5138682
0.62299585 0.44779208 0.9771253 0.7296909 0.73817635 0.69912213 0.48055312 0.62806493
0.76076555 0.6446646 0.6780629 0.68706036 0.5550321 0.6476702 0.7876962 0.45831645
0.52069724 0.48789456 0.41120338 0.62904775 0.63962364 0.77853185 0.6910082 0.6724914
0.60020566 0.5588731 0.33254623 0.50732535 0.7184365 0.43842205 0.6941068 0.6719281
0.7380671 0.689163 0.5990522 0.5615904 0.7653734 0.40624547 0.4923382 0.76355153
0.46356806 0.5893507 0.29235962 0.34037772 0.7408372 0.41559657 -0.5162248 0.42151105
0.773614 0.6303629 0.54753405 0.6169417 0.4925764 0.2845986 0.62206924 0.4122995
0.90019286 0.47313565 0.51252705 0.54116297 0.9110607 0.5541668 0.1841849 0.71727604
0.55774486 0.32023764 0.43375203 0.73933464 0.4047123 0.5509081 0.4318475 0.7196442
0.6521795 0.56668705 0.5899804 0.6769121 0.744891 0.48516575 0.8960878 0.7726585
0.40199387 0.5305768 0.44797778 0.53619605 0.46871772 0.6686745 0.52348256 0.43811518
00000000: 78a9 3c3f 5833 083f 4424 183f 38c3 353f
00000010: a671 0d3f fc6c 423f 07fc ec3e d0ae 003f
00000020: 536e 3c3f 3fd8 093f 5a80 193f 1dcf 543f
00000030: 69f7 cf3e ffd1 103f 602b 2b3f 2d3d 053f
00000040: c076 053f 6a03 7d3e 7013 18bf 429f 193f
00000050: 57d8 fb3e 213d 1b3f 6312 123f 5bb2 573f
00000060: 7dac c13e 2f7d 203f 0183 e23e 96c8 d53e
00000070: 6a58 e33e 5440 e23e 415d 0a3f 76cd c73e
00000080: dcce 1e3f 8fef d13e 5e1b cb3e 46ee 073f
00000090: bbde 173f cb7c dd3e 44c6 083f dcee d8be
000000a0: dbb2 0c3f 1ec7 333f 7ca2 c33e 5b77 de3e
000000b0: ffd9 e43e 8e62 273f fbd7 cb3e acce 5d3f
000000c0: d9a7 ba3e 90f1 e93e 49c9 4f3f eff3 613f
000000d0: fe10 063f a20b 6b3f 698a 373f 10d0 f53e
000000e0: 436d 033f fcee 563f 8df8 d7be 0541 de3e
000000f0: b8bc 043f 734a 803f 2f67 523e 521f 2c3f
00000100: 3fe7 513f f27d 9a3e 7c70 ff3e 2d06 a63e
00000110: 73a9 483f faf8 3c3f 3382 fa3e fa25 2e3f
00000120: 3a9d f83e aa9d 223f d07e b83e 2865 a73f
00000130: 1fad 4e3f f94e f93e 3144 283f a7a3 103f
00000140: 4c49 ec3e 4481 183f 680a 263f 5997 033f
00000150: c0c5 2c3f 2523 ed3e 315b a53e c5c0 4c3f
00000160: 60d3 223f 8e18 083f 9bb8 213f 25d5 003f
00000170: aae6 1f3f d4b2 683e 26cb a23e 278f 6f3f
00000180: 99af 6a3f 00ba 3a3f 00c0 bb3e 6423 fb3e
00000190: 99f0 1f3f 40c5 0dbf 89e8 623f e784 1a3f
000001a0: 5c73 463f b985 333f e892 093f 6267 c63e
000001b0: 8b49 da3e f58c ed3e 2a55 213f 1a0c 4b3f
000001c0: 6ca1 df3e ddb4 f33e eb1f 6d3e f904 da3e
000001d0: bab8 e33e d387 b13e 942e 263f 579d 063f
000001e0: c2e8 373f ca12 1c3f eae7 283f 0d3f 183f
000001f0: 28d6 d8be cb58 f33e 4acf 053f 170c 3c3f
00000200: 0f58 ee3e fb92 4c3f b964 1e3f cbfb 233f
00000210: deee ee3e 6ed0 343f ad30 103f e6d3 103f
00000220: 086f 643f 32f7 0a3f ba5c 3abf 8ddc 183f
00000230: 61d8 203f d23b 24bc 3c14 e33e 33d5 383f
00000240: c61f 103f 11f7 ec3e f1d5 9e3e 70b4 ef3e
00000250: 6e37 e93e 526e 123f a561 e83e 7d25 1a3f
00000260: f6eb 033f e92d e33e 3611 253f 6275 ba3e
00000270: 9b05 003f 594b 3f3f b1b1 c23e 5a77 003f
00000280: 570f 293f 62a7 c63e b4ed 113f 771c 293f
00000290: dfa4 483f 0b75 133f 8f71 fd3e de8c 033f
000002a0: a87c 1f3f 0145 e53e e224 7a3f 06cd 3a3f
000002b0: 20f9 3c3f abf9 323f 0f0b f63e ddc8 203f
000002c0: 88c1 423f bd08 253f 8895 2d3f 30e3 2f3f
000002d0: 9516 0e3f b7cd 253f 75a6 493f 74a8 ea3e
000002e0: 6a4c 053f 51cd f93e 4089 d23e 4609 213f
000002f0: 60be 233f dd4d 473f eae5 303f 6528 2c3f
00000300: 14a7 193f 4f12 0f3f 8043 aa3e 13e0 013f
00000310: 74eb 373f db78 e03e fcb0 313f 7b03 2c3f
00000320: f7f1 3c3f fd6c 303f 7c5b 193f 63c4 0f3f
00000330: 83ef 433f 68ff cf3e c113 fc3e 1d78 433f
00000340: cb58 ed3e b0df 163f 29b0 953e fd45 ae3e
00000350: 82a7 3d3f 13c9 d43e 4f27 04bf 4cd0 d73e
00000360: 910b 463f 775f 213f 312b 0c3f e4ef 1d3f
00000370: f932 fc3e e8b6 913e ee3f 1f3f ec18 d33e
00000380: 0a73 663f d63e f23e f934 033f a889 0a3f
00000390: 463b 693f e0dd 0d3f f79a 3c3e 679f 373f
000003a0: 5ec8 0e3f 30f6 a33e bf14 de3e 0945 3d3f
000003b0: 7336 cf3e 5008 0d3f 1e1b dd3e 9a3a 383f
000003c0: 3cf5 263f 6712 113f f508 173f 1d4a 2d3f
000003d0: 2db1 3e3f a567 f83e 0366 653f f3cc 453f
000003e0: 24d2 cd3e e2d3 073f 585d e53e 2544 093f
000003f0: c5fb ef3e 412e 2b3f f402 063f a250 e03e

bn1.bias f4 [400]
0.25515595 0.1525502 -0.14309357 0.33693957 0.24505642 -0.021609714 0.088552445 -0.0022753426
0.13782194 0.1735338 0.29466882 0.20568006 0.10926085 0.13176444 0.44474337 0.06880132
0.022696445 0.10317077 -0.20727743 0.10435497 0.09803091 0.07383481 0.2781346 0.3636617
0.09634 0.44525602 0.19488832 0.23926206 0.18279882 0.08000334 0.08606907 0.102389105
0.23067826 -0.009862625 0.14197828 -0.020657385 0.05306852 0.20191735 -0.10584458 -0.05736068
-0.038427174 0.78091276 0.026684444 -0.03917656 0.11350308 0.31635833 0.18953624 0.02113007
-0.041971553 0.041508846 0.012532131 0.6871339 0.02070146 0.32081625 0.08847924 -0.080670446
0.13808933 0.47469628 -0.111340545 0.23468843 0.4494284 0.5529882 -0.051900234 0.6096597
0.20220846 -0.03616117 0.24451143 0.109452166 0.7743219 0.22957815 0.21292043 -0.58515805
0.1447161 0.18139736 -0.42789215 1.2122554 0.20576887 0.0024641026 0.06691076 0.12511964
0.008828969 0.04444955 0.08466623 0.081507206 0.13072692 0.012600279 -0.35647047 0.16433035
0.017666647 0.23449351 0.10769653 0.10093104 0.20745651 0.079994336 0.039537556 0.14067806
0.3357733 0.4655729 -0.0393073 0.1170051 0.22503667 -0.3205359 0.7917814 0.15577284
0.2497788 0.11538665 0.123649545 0.07090942 -0.0053662974 0.07591725 0.07074423 -0.51133764
-0.08297744 0.019733408 -0.031663842 0.06611904 0.022995407 0.19158366 0.12222794 0.09368794
0.6903685 0.24050528 -0.10709558 0.3134472 0.47298822 0.09948477 0.24417366 0.39214414
0.19557784 0.5587499 0.25882792 0.15077275 0.07725988 0.3673306 0.07417878 0.4151682
0.23161572 0.24210212 -0.4719658 0.18111357 0.18877187 -0.00184698 0.03755864 0.26107487
0.06848064 0.0113527775 0.13730296 0.11739459 0.07314356 0.040317915 0.06167681 0.3564655
0.11421029 0.06346476 0.0019106122 -0.060024135 0.10423243 0.17617072 0.12953241 0.29271695
0.21117501 0.15365665 0.059067823 0.122298226 0.36833963 0.118327826 0.15375033 0.15375558
0.22371581 0.04376898 0.5149077 0.14420916 0.369453 0.15593687 0.010555461 0.21120204
0.43149698 0.06548163 0.34092933 -0.03198512 0.3020385 0.11919028 0.5301561 0.30409238
0.15205751 0.1546138 -0.040553484 0.2773573 0.26130232 0.11409996 0.3593083 0.16589153
0.35099226 0.19693197 0.13530084 0.19218071 0.20286079 -0.0048759775 0.122990236 0.2474883
0.46281642 0.19143867 0.14161156 0.303608 0.20421302 0.06430077 0.21920796 0.47612268
0.15174042 0.14439835 -0.00054912927 -0.20350896 0.31244287 0.08324866 -0.244994 -0.07300027
0.3878204 -0.107024685 0.043074213 0.30484968 0.0076697986 0.07849307 0.2047993 0.10218443
0.34445798 0.23367101 -0.24537003 0.0018558085 0.4938446 -0.021743512 -0.013474932 0.18334283
0.06994595 0.04935816 0.062449303 0.20501956 0.0839119 0.1337722 0.011928173 0.26540178
0.022605153 0.11917047 0.12057811 0.25749448 0.026154643 0.08883013 0.2894679 0.14229113
0.17706852 0.21896693 0.15104967 0.16546726 0.07178638 0.50869143 0.14006662 0.012793584
00000000: cda3 823e 1f36 1c3e 1f87 12be 5883 ac3e
00000010: 12f0 7a3e db06 b1bc fc5a b53d ea1d 15bb
00000020: 3221 0d3e d8b2 313e d5de 963e cb9d 523e
00000030: 27c4 df3d 42ed 063e 67b5 e33e b5e7 8c3d
00000040: e5ed b93c 324b d33d 8940 54be 0fb8 d53d
00000050: 6ec4 c83d b436 973d a967 8e3e de31 ba3e
00000060: e84d c53d 99f8 e33e ce90 473e 1d01 753e
00000070: 9d2f 3b3e cbd8 a33d fb44 b03d 61b1 d13d
00000080: ec36 6c3e d996 21bc c162 113e ad39 a9bc
00000090: 605e 593d 6cc3 4e3e 0bc5 d8bd 08f3 6abd
000000a0: d065 1dbd e6e9 473f 5699 da3c 9a77 20bd
000000b0: 4e74 e83d b8f9 a13e ca15 423e f818 ad3c
000000c0: 5dea 2bbd 2e05 2a3d 9153 4d3c 02e8 2f3f
000000d0: 1c96 a93c 0742 a43e 9b34 b53d 8c36 a5bd
000000e0: 4a67 0d3e 640b f33e 8306 e4bd 2a52 703e
000000f0: 7b1b e63e a290 0d3f 5795 54bd a812 1c3f
00000100: bc0f 4f3e bc1d 14bd 3461 7a3e 7528 e03d
00000110: f639 463f 8916 6b3e d007 5a3e ebcc 15bf
00000120: 7530 143e 3bc0 393e ae14 dbbe 2f2b 9b3f
00000130: 13b5 523e c87c 213b 8208 893d 5d1f 003e
00000140: 61a7 103c bb10 363d 7d65 ad3d 40ed a63d
00000150: 47dd 053e 6771 4e3c 4c83 b6be 3746 283e
00000160: a5b9 903c 111f 703e 0090 dc3d efb4 ce3d
00000170: 7b6f 543e 12d4 a33d 22f2 213d e90d 103e
00000180: 7aea ab3e 925f ee3e b100 21bd 5fa0 ef3d
00000190: 0370 663e 481d a4be 30b2 4a3f ea82 1f3e
000001a0: 04c6 7f3e d64f ec3d f93b fd3d f538 913d
000001b0: c4d7 afbb 817a 9b3d 5ae2 903d 06e7 02bf
000001c0: 13f0 a9bd f5a7 a13c f2b1 01bd 6b69 873d
000001d0: dd60 bc3c 822e 443e a452 fa3d 76df bf3d
000001e0: fdbb 303f 0447 763e ed54 dbbd 277c a03e
000001f0: 832b f23e acbe cb3d a908 7a3e 1ec7 c83e
00000200: 8f45 483e 3c0a 0f3f 1885 843e 2c64 1a3e
00000210: 6e3a 9e3d c212 bc3e 0beb 973d ed90 d43e
00000220: ac2c 6d3e 9ee9 773e 80a5 f1be d675 393e
00000230: 6a4d 413e 5d16 f2ba 17d7 193d 9bab 853e
00000240: 943f 8c3d 0001 3a3c 2699 0c3e 936c f03d
00000250: 4acc 953d 6624 253d d3a0 7c3d a582 b63e
00000260: 16e7 e93d d0f9 813d 826d fa3a dedb 75bd
00000270: d077 d53d 1966 343e 25a4 043e ffde 953e
00000280: 433e 583e 2b58 1d3e 1af1 713d 7e77 fa3d
00000290: 0397 bc3e dc55 f23d ba70 1d3e 1a72 1d3e
000002a0: c215 653e 1a47 333d fed0 033f 91ab 133e
000002b0: f228 bd3e eaad 1f3e d0f0 2c3c 5945 583e
000002c0: 2ced dc3e 3c1b 863d 4a8e ae3e d402 03bd
000002d0: caa4 9a3e 091a f43d 4fb8 073f ffb1 9b3e
000002e0: f7b4 1b3e 1453 1e3e 691b 26bd c701 8e3e
000002f0: 6bc9 853e 3dad e93d 42f7 b73e 78df 293e
00000300: 42b5 b33e 89a8 493e 4e8c 0a3e 05cb 443e
00000310: bdba 4f3e aac6 9fbb 4ee2 fb3d 936d 7d3e
00000320: 46f6 ec3e 8008 443e 9f02 113e 8272 9b3e
00000330: 381d 513e 1fb0 833d 0d78 603e 5ac6 f33e
00000340: d761 1b3e 29dd 133e 71f3 0fba a764 50be
00000350: 83f8 9f3e 467e aa3d b5df 7abe 2a81 95bd
00000360: 6590 c63e c22f dbbd 966e 303d 4215 9c3e
00000370: ef52 fb3b fac0 a03d e8b6 513e 1246 d13d
00000380: cc5c b03e 7447 6f3e 4842 7bbe 9a3e f33a
00000390: 33d9 fc3e 731f b2bc f6c5 5cbc 39be 3b3e
000003a0: d23f 8f3d c82b 4a3d d7ca 7f3d a6f0 513e
000003b0: 01da ab3d 94fb 083e 626e 433c bee2 873e
000003c0: 712e b93c a60f f43d a8f1 f63d 51d6 833e
000003d0: 4342 d63c 92ec b53d 2335 943e c4b4 113e
000003e0: 7351 353e de38 603e c4ac 1a3e 4070 293e
000003f0: bd04 933d 9a39 023f a06d 0f3e 2e9c 513c

bn1.running_mean f4 [400]
0.25717032 0.77249557 0.5071226 0.26622957 0.7400343 0.8647844 0.44603795 0.70409524
1.1648676 0.43827406 0.47669995 1.0067598 1.4923635 0.28682572 0.22781694 0.34039545
0.119236454 0.18365641 0.48078662 0.33455208 0.8411407 0.19570135 0.12927932 0.2665964
0.63765574 0.4195227 1.2212739 0.45181397 0.25766692 0.91784286 0.42520615 0.4542294
0.5305895 0.12672986 1.0183381 0.16950664 1.2960937 0.7326735 0.2856404 1.1948011
1.6239682 1.0310152 0.16538152 0.19678377 0.13403697 0.91283196 0.6211502 0.38767192
0.4670078 2.49594 0.1652223 1.159878 0.25763857 0.30021355 0.48743713 0.6737102
0.48749065 0.48637596 0.9640626 0.5711568 0.12186179 0.55271345 0.7879221 0.39268795
0.15644382 1.1183288 0.55133075 0.21845834 0.8806293 0.4198377 0.29285386 0.54972607
0.6459082 0.6037964 0.27073333 0.73216987 0.19306943 0.52877575 1.9879411 0.4765502
0.6556654 0.28523943 1.2095841 0.42554268 0.20330492 0.4679711 0.75525343 0.22767422
0.26037267 0.3388474 0.18488543 0.14084972 0.10516401 1.2098827 0.4823335 0.38635123
0.7711562 0.32839388 0.272439 0.30224714 0.52533996 0.53922474 0.29669327 0.42737392
0.9292265 1.1059207 0.64555657 0.6882957 0.18462028 0.282769 0.54433864 0.9695873
0.18701063 0.40937412 0.431818 0.7071869 0.16412811 1.8064686 0.47784892 0.15294857
0.48528954 0.20134449 0.5129606 0.2243759 0.4343475 0.7245632 0.2524318 0.31675082
0.24216504 1.00663 0.41964188 0.43740997 0.29243198 0.672152 0.20745161 0.5321714
0.6529071 0.258099 0.72851163 0.69883233 0.30329397 0.45529166 0.097879 0.19647677
0.35041204 0.48546273 0.8781693 0.39808756 0.3343359 0.46422806 0.15963277 0.5465856
0.93210024 0.19288766 0.15729547 0.27558208 0.19469295 0.5671972 0.28044745 1.4526669
0.20980555 0.47655752 1.2155677 0.90073884 0.35470363 0.29339433 0.18386927 0.23688711
0.9971972 0.58398396 1.3757756 0.55762315 0.39136463 2.4233398 0.31429195 1.1192908
0.6527544 0.53280586 0.2577509 0.7589687 0.4104169 0.5930302 0.933839 0.29624426
0.4325406 0.24844004 0.62774366 0.24215536 0.43612322 0.24770992 1.4257452 0.0886579
1.3973191 0.2500985 0.3895056 1.6352623 0.7982095 0.4260035 0.28152812 0.34912607
1.6213623 0.23892772 0.5113768 0.71679765 0.30549243 0.33601794 1.6761465 1.0616347
0.34594125 0.07833937 0.44207826 0.5593886 0.29012758 0.2742556 0.6718906 0.75935185
0.6268324 2.3051481 0.498484 0.3377932 1.0241133 0.2252384 0.38043392 2.8358407
0.6567446 0.63305587 0.30363867 0.07818789 0.48077798 0.71465564 0.7718983 1.728281
0.5720451 0.34687656 0.6879707 1.0466155 0.3219684 0.24944544 0.5494498 0.40165958
2.2717478 0.18520893 0.4624724 0.8267256 0.32421044 0.4069362 0.540542 0.33940944
0.42206362 1.1860309 0.2364091 0.918497 1.0925133 1.437314 0.3202526 0.58490604
00000000: d4ab 833e 45c2 453f c9d2 013f 3e4f 883e
00000010: e372 3d3f 8362 5d3f 165f e43e 963f 343f
00000020: 621a 953f 7565 e03e 0412 f43e 81dd 803f
00000030: c405 bf3f d2da 923e d848 693e 5048 ae3e
00000040: 3e32 f43d 6d10 3c3e aa29 f63e 694a ab3e
00000050: ff54 573f ef65 483e cc61 043e 537f 883e
00000060: 683d 233f aecb d63e b452 9c3f 2954 e73e
00000070: ebec 833e c0f7 6a3f 9fb4 d93e c290 e83e
00000080: b7d4 073f 79c5 013e e758 823f 2693 2d3e
00000090: 66e6 a53f 7e90 3b3f 753f 923e 3eef 983f
000000a0: 31de cf3f 4ef8 833f c659 293e af81 493e
000000b0: fd40 093e 5baf 693f b303 1f3f ef7c c63e
000000c0: a51b ef3e 7bbd 1f40 0930 293e e276 943f
000000d0: 34e9 833e 97b5 993e 5c91 f93e 4678 2c3f
000000e0: 6098 f93e 4506 f93e cecc 763f 5537 123f
000000f0: ad92 f93d a17e 0d3f 43b5 493f 650e c93e
00000100: cf32 203e 6625 8f3f 0324 0d3f 8bb3 5f3e
00000110: ec70 613f f8f4 d63e f1f0 953e d9ba 0c3f
00000120: 3d5a 253f 6792 1a3f 8f9d 8a3e 7c6f 3b3f
00000130: feb3 453e d95d 073f db74 fe3f 63fe f33e
00000140: b0d9 273f e70a 923e a7d3 9a3f bbe0 d93e
00000150: 2a2f 503e e899 ef3e 4a58 413f 6e23 693e
00000160: 914f 853e 687d ad3e 9b52 3d3e e93a 103e
00000170: 3a60 d73d 70dd 9a3f 6bf4 f63e d4cf c53e
00000180: 7e6a 453f 3e23 a83e 207d 8b3e 23c0 9a3e
00000190: ae7c 063f a20a 0a3f 2ee8 973e c1d0 da3e
000001a0: cae1 6d3f cf8e 8d3f 3243 253f 2634 303f
000001b0: 190d 3d3e 19c7 903e c759 0b3f e036 783f
000001c0: b77f 3f3e 7c99 d13e 4017 dd3e 330a 353f
000001d0: 3311 283e 5d3a e73f 9da8 f43e 8d9e 1c3e
000001e0: df77 f83e 402d 4e3e 6351 033f ccc2 653e
000001f0: cc62 de3e f97c 393f be3e 813e 2a2d a23e
00000200: 1dfa 773e 40d9 803f 4ddb d63e 33f4 df3e
00000210: a5b9 953e 2712 2c3f 326e 543e 633c 083f
00000220: eb24 273f 8d25 843e bd7f 3a3f ade6 323f
00000230: 5949 9b3e fd1b e93e c974 c83d 3531 493e
00000240: 3569 b33e 928e f83e b4cf 603f 22d2 cb3e
00000250: 132e ab3e 4daf ed3e c676 233e 09ed 0b3f
00000260: 1f9e 6e3f 5884 453e 1012 213e 1819 8d3e
00000270: 975d 473e d633 113f cf96 8f3e fdf0 b93f
00000280: 44d7 563e 59ff f33e b997 9b3f d296 663f
00000290: b79b b53e c837 963e 3a48 3c3e 8992 723e
000002a0: 5148 7f3f f97f 153f 6a19 b03f 64c0 0e3f
000002b0: f260 c83e 0018 1b40 e0ea a03e ec44 8f3f
000002c0: ea1a 273f f765 083f edf7 833e c64b 423f
000002d0: 2a22 d23e d4d0 173f 1310 6f3f 54ad 973e
000002e0: f675 dd3e 1167 7e3e cfb3 203f 93f7 773e
000002f0: 8b4b df3e aba7 7d3e d27e b63f 4692 b53d
00000300: 5adb b23f e90c 803e 476d c73e 4650 d13f
00000310: 7557 4c3f 211d da3e 7424 903e a7c0 b23e
00000320: cd88 cf3f 78a9 743e 97e9 023f 0d80 373f
00000330: 8169 9c3e 8b0a ac3e f88b d63f a5e3 873f
00000340: 361f b13e 6470 a03d 1558 e23e 1734 0f3f
00000350: 9a8b 943e 3b6b 8c3e 0601 2c3f e264 423f
00000360: 1778 203f 8c87 1340 4b39 ff3e 3bf3 ac3e
00000370: 2516 833f e5a4 663e 3cc8 c23e 6a7e 3540
00000380: 6a20 283f f30f 223f 8776 9b3e f920 a03d
00000390: 8828 f63e acf3 363f 219b 453f 5038 dd3f
000003a0: 8c71 123f ce99 b13e d91e 303f 7ff7 853f
000003b0: 0bd9 a43e a06e 7f3e bea8 0c3f 53a6 cd3e
000003c0: 5164 1140 69a7 3d3e 2fc9 ec3e 4aa4 533f
000003d0: e9fe a53e f159 d03e f660 0a3f 13c7 ad3e
000003e0: b918 d83e dccf 973f 3a15 723e 9f22 6b3f
000003f0: 7ad7 8b3f e8f9 b73f 26f8 a33e 67bc 153f

bn1.running_var f4 [400]
0.82391566 4.46467 2.1381743 0.9986164 2.2154355 3.4323246 2.3308887 2.4856873
3.840187 1.4529526 2.5483425 2.584548 4.6199946 1.5290636 0.63678205 1.1465627
0.84312826 0.72519386 2.60722 2.836563 3.5199823 1.0140613 0.60355765 1.4342045
2.7641962 1.6215153 4.7943177 1.77233 0.88497305 5.0591197 2.9725583 1.3867459
1.8753443 0.7084539 4.5078692 0.82900393 4.7737417 2.6333525 1.0633783 3.8079891
5.1213493 4.52936 1.0563414 1.6636242 0.6052808 2.4664588 3.804487 0.9725696
2.370814 7.901178 0.48096317 2.9336448 1.4131613 0.8732747 1.3107145 1.8336669
1.544879 1.4160072 1.8225902 2.461737 0.5335854 1.3104837 3.9304483 1.1101164
0.7909462 4.704719 2.0621712 1.1950846 2.6706982 1.6955733 1.4618622 1.125394
4.1806064 2.4219747 1.7525011 1.7731416 0.86785096 1.8324858 2.841793 3.042671
1.7649236 0.9254798 11.220216 0.9698037 1.0184028 2.76619 2.4927413 0.54960424
0.7358485 1.8079467 0.8476305 0.5342191 0.33694404 5.318096 1.8619258 1.0537626
1.8023721 0.94230705 1.1136804 1.2811222 1.6354356 1.3794966 1.3707452 1.937442
2.2046952 2.145928 2.3739254 2.6342387 1.1222035 1.1512549 1.1498061 2.5734286
0.73372227 1.4305735 2.6552944 3.6551423 0.8525188 9.743689 2.057443 1.0321949
2.1517365 1.8893654 1.0374026 0.80023843 2.0990293 2.4112194 1.3438402 1.1080848
1.5455952 2.733641 2.231281 2.6590118 1.0561098 2.3299646 0.59439564 2.261051
2.6567788 0.8587671 2.070674 2.368854 1.3168259 4.3494053 0.44160548 0.9090433
2.3936071 1.9016329 4.1279044 2.0497365 1.1833984 1.9313165 1.4177613 1.5781
5.0339456 0.4898857 0.81980145 1.791886 0.63870436 1.9055588 0.9980769 10.784485
1.1202947 2.5517952 2.1722114 6.5400143 0.9088965 2.6701355 1.2897935 1.3564942
3.774225 3.5387557 2.9225647 1.9115506 1.4465759 4.636853 1.28849 2.5305595
2.1201234 1.4012936 0.97759885 2.0401096 1.4722284 1.1942891 2.1984012 2.4863412
1.9145101 1.1667145 2.0803678 0.9565736 1.7923089 1.1461335 2.5837166 0.84738547
5.0222044 0.76545835 1.5822585 5.619722 2.0828106 2.0983763 1.5098329 1.0064608
5.4093084 0.73137647 1.3113676 3.1147656 0.9393009 2.112045 6.1613955 2.39539
1.4416485 1.0217118 2.8266938 1.7597579 1.776688 1.1116065 3.9125407 3.362416
4.043162 5.882275 1.7087227 1.2798868 3.8027148 1.8060962 1.1356926 7.325831
1.5000048 1.8229038 0.97924227 0.3675528 1.1934736 3.0008929 4.3679414 3.7965019
3.0547848 2.704254 2.117009 4.8833723 1.3012288 0.9396687 2.5833287 1.4793447
3.9997237 0.97592473 2.4055977 2.619445 0.7955175 1.565224 1.5333863 1.1798775
1.2049571 5.853856 1.00089 2.2635174 3.9600239 4.222321 1.0716246 3.16494
00000000: 23ec 523f 94de 8e40 d9d7 0840 53a5 7f3f
00000010: b2c9 0d40 35ab 5b40 482d 1540 8015 1f40
00000020: a0c5 7540 5afa b93f 0b18 2340 3c69 2540
00000030: ffd6 9340 5bb8 c33f 2604 233f 91c2 923f
00000040: 41d7 573f 4ea6 393f b1dc 2640 408a 3540
00000050: 6447 6140 c3cc 813f c182 1a3f 0394 b73f
00000060: 97e8 3040 d08d cf3f 0d6b 9940 b6db e23f
00000070: 988d 623f 4fe4 a140 653e 3e40 e480 b13f
00000080: 480b f03f 3c5d 353f 7740 9040 9a39 543f
00000090: 7ec2 9840 d988 2840 c81c 883f 18b6 7340
000000a0: 18e2 a340 84f0 9040 3236 873f a3f1 d43f
000000b0: aff3 1a3f 76da 1d40 b77c 7340 52fa 783f
000000c0: 6bbb 1740 73d6 fc40 ce40 f63e d6c0 3b40
000000d0: 78e2 b43f ee8e 5f3f 7ec5 a73f 99b5 ea3f
000000e0: 98be c53f b93f b53f a34a e93f 198d 1d40
000000f0: 0e99 083f eebd a73f 778c 7b40 4b18 8e3f
00000100: 737b 4a3f 0f8d 9640 9dfa 0340 88f8 983f
00000110: b8ec 2a40 8c08 d93f 4d1e bb3f e90c 903f
00000120: 87c7 8540 a201 1b40 f551 e03f 4ef6 e23f
00000130: 7b2b 5e3f e58e ea3f f0df 3540 1fbb 4240
00000140: 04e9 e13f 3fec 6c3f 0186 3341 0e45 783f
00000150: 065b 823f 4209 3140 1389 1f40 ddb2 0c3f
00000160: 9160 3c3f cc6a e73f 50fe 583f 95c2 083f
00000170: ee83 ac3e d82d aa40 9653 ee3f b1e1 863f
00000180: 21b4 e63f 093b 713f 148d 8e3f d0fb a33f
00000190: f455 d13f 5893 b03f 9474 af3f 19fe f73f
000001a0: ba19 0d40 e256 0940 65ee 1740 5e97 2840
000001b0: 5da4 8f3f 525c 933f d92c 933f 0eb3 2440
000001c0: 39d5 3b3f 081d b73f 58f0 2940 daed 6940
000001d0: ac3e 5a3f 26e6 1b41 25ad 0340 f61e 843f
000001e0: 0db6 0940 bad6 f13f 9cc9 843f 6ddc 4c3f
000001f0: 7f56 0640 6b51 1a40 f502 ac3f b9d5 8d3f
00000200: 10d6 c53f f9f3 2e40 4fcd 0e40 402d 2a40
00000210: 9b2e 873f 241e 1540 502a 183f 0fb5 1040
00000220: aa08 2a40 29d8 5b3f ec85 0440 4e9b 1740
00000230: c08d a83f 542e 8b40 1d1a e23e 10b7 683f
00000240: dc30 1940 b568 f33f cb17 8440 e22e 0340
00000250: 9979 973f 6135 f73f 3479 b53f 2eff c93f
00000260: 1516 a140 4cd2 fa3e 82de 513f 855c e53f
00000270: 2182 233f 5ae9 f33f f881 7f3f 408d 2c41
00000280: d165 8f3f 9d50 2340 8305 0b40 cc47 d140
00000290: 71ad 683f 80e3 2a40 f417 a53f 9aa1 ad3f
000002a0: e78c 7140 f97a 6240 4d0b 3b40 b1ad f43f
000002b0: 6629 b93f 1a61 9440 3eed a43f b0f4 2140
000002c0: 1ab0 0740 975d b33f eb43 7a3f 2891 0240
000002d0: fb71 bc3f 77de 983f 9bb2 0c40 3720 1f40
000002e0: ab0e f53f e756 953f bf24 0540 02e2 743f
000002f0: 616a e53f 81b4 923f 9d5b 2540 41ee 583f
00000300: e6b5 a040 14f5 433f 7287 ca3f c3d4 b340
00000310: c54c 0540 cc4b 0640 3442 c13f b5d3 803f
00000320: 0e19 ad40 7d3b 3b3f e5da a73f 5258 4740
00000330: 0676 703f bf2b 0740 272a c540 124e 1940
00000340: f087 b83f 74c7 823f 8de8 3440 bf3f e13f
00000350: 836a e33f 1f49 8e3f 1167 7a40 d331 5740
00000360: 9561 8140 993b bc40 6db7 da3f 55d3 a33f
00000370: ae5f 7340 292e e73f 605e 913f 356d ea40
00000380: 2800 c03f e954 e93f 9faf 7a3f e12f bc3e
00000390: bec3 983f a10e 4040 2dc6 8b40 e3f9 7240
000003a0: 9881 4340 7f12 2d40 137d 0740 9644 9c40
000003b0: aa8e a63f 218e 703f 4255 2540 2b5b bd3f
000003c0: 79fb 7f40 34d6 793f 50f5 1940 fda4 2740
000003d0: 09a7 4b3f 4359 c83f 0146 c43f 3a06 973f
000003e0: 093c 9a3f ca52 bb40 2a1d 803f 78dd 1040
000003f0: 0871 7d40 411d 8740 ff2a 893f 618e 4a40

fc2.weight f4 [300, 400]
-0.93984777 -0.110953555 0.5267484 -0.27130347 -0.14289398 0.7281738 -0.26625758 -0.034438003
0.25061345 -0.2704243 -0.48933852 0.25379628 0.03864787 -0.29442254 -0.27602243 0.79653883
-0.28736058 -0.14594431 0.31708577 -0.32417315 0.011897837 0.22890586 -0.38811585 -0.73152184
0.0034691948 -0.059330933 0.084368065 0.08971139 0.58117056 -0.6018831 0.34849578 0.29577494
-0.41594574 0.011181964 -0.60629004 0.21602426 -0.23512419 0.23733668 0.40417776 0.11786345
-0.23900819 -0.2746323 -0.21625774 0.16792588 0.421726 0.28023618 0.22079317 0.32303602
0.57276636 0.16113554 0.043900978 -0.79188895 0.03302682 -0.029321188 -0.21094024 -0.082449816
-0.81421995 -0.7400501 0.42416853 0.6658294 -0.5075142 -0.8812622 0.21433935 -0.55982906
0.002733066 -0.2745706 -0.18782324 -0.5807244 -0.38362554 -0.21479295 -0.49286053 -0.23250745
-0.49327567 0.58958286 0.5165065 -0.68086004 -0.36878544 0.49116346 0.7788526 0.45400965
0.10897959 0.20720673 0.3108755 0.18433844 0.36183265 0.09803443 1.0578936 -0.28949177
-0.09786252 -0.65122783 0.26876658 0.48308513 -0.22052968 0.055563428 -0.2653554 -0.19024755
-0.6885465 -0.57671934 0.5669821 0.39058825 0.037163753 0.2329983 0.04337209 -0.38433918
-0.28254715 -0.13302031 0.188244 0.047791973 -0.040209148 0.14200297 0.30741638 0.21554933
-0.05679969 0.17351848 0.040150296 -0.399141 0.19463544 0.16727015 0.052487347 0.21283068
-0.29114977 -0.42324796 0.31331086 0.2921197 -0.4010362 -0.03744938 0.2925593 -0.40691108
0.023049692 -0.40476713 -0.59294915 -0.12315688 -0.38127765 -0.58194983 -0.03504651 0.29526934
-0.8026277 0.31276587 0.49017546 -0.7385043 -0.8133869 -0.28377396 -0.0020712842 -0.54248303
-0.042851042 -0.1050571 0.05252666 -0.14715393 0.12792327 -0.09917223 0.32746974 0.229161
-0.054167572 0.41085035 0.43105552 -0.01899706 0.38590625 0.3972237 0.31473577 -0.71157986
0.16565622 0.009601018 -0.63004375 0.46131754 -0.14928497 -0.13279027 0.046375316 -0.3393261
-0.048782002 0.13963936 0.24933419 -0.01320611 -0.42209002 -0.38386515 0.2354459 -0.42568848
0.33450687 0.20039637 -0.20567714 0.5320828 -0.10292725 -0.3089816 0.2836504 0.11886279
0.04056311 0.28324658 -0.12753572 -0.40714586 -0.23850141 -0.11751291 0.14871407 0.7017449
0.047835805 0.09638245 0.07684545 -0.076827355 -0.20639814 -0.20146134 -0.013328115 -0.15992682
-0.28145447 -0.545408 -0.12393866 -0.2995672 0.29942155 -0.08667277 0.339299 -0.17940974
0.18219635 -0.12565082 0.07170672 -0.22732502 -0.2668297 -0.58655745 0.22638687 -0.412155
-0.1959588 -0.20906939 0.41220587 0.4155563 0.8457168 -0.51731 -0.20390204 -0.5646422
0.17755392 -1.0256145 0.3037263 -0.4329015 -0.08637256 -0.12570517 1.0185351 -0.4493187
-0.27095312 0.48347118 0.10777095 0.4757394 0.04684734 0.46086034 0.5145504 -0.097325936
0.39594272 -0.6678851 0.0980806 -0.11496223 0.43114406 -0.22671877 0.09004872 0.22797762
0.89215875 -0.5826686 0.5971362 0.085193805 0.15466267 0.05739566 0.7018799 -0.24215002
00000000: dd99 70bf 9e3b e3bd fcd8 063f 4ae8 8abe
00000010: cd52 12be 9969 3a3f ea52 88be dd0e 0dbd
00000020: 6850 803e 0e75 8abe 948a fabe 96f1 813e
00000030: 3b4d 1e3d 8dbe 96be d052 8dbe f8e9 4b3f
00000040: ed20 93be 6d72 15be 1159 a23e 06fa a5be
00000050: 25ef 423c 4c66 6a3e 1fb7 c6be 0445 3bbf
00000060: 6e5b 633b fe04 73bd 2ac9 ac3d 9bba b73d
00000070: 98c7 143f 0315 1abf 0a6e b23e d06f 973e
00000080: d7f6 d4be 8e34 373c d335 1bbf 7735 5d3e
00000090: 65c4 70be 6308 733e 63f0 ce3e 6462 f13d
000000a0: 90be 74be 9b9c 8cbe ab72 5dbe c3f4 2b3e
000000b0: 78ec d73e 1e7b 8f3e 9b17 623e fa64 a53e
000000c0: d1a0 123f b700 253e 83d1 333d 3cb9 4abf
000000d0: 2147 073d fd32 f0bc b800 58be 73db a8bd
000000e0: b870 50bf ec73 3dbf 9e2c d93e cc73 2a3f
000000f0: 73ec 01bf 669a 61bf c67b 5b3e f550 0fbf
00000100: 3d1d 333b 8594 8cbe bc54 40be 5baa 14bf
00000110: 916a c4be aff2 5bbe 3758 fcbe 6f16 6ebe
00000120: a18e fcbe e7ee 163f c539 043f d84c 2ebf
00000130: 72d1 bcbe c779 fb3e e262 473f f473 e83e
00000140: b130 df3d 002e 543e 132b 9f3e 37c3 3c3e
00000150: 2142 b93e 46c6 c83d 0f69 873f 4438 94be
00000160: 256c c8bd deb6 26bf c69b 893e ef56 f73e
00000170: 88d2 61be 7a96 633d aadc 87be 41d0 42be
00000180: 9544 30bf e1a3 13bf bd25 113f 2ffb c73e
00000190: 0539 183d 1b97 6e3e efa6 313d 1bc8 c4be
000001a0: 05aa 90be 7a36 08be 09c3 403e 84c1 433d
000001b0: 59b2 24bd 3a69 113e ae65 9d3e f7b8 5c3e
000001c0: cba6 68bd d4ae 313e a374 243d 365c ccbe
000001d0: 834e 473e de48 2b3e f9fc 563d 49f0 593e
000001e0: 9511 95be f5b3 d8be 486a a03e b790 953e
000001f0: 9e54 cdbe 8564 19bd 55ca 953e a656 d0be
00000200: b5d2 bc3c a33d cfbe 84cb 17bf ad39 fcbd
00000210: d336 c3be aafa 14bf ee8c 0fbd 8b2d 973e
00000220: 0279 4dbf d922 a03e 47f8 fa3e 9e0e 3dbf
00000230: 203a 50bf d24a 91be 62be 07bb 2be0 0abf
00000240: 9384 2fbd 2d28 d7bd 3226 573d 85af 16be
00000250: 51fe 023e cf1a cbbd 1daa a73e 2ea9 6a3e
00000260: d1de 5dbd fa5a d23e 4fb3 dc3e b99f 9bbc
00000270: 8195 c53e e860 cb3e 0c25 a13e 192a 36bf
00000280: c9a1 293e 974d 1d3c 8c4a 21bf d031 ec3e
00000290: 29de 18be 2cfa 07be 0bf4 3d3d 27bc adbe
000002a0: a3cf 47bd 9ffd 0e3e 7651 7f3e 715e 58bc
000002b0: 2f1c d8be f989 c4be bb18 713e d7f3 d9be
000002c0: 7c44 ab3e b534 4d3e 079d 52be 9436 083f
000002d0: 86cb d2bd d632 9ebe a03a 913e 566e f33d
000002e0: 8125 263d b205 913e b998 02be 6c75 d0be
000002f0: b739 74be 9caa f0bd 8048 183e 8ea5 333f
00000300: 7aef 433d 2964 c53d 2661 9d3d a957 9dbd
00000310: 095a 53be e24b 4ebe 2b5e 5abc dbc3 23be
00000320: cd1a 90be dc9f 0bbf 8dd3 fdbd df60 99be
00000330: c84d 993e 7e81 b1bd 99b8 ad3e 30b7 37be
00000340: ae91 3a3e 9caa 00be f9da 923d e4c7 68be
00000350: e79d 88be a128 16bf f6d1 673e fb05 d3be
00000360: 6ca9 48be 4916 56be a60c d33e ccc3 d43e
00000370: e580 583f 6e6e 04bf b2cb 50be 648c 10bf
00000380: b2d0 353e 5647 83bf 0382 9b3e 44a5 ddbe
00000390: 19e4 b0bd dbb8 00be 5c5f 823f 1a0d e6be
000003a0: 5eba 8abe 8989 f73e 04b7 dc3d 1d94 f33e
000003b0: ffe2 3f3d e3f5 eb3e 93b9 033f d252 c7bd
000003c0: 01b9 ca3e 85fa 2abf 7bde c83d 5171 ebbd
000003d0: eabe dc3e f728 68be 776b b83d f772 693e
000003e0: 8464 643f c529 15bf ebdd 183f 177a ae3d
000003f0: e45f 1e3e b617 6b3d 67ae 333f 2df6 77be

fc2.bias f4 [300]
-0.39509168 0.020248711 -0.21114506 -0.1644863 -0.37724394 -0.44571528 -0.2409006 -0.35574988
-0.7033191 -0.022476606 -0.28999218 -0.28519088 -0.2531341 -0.36492872 -0.0020751136 -0.41381946
-0.21588735 -0.42901596 -0.088987775 -0.083467916 -0.28973547 0.0046388074 -0.40788049 -0.13106474
-0.19416884 -0.28156644 -0.57326925 -0.35010126 -0.41051865 -0.44881392 -0.31969926 -0.24234158
-0.4357633 -0.34747815 -0.5659916 -0.28318733 -0.2002228 -0.015156912 -0.41991335 -0.44207922
-0.41106763 -0.04527526 -0.37915987 -0.51921827 -0.041267432 -0.38829845 -0.3928212 -0.41383228
-0.36038098 -0.41806018 -0.020397237 0.029404609 -0.36095437 -0.21179558 -0.26376772 -0.5995327
-0.25621495 -0.3180764 -0.31386805 -0.43761307 -0.4546233 -0.08525642 -0.2409151 -0.17896609
-0.39869678 -0.44511873 -0.15177901 -0.4162843 -0.46445712 -0.4137531 -0.47220805 -0.66225016
-0.010969094 -0.058673646 -0.13429752 -0.34287113 -0.46620494 -0.39489502 -0.3140955 -0.22065127
-0.49707264 -0.3643227 -0.20892237 -0.43805674 -0.52985597 -0.22768684 -0.361122 -0.43797132
-0.33364195 -0.12132623 -0.5045739 -0.19682413 0.06214997 -0.46740627 -0.024044497 -0.37138888
-0.02867573 -0.42588958 -0.45765224 -0.13675095 -0.26030916 -0.28892535 -0.35368848 -0.24305604
-0.35485178 -0.32706037 -0.04496646 -0.027653484 0.05779522 -0.5501287 -0.61476547 -0.272664
-1.1398685 -0.21012984 -0.34906465 -0.12260325 -0.21165958 -0.47726816 -0.3715222 -0.45715174
-0.3411783 -0.56051165 -0.41911808 -0.365894 -0.25394157 -0.3738592 -0.41146326 -0.55442667
-0.47103807 -0.58656085 -0.1369474 -0.4345238 -0.18433367 -0.39512825 -0.22395673 -0.534727
-0.05926321 -0.47850475 -0.39165264 -0.5361429 -0.5687807 0.01550961 0.056006793 -0.48618618
-0.7809954 -0.24544424 -0.29532057 -0.37247145 -0.3400945 -0.16558537 -0.6908442 -0.4124049
-0.30214593 -0.13919654 0.08762102 -0.12372411 -0.1846309 -0.17369974 -0.35281685 -0.8203013
-0.3141258 -0.11134755 -0.5674737 -0.12321873 -0.3681776 -0.09900976 -0.040685605 -0.54651344
-0.23820843 -0.13422428 -0.3421534 -0.65689 -0.52976817 -0.39319116 -0.50907886 -0.39491886
-0.45046297 -0.51464653 -0.27045953 -0.2080552 -0.29381105 -0.6760132 -0.25807756 -0.15009966
-0.7027785 -0.6977867 -0.10835138 -0.4879768 -0.12899388 -0.44031492 -0.16139944 -0.052326005
-0.19987072 -0.3437095 -0.36016306 -0.22576173 -0.1834466 0.07494435 -0.3581895 -0.37291783
-0.40435335 -0.34302762 -0.31340247 -0.52574277 -0.16776103 -0.28147084 -0.62746525 -0.32731485
-0.74454737 -0.4205643 -0.5793294 -0.16711292 -0.8321605 -0.48476437 -0.50014067 -0.24053441
-0.47192398 -0.37157157 -0.34555194 -0.38362378 -0.46444058 -0.06788851 -0.16408683 -0.54695314
-0.7125173 0.001556333 -0.39006993 -0.23510508 -0.60059637 -0.036687694 -0.19523133 -0.398094
-0.8973315 -0.4338335 -0.4195669 -0.33391014 -0.47734946 -0.3123847 -0.16187999 -0.12534894
-0.5410627 -0.41789398 -0.3341185 -0.20214736 -0.4391553 -0.26872978 -0.42186373 -0.2892852
-0.34852567 -0.115892105 -0.030609548 -0.49107215 -0.19698507 -0.40393835 -0.9085549 -0.06845167
00000000: 7549 cabe a0e0 a53c 6936 58be 196f 28be
00000010: 1e26 c1be cb34 e4be a6ae 76be d924 b6be
00000020: b80c 34bf dc20 b8bc db79 94be 8a04 92be
00000030: cb9a 81be f0d7 babe a1fe 07bb 25e0 d3be
00000040: 9311 5dbe fba7 dbbe 393f b6bd 3af1 aabd
00000050: 3558 94be 2301 983b b6d5 d0be d635 06be
00000060: 32d4 46be 7a29 90be c6c1 12bf 7940 b3be
00000070: 802f d2be f0ca e5be 9faf a3be 6428 78be
00000080: 5e1c dfbe a8e8 b1be d3e4 10bf eefd 90be
00000090: 3507 4dbe b254 78bc e2fe d6be 3558 e2be
000000a0: 7577 d2be 8d72 39bd 3e21 c2be 7deb 04bf
000000b0: 0a08 29bd 0ecf c6be dc1f c9be d3e1 d3be
000000c0: db83 b8be fc0b d6be 1b18 a7bc efe1 f03c
000000d0: 03cf b8be f1e0 58be 900c 87be fa7a 19bf
000000e0: 9b2e 83be e9da a2be 50b3 a0be d20e e0be
000000f0: 63c4 e8be eb9a aebd 73b2 76be e342 37be
00000100: fc21 ccbe 9ae6 e3be f56b 1bbe 3723 d5be
00000110: 53cd edbe 72d7 d3be 41c5 f1be 3a89 29bf
00000120: b7b7 33bc c753 70bd 4a85 09be ce8c afbe
00000130: 6ab2 eebe ae2f cabe 20d1 a0be 68f2 61be
00000140: 4e80 febe 8188 babe bfef 55be f948 e0be
00000150: a4a4 07bf bd26 69be fce4 b8be c73d e0be
00000160: 1ed3 aabe e379 f8bd c12b 01bf 448c 49be
00000170: f890 7e3d e04f efbe f7f8 c4bc af26 bebe
00000180: 5de9 eabc 330e dabe 6551 eabe 7108 0cbe
00000190: 3e47 85be 06ee 93be a816 b5be afe3 78be
000001a0: 22af b5be 7574 a7be c02e 38bd 8f89 e2bc
000001b0: aeba 6c3d 3cd5 0cbf 4561 1dbf 9e9a 8bbe
000001c0: 36e7 91bf 472c 57be 9ab8 b2be 6a17 fbbd
000001d0: 4abd 58be 7e5c f4be 2838 bebe cb0f eabe
000001e0: ecae aebe b17d 0fbf a596 d6be 7556 bbbe
000001f0: a104 82be 796a bfbe 50ab d2be e8ee 0dbf
00000200: e72b f1be da28 16bf f03b 0cbe e779 debe
00000210: f7c1 3cbe 404e cabe ea54 65be dee3 08bf
00000220: fbbd 72bd 93fe f4be b286 c8be a940 09bf
00000230: 9d9b 11bf 051c 7e3c 6167 653d 65ed f8be
00000240: 51ef 47bf bc55 7bbe 4234 97be 94b4 bebe
00000250: de20 aebe 368f 29be 2adb 30bf bc26 d3be
00000260: dfb2 9abe 8a89 0ebe a672 b33d 1163 fdbd
00000270: e20f 3dbe 58de 31be 69a4 b4be 44ff 51bf
00000280: 19d5 a0be 2f0a e4bd f545 11bf 1a5a fcbd
00000290: c681 bcbe a1c5 cabd f3a5 26bd 4ee8 0bbf
000002a0: e9ec 73be 1772 09be bb2e afbe f129 28bf
000002b0: e39e 07bf 5a50 c9be fe52 02bf ce32 cabe
000002c0: 15a3 e6be e0bf 03bf ac79 8abe 6c0c 55be
000002d0: 676e 96be 330f 2dbf be22 84be bab3 19be
000002e0: 4be9 33bf 26a2 32bf 54e7 ddbd 18d8 f9be
000002f0: f916 04be f570 e1be e545 25be cb53 56bd
00000300: e9aa 4cbe b1fa afbe 4b67 b8be 152e 67be
00000310: 6dd9 3bbe 6c7c 993d 9d64 b7be 16ef bebe
00000320: 6707 cfbe 51a1 afbe 4a76 a0be 1497 06bf
00000330: 8cc9 2bbe f21c 90be 90a1 20bf d095 a7be
00000340: a89a 3ebf 3454 d7be ee4e 14bf a61f 2bbe
00000350: 7808 55bf 0933 f8be 3809 00bf a74e 76be
00000360: 05a0 f1be a13e bebe 2fec b0be 566a c4be
00000370: 28cb edbe 2209 8bbd 6106 28be 1f05 0cbf
00000380: 8967 36bf dffd cb3a 3fb7 c7be 63bf 70be
00000390: afc0 19bf d645 16bd b9ea 47be fad2 cbbe
000003a0: 84b7 65bf 6d1f debe 79d1 d6be 45f6 aabe
000003b0: 2667 f4be e3f0 9fbe dec3 25be 795b 00be
000003c0: 1683 0abf 33f6 d5be 9411 abbe b8ff 4ebe
000003d0: f7d8 e0be f396 89be 86fe d7be 311d 94be
000003e0: f571 b2be d758 edbd e0c0 fabc cf6d fbbe
000003f0: 74b6 49be 02d1 cebe 0e97 68bf 6430 8cbd
