2. Policy-Based Methods/continuous-control/critic_checkpoint.pth (torch_old, 549446 bytes, 9 tensors)

fc1.weight f4 [400, 33]
00000000: bc96 1d3e fd98 8ebd 90b4 e1be bd06 003f
00000010: 2347 0a3f 1d31 3d3f 0bb1 22be c26d 003e
00000020: f452 373e 9a06 773e 0961 7d3d 139a b3bc
00000030: 9adc 13be 1143 24be 6b78 0abe d072 58bd
00000040: 6ee2 69bf e138 8c3f 4ea5 4e3f 9302 c3bf
00000050: b74c eabc 3811 9dbd 7c02 35bd 6057 5dbd
00000060: cc3f 973d dfd5 7cbe 71e4 0e3e dc96 7d3f
00000070: 1721 62bd 5f55 46bd d79a 73bf 20f2 fdbc
00000080: f8d2 18c0 2d8b df3d 5fa2 86be 356d 8e3e
00000090: 15bc d23f 8d70 21bf 1113 9a3e 2c6d cd3e
000000a0: f36f 48bb 901e 0b3e 290e 6d3e 8a03 41be
000000b0: c0c3 81bd 7eba df3d 770a 8cbe 243b 2a3e
000000c0: cfb8 173e 7ae3 61bf 2ca9 64bf 1944 b63f
000000d0: 6652 053f 3bd4 bf3a 8c19 273e d16b 923e
000000e0: 4340 9b3e 0724 11be 0ce6 543e 16c4 c23d
000000f0: 57da b73e cf7d f0be 9dd1 e1bc bafb b6be
00000100: 6d90 3ebd 92c8 acbf 0bb4 fe3e 86ac babf
00000110: 4b9e d63d e52d 8e3f df68 373f e55f 163f
00000120: 2857 b43d fac7 44be 350a 853d 4c66 46be
00000130: a057 3e3d 393b 7cbe 4335 9f3d 1748 3fbe
00000140: 6ddf 4d3f 47bc 003e 69af 733f 9279 16bb
00000150: b89e 9f3c 14fb 47be ab8c 32bc b738 f3bd
00000160: 6616 133e e1eb 0bbd c8f9 133d 0efd 5fbd
00000170: 82d9 bdbd bf01 b23e 00c3 e1bd 59c4 403d
00000180: f72a aabe 5842 c5bb 106c 11be 45de 5f3e
00000190: 73a9 cf3e bdc6 1e3f 83e8 9bbe 6b63 b33f
000001a0: f6a2 44bf 654d 163d 3c22 9b3e 8bb5 f43e
000001b0: 0bc2 87be 686f 3cbe d86a 0bbd e94d b5be
000001c0: 1b4a cfbe c77c 133f 8964 0cbd e50b 40bf
000001d0: cc32 85bf 3c80 803d c281 363c ed66 98be
000001e0: c11c 8abe 23bb a7bd 4f86 b23d 0426 ed3e
000001f0: 60bc 2bbe ce83 f1bd 880e 573e 1865 b7be
00000200: 2710 153d 6a9a 60be 48ee 303c 4456 6e3f
00000210: 8bbb fe3d 8893 3d3f a673 eebd e8dc 6a3f
00000220: ce2d f83e 758b 3abf 8845 76bf 1ca5 2abd
00000230: 3347 29bf 067a 62bf 9785 0d3e 7875 1c3e
00000240: 3f10 d5be 91f2 b23d 42ef 20be 2b6a 0abe
00000250: b6b4 41bf 5fda c3bf a48e 1fbf 4288 ca3e
00000260: e73e 5bbe c6fa ecbd 0ada e33d fb91 71be
00000270: cc6a cc3e 1c14 063d 778c 893e e1c1 703f
00000280: 2ffe 423d 49dd 093d 383e 75bf f1dd 1f3d
00000290: 9dee 26be b476 353e 14db b3be 0f0f a1be
000002a0: caf0 df3d 58e5 843f 777f 3c3f 527a 233f
000002b0: 7ffa d7bd 0aed 783f 87ea f8bd 095a 013f
000002c0: 711e 65be 76ad 1cbe edcb 77bd ba35 2b3e
000002d0: 8914 a8be d809 ff3d 2b47 3b3f 49d2 2d3e
000002e0: 493f 8ebf a595 60be 9237 aabe e5b5 81bd
000002f0: d037 5b3e 0380 323e df7f bdbe 100e 28be
00000300: 10b7 903f af76 a03e 73c0 a4bc 234d 9abf
00000310: 431b 9cbc 1e41 113f 9b88 cb3e d811 50bf
00000320: 9a5b 63be 0268 67bf bdc5 b83e c654 4c3f
00000330: e8ef 573f 471b 5f3e a263 92be 7fb4 a53e
00000340: c026 50be 94c4 c2bd 1b73 16bd 10af 473c
00000350: 5323 d33e 184d 993e 6f7d 623f 1868 ab3f
00000360: f5aa 2f3f cf82 823e 1bdc edbd f023 c43e
00000370: 474f 89bd 64b8 3f3e 4227 273e 339f 5a3e
00000380: bf05 babe ba59 633e 4034 c33d 9a67 88bc
00000390: 7b70 92be e847 0cbc 5cc8 70be 77f1 64bd
000003a0: f361 11bf 5fde d4be 5649 343f 6335 c3bf
000003b0: e990 693f eb36 3dbe df7d 4ebe 6b91 94be
000003c0: 8d0e 3bbe b601 52bd d238 3fbe af80 89bc
000003d0: 8151 eebd 0d11 e13e d71e d13e fd70 c13c
000003e0: 021e d53f e905 96bf 1f2e c23f 39fc 88bd
000003f0: adbb b5bc c42a b43e d639 d93c 041b 4fbd
0.15389532 -0.06962774 -0.4408307 0.5001028 0.54014796 0.73903066 -0.15887849 0.1254187
0.17902738 0.24123612 0.061860118 -0.021924054 -0.14439622 -0.16041209 -0.13522498 -0.05284387
-0.9136113 1.0954858 0.80720985 -1.523516 -0.028601034 -0.076693 -0.044191822 -0.054038405
0.07385215 -0.2469096 0.13954331 0.9905832 -0.05520734 -0.04842126 -0.9515814 -0.030999243
-2.3878765 0.109152175 -0.26295754 0.27817693 1.6463648 -0.63062364 0.30092672 0.40122354
-0.0030584305 0.13585877 0.23149933 -0.18849006 -0.063361645 0.109242424 -0.27351734 0.16624123
0.14816593 -0.88237727 -0.89320636 1.4239532 0.52078855 0.0014635393 0.16318339 0.28597882
0.30322465 -0.141739 0.20790881 0.09510057 0.35908768 -0.46970984 -0.027565772 -0.35738927
-0.046524454 -1.3498709 0.49746737 -1.45839 0.10479411 1.1107756 0.71644396 0.58740073
0.08805686 -0.1921691 0.064960875 -0.1937496 0.046470284 -0.24631967 0.07773831 -0.18679844
0.80419046 0.12571822 0.9518953 -0.0022960645 0.019484863 -0.19529372 -0.010897796 -0.11876052
0.14364013 -0.0341605 0.03612688 -0.05468469 -0.09270002 0.34766957 -0.110235214 0.04706225
-0.33235905 -0.0060198717 -0.14201379 0.21862133 0.40558967 0.62022 -0.3045083 1.4014715
-0.7681116 0.036694903 0.30299556 0.47794756 -0.2651523 -0.18401873 -0.03403744 -0.35411003
-0.40486225 0.5761227 -0.034275565 -0.7501815 -1.0406127 0.06274459 0.011139335 -0.29766026
-0.26975062 -0.0818999 0.087170236 0.46318066 -0.16771078 -0.11792718 0.21001637 -0.35819316
0.036392357 -0.21933904 0.010798998 0.9310038 0.12438115 0.7405324 -0.11643152 0.91743326
0.48472446 -0.72869045 -0.96199846 -0.041661367 -0.66124266 -0.88467443 0.13820492 0.15279186
-0.41613957 0.08737672 -0.1571627 -0.13517062 -0.7566637 -1.5301017 -0.6232703 0.3955708
-0.21410714 -0.11571269 0.11125572 -0.23590843 0.3992523 0.03273402 0.2686498 0.94045836
0.04760569 0.0336583 -0.95798063 0.03903002 -0.16301961 0.17721063 -0.3512808 -0.314568
0.10934599 1.038249 0.73631996 0.6385852 -0.10545825 0.9723669 -0.121541075 0.5052801
-0.22374894 -0.15300545 -0.060497213 0.16719714 -0.32828167 0.124530494 0.7315547 0.16974749
-1.1113063 -0.21932085 -0.33245522 -0.06333522 0.2140801 0.17431645 -0.3701162 -0.16411614
1.1305866 0.31340548 -0.020111298 -1.205479 -0.019055968 0.56739986 0.3975266 -0.8127723
-0.22202912 -0.9039308 0.36088362 0.79816854 0.8435044 0.21787749 -0.2859164 0.3236427
-0.20327282 -0.095101506 -0.036730867 0.012187734 0.41237888 0.2994163 0.88472646 1.3391142
0.68620235 0.25490424 -0.116142474 0.38308668 -0.06704574 0.18722683 0.1632357 0.21349792
-0.3633251 0.22202197 0.0953145 -0.016650964 -0.2860144 -0.008562066 -0.23513931 -0.05589434
-0.56790084 -0.41575906 0.704244 -1.5250667 0.9123674 -0.18477981 -0.20165204 -0.29017195
-0.1826727 -0.051271163 -0.18674019 -0.016784994 -0.116366394 0.4395832 0.4084384 0.023613447
1.6649783 -1.1720554 1.5170325 -0.06688733 -0.022184217 0.35188878 0.026516836 -0.050562873

fc1.bias f4 [400]
00000000: 54ad 69bf 183b 6cbe 802e a9be cf9f 85be
00000010: 6d8f 50bf 90f2 86bf d54f a6be 7365 e4be
00000020: 84e8 b0be f9de 0ebf 80b0 1dbf 6c38 1ebf
00000030: bd10 4cbf 557f 46bf 2270 66bf c90f 60be
00000040: 6353 1abf ac67 4abf 185e 84bf ce33 41bf
00000050: 8247 033e 820f b5be 0916 3dbf 1e5d e4be
00000060: f4cc 1bbf 95d2 41bf 249a 95bf a2bf 30bf
00000070: 179a 15bf e742 10bf 928c 00bf c337 6fbf
00000080: 2525 7fbf 43d9 adbf 0339 a0bf 8cfa 1ebf
00000090: 7cff 07bf 4d58 03bf 9a19 08bf 7bbc 5cbf
000000a0: 4bd6 75bf 11bc e03c 2167 0dbf 5da3 1fbf
000000b0: bf64 3abf 0ad4 e4be d951 06bf 408e d0be
000000c0: 0314 22bf 9321 cdbd ac21 693e d416 e9be
000000d0: 9618 913e d350 22bf ec01 84bf 06fb 18bf
000000e0: c1ab 22bf b403 82bf 5f9c 0dbf 1fde 88bf
000000f0: fa8b 29bf 3d6c afbe 5da2 c5be d01f 0cbf
00000100: 46a5 8ebf 558e 84bf 0cc7 5cbf 0417 7bbf
00000110: 71b8 8bbf a443 2fbf 1a14 fabe 83e8 12bf
00000120: 199c 81bf 0d98 0fbf ddb0 27bf 88e7 04bf
00000130: 6a4c 60bf dd4b 30bf 9102 96be 28b3 0dbf
00000140: e3a0 7ebf 64a5 60bf 0156 87bf 1d0f 72bf
00000150: 5706 c6be ac35 1fbd 0999 0abf e766 bebe
00000160: 40b5 3dbf 0bb9 e9be 9700 24bf 02a9 8fbf
00000170: 629c 74bf 2c9b 6abe 3437 47bf 2083 70bf
00000180: 1f6e 25bf 9252 33bf 40fc 47bf ffcd 91bc
00000190: 0ed5 20bf c618 46bf ac8d 87bf 61e0 47bf
000001a0: faff 13be b54f 61bf 04f5 b4be b17a 2abf
000001b0: 6f85 05bf c9da 6abf 4721 41bf 73d5 19bf
000001c0: 88ca dcbe 7fd4 aabf 4abe 65bf 1d2e 21bf
000001d0: 8729 4abf 0c44 88bf 0582 9fbe 26f2 3f3e
000001e0: e6ba 29bf 12f9 84be 8316 53bf 9051 06be
000001f0: a972 26bf d9ac 61bf 0749 3bbf 9afa 80bf
00000200: bfb5 21bf 3938 ae3b e688 74bf 9ed8 13bf
00000210: bf9f b3bd 9900 2ebf 25c5 1abf 8047 59bf
00000220: 75b1 5d3d e7fc 7cbe 73f4 c8be 0cb3 dabe
00000230: e1fc f2be df1a 1ebf c60d 71bf d684 4ebf
00000240: 1b0e cbbe cc76 ffbe 1dcb f4be f8a4 9cbf
00000250: 0502 70bf c57e 57be 8593 ccbe d476 9ebf
00000260: ceaa b1be dad7 83bf 1c9c 4ebf ffe3 1ebd
00000270: b4e1 a3be c734 3abf a49d edbe cdf6 33bf
00000280: 59d2 3abf 1326 72bf 3ecb 9dbe 3b6c debe
00000290: 3a4b e9be e29e dbbd e69a 63bf 6d85 42bf
000002a0: a4c6 32bf a8c4 29bf 4f55 55be fac2 24bf
000002b0: 2955 2b3e 19c0 69bf 477f 17bd 87b2 9ebf
000002c0: a89e 6fbf 1a77 a33d 7067 5bbf 535f 88bf
000002d0: 73a8 28bf f087 c7be d7eb ebbe 19c9 72bf
000002e0: 9945 e4be 2361 8abf a617 1ebf fe93 febe
000002f0: 57a8 bdbc 054e acbf f98f 48bf 7f0d 9abf
00000300: d9f6 34bf b9e5 a2bf 443d 2ebf f06b 4cbe
00000310: 121f 27bf 4316 19bf 7696 6bbf 6679 5cbe
00000320: bdc3 c1be 7320 efbe 8786 10bf f028 79bf
00000330: e058 13bf 8239 7dbe 8c59 19be 82c0 2bbf
00000340: 5143 d1be 7e1a 13bf 77c0 1cbf 4a60 84bf
00000350: 1ee9 74be f1fc c4be e0ba b3be cf2c 23bf
00000360: ce7c 75bf 4008 41bf b135 2fbf fef1 acbe
00000370: 544d 2cbf 9978 b7bf 3fd1 0fbf aa5f 3cbe
00000380: 47dc 66bf 3123 00bf 9cf5 17bf 2180 da3e
00000390: b35a e0be 52b1 10be dbf1 1ebf 8095 d2be
000003a0: f378 7dbf f557 23bf 8920 46bf caf9 63bf
000003b0: ffe6 16bf 8e39 3ebf 2039 4bbf c828 f5be
000003c0: 8361 b6be 2278 86be 64e4 2cbf 3203 34bd
000003d0: 33f6 4cbf 9213 1fbe db6b 07bf 2f12 2fbf
000003e0: 2303 81bf 252c 14bf 4fda dbbe 00f6 6ebf
000003f0: 60f7 4dbf eea8 38bf 62fe c0bd c639 9cbe
-0.912801 -0.23069417 -0.3304329 -0.26098487 -0.8146885 -1.0542774 -0.32482782 -0.4460865
-0.34552395 -0.5580898 -0.6159744 -0.6180484 -0.7971304 -0.77538043 -0.9001485 -0.21881022
-0.6028349 -0.7906444 -1.0341215 -0.7546967 0.12820247 -0.35363394 -0.7386175 -0.44602293
-0.6085961 -0.7571195 -1.1687665 -0.6904241 -0.5843825 -0.56352085 -0.50214493 -0.9344446
-0.99666053 -1.3581928 -1.2517399 -0.62101054 -0.53124213 -0.5130661 -0.53164065 -0.862251
-0.9603011 0.027433427 -0.5523549 -0.6235865 -0.72809976 -0.44693023 -0.5246864 -0.40733528
-0.63311785 -0.100161694 0.22766751 -0.4552523 0.2833907 -0.6340458 -1.0313087 -0.5975803
-0.63543326 -1.015738 -0.5531673 -1.0692786 -0.6622921 -0.34262267 -0.38600436 -0.5473604
-1.1144187 -1.0355936 -0.8624122 -0.98081994 -1.0915662 -0.68462586 -0.4884346 -0.57386035
-1.0125762 -0.56091386 -0.65504247 -0.5191579 -0.876166 -0.6886576 -0.29298833 -0.55351496
-0.99464244 -0.87752366 -1.0573121 -0.9455431 -0.38676712 -0.038869545 -0.54139763 -0.37187883
-0.7410469 -0.4564899 -0.640634 -1.1223452 -0.9555112 -0.22910756 -0.7781861 -0.9395008
-0.64621156 -0.7004787 -0.7811928 -0.017798422 -0.62825096 -0.7738155 -1.059011 -0.7807675
-0.14453116 -0.8801225 -0.35343182 -0.6659346 -0.5215673 -0.9174009 -0.754414 -0.6009132
-0.4312327 -1.3346099 -0.89743483 -0.6296099 -0.78969616 -1.0645766 -0.31153885 0.18744716
-0.6630081 -0.25971276 -0.82456225 -0.13117051 -0.6501871 -0.8815437 -0.73158306 -1.0076478
-0.6316795 0.005316761 -0.9552139 -0.57752407 -0.087707035 -0.6796966 -0.6045707 -0.84874725
0.054124314 -0.2470585 -0.39249 -0.42714727 -0.47458556 -0.6175975 -0.9416164 -0.8067144
-0.396592 -0.49895322 -0.47811213 -1.2237844 -0.9375308 -0.21044452 -0.39956298 -1.2380013
-0.34700626 -1.0300248 -0.80706954 -0.038791653 -0.32008135 -0.7273678 -0.46409333 -0.70298463
-0.72977215 -0.94589347 -0.30819124 -0.43441948 -0.45565206 -0.10723664 -0.8890823 -0.7598484
-0.6983435 -0.663157 -0.20833324 -0.6436001 0.16731705 -0.9130874 -0.036986616 -1.2398232
-0.93601465 0.07981701 -0.8570471 -1.0654091 -0.65882033 -0.389709 -0.4607837 -0.948381
-0.4458435 -1.0810894 -0.61754835 -0.49722284 -0.02315156 -1.346131 -0.78344685 -1.2035369
-0.7068916 -1.2726356 -0.68062234 -0.1996305 -0.65281785 -0.59799594 -0.9202646 -0.21530685
-0.3784465 -0.46704444 -0.5645527 -0.9732809 -0.5755749 -0.24728969 -0.14975566 -0.6709062
-0.4087167 -0.574623 -0.6123118 -1.0341885 -0.23917052 -0.3847423 -0.35103512 -0.6374025
-0.9589356 -0.75403214 -0.684413 -0.33778375 -0.67305493 -1.4333678 -0.5617866 -0.18395868
-0.90179867 -0.500537 -0.59359145 0.4267588 -0.43819198 -0.14130142 -0.6208779 -0.41129684
-0.9901268 -0.63806087 -0.77393395 -0.8905302 -0.5894622 -0.7430657 -0.7938404 -0.47882676
-0.3562127 -0.2626353 -0.67535996 -0.04394836 -0.8006317 -0.15534809 -0.5289895 -0.6838712
-1.0079082 -0.5787986 -0.42939994 -0.93344116 -0.8045559 -0.72132766 -0.0942352 -0.30512828

bn1.weight f4 [400]
00000000: b55d 983e b52f 6c3e 4319 be3e 08ef 5e3e
00000010: a93a 1d3e daf2 373e ea32 a93e 590b a73e
00000020: b5c7 a43e bdd2 213f 1ceb 663e f668 b43e
00000030: 36c8 933e 68e2 973e 2ff4 a23e 8b96 893e
00000040: cd2f 493e 90d5 743e 731d ccbc 8aa0 813e
00000050: 45b8 853e 67b1 eb3e f90b 333e 3bea 7d3e
00000060: dfbe b23e 1bfa 51be aee0 7f3e 9a4f 413e
00000070: 3d59 a73e 83b5 9e3e 786f ac3e 59c6 8e3e
00000080: 15d5 043e 939f 323e 7edd 2cbe 7933 573e
00000090: 5cd9 403e 24c9 833e fbc1 d23e 5f47 69be
000000a0: 6437 7f3e f98d 053d 56f6 663e 6ee8 5ebe
000000b0: ef49 a43e 43db 8a3e 33d7 613e b5ce 6c3e
000000c0: f053 983e cb45 793e 6f49 363e c30a 7a3e
000000d0: 0446 843e fc78 953e 5891 3b3e 9b8d 113f
000000e0: 459f 033f be8c 973e 2dd4 573e cdb3 9fbe
000000f0: 79ae 733e dcd6 783e e9c6 773e b583 9d3e
00000100: 8ada a03e 0697 783e cdb3 863e 80fb 863e
00000110: 09c5 4d3e 1961 b13e 177f 5f3e 8798 563e
00000120: 2b62 423e 8ca7 3b3e d873 8d3e dbe5 65be
00000130: 3621 9f3e d330 593e 4a54 893e 5091 643e
00000140: 28cb d33e e22a 953e 180c 573e 37fb 923e
00000150: d3f4 573e 7407 8b3e 842e 833e dd48 8e3e
00000160: ee55 673e 8eaa 163f 322c 813e 7a14 9b3e
00000170: b3f1 503e 5244 90be 5d98 983e f2fa 903e
00000180: 9e89 6f3e 9593 c03e b76e 863e 7bfe 823e
00000190: 9d99 1c3e ba1e b53e c642 663e 9fd3 463e
000001a0: 0fb2 5c3e c25e 433e e2db 8e3e fc03 353e
000001b0: 2dac 573e ae97 303e ff41 cd3e b56f acbe
000001c0: ab09 863e 5eb0 1b3e b75b 913e 75ca b43e
000001d0: eabb 883e 3144 833e 3676 963e 623b 013f
000001e0: 89d2 993e 2fc6 7b3e 5250 953e 518b 7c3e
000001f0: 9c26 26be 322a 4bbe dea7 8d3e 2d6b 683e
00000200: 646a c33e fcac ba3e 153f 7f3e 5f2a 493e
00000210: 3f8e a23e 033b 6c3e c086 5c3e 97a1 9e3e
00000220: d9d5 a43e bc9b 963e ebee d93e 9631 d23e
00000230: 5a4d e33e 5329 913e c527 27be df68 093e
00000240: 38c4 883e f6cf 253e 365f 873e f163 493e
00000250: e4b9 1a3e 1a68 4b3e a1ee 83be 33d4 e5bd
00000260: 2c73 823e c9c6 453e 665d 803e 50a6 e93e
00000270: efaf e33e 2836 6f3e 62db 103e fa22 6d3e
00000280: d798 823e 0bf0 803e a6ed 7d3e 2682 60be
00000290: c43d ae3e e402 5d3e 0943 bb3e f863 403e
000002a0: 9143 c63e 1ef6 2e3f a18c 913e 9dad 4abe
000002b0: 0d67 403e 380b 833e d156 e13e 53df bb3e
000002c0: a4cc 013e 4cbd 283f 9650 db3e 4f42 7f3e
000002d0: 7862 c93e 5400 063f 3923 72be b3ba 543e
000002e0: 6b28 643e 50c3 2ebe ec14 a93e 4559 863e
000002f0: 148c 8a3e f489 793e 99e0 663e 9ff2 bc3d
00000300: 2ba3 703e 7db7 f73d 1969 9c3e 1237 4c3e
00000310: 451d b23e b49c 853e 3cc8 843e d09d e83e
00000320: a065 a43e 2fd4 803e def3 9e3e 724e b53e
00000330: 962c 3b3e bb17 cd3e 0029 573e eba2 4c3e
00000340: b2b8 3b3e 00ab 3d3e 2d84 1abe 2575 473e
00000350: 0648 a03e 9688 363f acc5 973e 34bb 1fbe
00000360: 95b0 3d3e 3d17 4e3e 7b85 9c3e 5f25 9e3e
00000370: df0d ce3e 2e50 883e 5a00 8d3e 20b3 373e
00000380: 7af5 c33e c522 793e 4594 303e cb37 563e
00000390: 687b 6c3e 4cf3 a33e 4dc4 883e 4a56 903e
000003a0: 937e 5f3e 3800 4f3e 0a8c 263e 7db1 6b3e
000003b0: 7e1c a03e 9585 533e 4ca1 373e 06c0 b13e
000003c0: 771a af3e 7e5e b53e cbdd 273e eedf 2c3f
000003d0: 0897 ae3e 07a2 243e 8302 d63e 7503 343e
000003e0: fa6c 4c3e 16ae 633e c48d ac3e ecc3 c03e
000003f0: 927b bb3e e983 d23e 1b34 1f3e 7c40 233f
0.29758993 0.23065074 0.37128648 0.2177087 0.15354408 0.17963734 0.33046657 0.32625845
0.32183614 0.63212186 0.22550625 0.3523633 0.28863686 0.29664922 0.31826922 0.26872668
0.19647141 0.23909593 -0.024916386 0.25317794 0.2611715 0.46033785 0.17485036 0.24796383
0.34911248 -0.20505564 0.24988052 0.18878022 0.3268527 0.30997857 0.33678794 0.27885702
0.1297191 0.17443685 -0.16881368 0.21015729 0.18832916 0.25739396 0.4116362 -0.22781132
0.24923474 0.0326061 0.22554907 -0.21768352 0.32087657 0.27120408 0.22054748 0.23125727
0.2975154 0.2434303 0.1780145 0.24418168 0.25834668 0.29193866 0.18317163 0.568567
0.514149 0.29599565 0.21077032 -0.31191865 0.23797025 0.24300712 0.24196972 0.30764547
0.31416732 0.24276361 0.26309052 0.26363754 0.20094694 0.34644392 0.21825825 0.20956622
0.1898276 0.18325633 0.27627444 -0.22450964 0.31080025 0.21210031 0.2682212 0.22321057
0.41365933 0.2913428 0.21000707 0.28707287 0.21089487 0.27154124 0.25621426 0.27789965
0.22591373 0.58853996 0.2522903 0.3028906 0.20404701 -0.28177124 0.29803744 0.28316456
0.2339234 0.37612596 0.26256344 0.25584778 0.15292974 0.35375005 0.2248641 0.19416665
0.21552299 0.19079116 0.27902132 0.17677301 0.21061774 0.17245361 0.40089414 -0.33678976
0.2617925 0.15203997 0.28390285 0.35310712 0.26705867 0.25637963 0.29387063 0.50481236
0.30043438 0.2458732 0.29162842 0.2466252 -0.16225666 -0.19840315 0.27667135 0.22697134
0.38167107 0.36460102 0.24926408 0.1964507 0.3174915 0.23069386 0.21535778 0.30982658
0.32194403 0.2941569 0.42565092 0.41053456 0.44394952 0.2835184 -0.16323765 0.13418911
0.26712203 0.16192612 0.26439828 0.19667031 0.15109974 0.1986393 -0.25767997 -0.112221144
0.25478494 0.19314112 0.25071257 0.456347 0.44470164 0.23360503 0.14146188 0.23157874
0.25507233 0.25183138 0.24797687 -0.21924648 0.34031498 0.21583134 0.3657458 0.18788135
0.38723424 0.68344295 0.28427604 -0.1979279 0.18789311 0.25594497 0.44011548 0.3669382
0.1267572 0.65913844 0.4283492 0.24927638 0.39332938 0.5234425 -0.23646249 0.20774345
0.22281043 -0.17066693 0.33023775 0.26239982 0.27059996 0.24369031 0.22546615 0.09225964
0.23499744 0.120955445 0.30548933 0.19942883 0.34787956 0.26096117 0.25934017 0.454329
0.32108784 0.25161883 0.3104543 0.35411412 0.18278727 0.40057167 0.21011734 0.19984023
0.18332174 0.18522263 -0.15089484 0.19478281 0.3130495 0.71302164 0.29643 -0.15598756
0.18524392 0.20126052 0.30570588 0.30887887 0.40244958 0.26623672 0.2753933 0.17939425
0.3827322 0.2432967 0.1724406 0.20919721 0.23093951 0.32021558 0.26712266 0.28190833
0.21825628 0.20214927 0.16264358 0.23016925 0.31271738 0.20656426 0.17932624 0.34716815
0.3419988 0.35423654 0.16393201 0.6752919 0.34099603 0.16077434 0.4179879 0.17579444
0.19963446 0.22234377 0.3370191 0.37649477 0.36617714 0.41116264 0.1554722 0.6377027

bn1.bias f4 [400]
00000000: 3340 2b3d ae80 943d f5a6 803e 9f1f 033d
00000010: 6f76 243d 93cb 6b3c dfc2 fc3d 53d4 5d3e
00000020: 1d77 de3d 6286 253e 45fc b43d b0f0 033e
00000030: 399a df3d 8100 993d b2f6 bf3d bd20 893c
00000040: 789e f73c e7f4 043d 9dda 13bf cae3 853d
00000050: cff8 a03d 8093 9d3d 30e0 ef3c 5ac7 883d
00000060: 4db2 d53d 0147 10bd a834 4b3d 6477 af3d
00000070: 27e0 103e 1037 843d 73c0 9b3d aafa 943d
00000080: 6274 de3c 0883 493d 6dcd 04be 7e49 7e3d
00000090: ed7c b03c 6e69 2d3d ef63 003e 6c46 f9bd
000000a0: fbb7 a63c cabe 0cbf 67af 363d 9490 ddbd
000000b0: c8c4 1d3e fe6e 243d c17d 113d 9dcf 433d
000000c0: b720 833d 0b3d 873d ae1b 643d 4cc2 633d
000000d0: a2a3 433d 7e90 d23d df10 593d 5a0c 043e
000000e0: 729a 033c bae7 603d 6356 903d d335 eebd
000000f0: 6ea3 163d 7c18 523d c01c 6bbc 4c1a 023e
00000100: 91b2 c23d 3cb1 f63c d9ec b53d 6c41 c83c
00000110: 0cde 0f3d acf7 1e3e dd57 973d 99ec 043e
00000120: d30b f13c 1f8b a0bc f700 4e3d b80b 83bd
00000130: a5e4 573d 1ce4 1a3d 4c0a fb3d 182f d43c
00000140: 48bf cc3d a630 d83d e2ee fe3c 90a3 85bd
00000150: 4a2b 493c 6c34 313d 3f88 033e 6694 563d
00000160: fc31 243d dda3 283e 2ba8 443d b1ac 3b3d
00000170: e588 893c 8194 3fbe 6cf4 973d baa0 d63d
00000180: 82d3 1cbb fa39 183e 080d 3e3d ed5a 513d
00000190: f9a6 8c3d e494 003e 54d7 e53d ea84 333d
000001a0: cae4 9e3d c95e dc3d d9bd fd3c 7f6c da3c
000001b0: b4bf 1c3d 30f7 083d 2358 883d ea31 03be
000001c0: a097 163d acfe 933c 5e3a 963d b918 d03d
000001d0: 2873 a83d 9f45 973d 50cc af3d e03e 833d
000001e0: f543 c83d 92c2 8e3d 558b cb3d c4f1 143e
000001f0: 7fee f4bc c032 5fbd b3e9 5b3d 5ddd b23c
00000200: 9bb0 233e d30c 653d 9972 953d 9d01 8b3d
00000210: 26af 803d 2924 253d cefd 9f3d 6a08 2d3e
00000220: 7a8c d83c 9816 ce3d 2626 463e 7a47 103e
00000230: 736e 0c3e d758 893d 1307 d9bc b457 763d
00000240: 6742 2e3e 0e31 c7bc 3234 5a3d 1d18 4e3d
00000250: 80a2 953c 0ca2 203d 896d 93bd 3276 873c
00000260: 8a54 803d 9bc5 333d a529 2d3d 5d38 553e
00000270: 3080 033e 8900 9c3d 59eb 853d d617 373d
00000280: 035f 73bb 00d8 8a3c a4e2 023d 3592 f5bc
00000290: d371 ec3d 2f68 473d 5773 0f3e 7839 e03c
000002a0: f5d1 b43d 3856 d93d 29b6 853d cf91 e3bc
000002b0: 5a48 43bc d6a1 303d 4f7f 023e eefd b53d
000002c0: 4392 c4bc 0be7 4d3d 4a26 3d3e 738d 6a3d
000002d0: dc3f 533e e16f 4e3e fdb5 f9bd 3b8b 2a3d
000002e0: c5bc b03d 0cea bfbc 216a d03d 64d8 1a3e
000002f0: 9a4a 9c3d e36d e53b 5c26 f43d 9f67 5d3c
00000300: 75d1 043e 849e ac3c 12c1 b13d b64d 123d
00000310: 9502 aa3d 8d75 0dbb 52f1 053e 222f 573e
00000320: 1e97 8c3d 80e7 823d ecad 2d3e eb3a ee3d
00000330: fe75 9b3d 7cb2 8c3d 3e58 9f3d 87af c13d
00000340: a8ed 133d 8034 2a3d d0ca 42bc 7810 5c3d
00000350: 0865 723d eae4 0f3e 8978 bd3d 56bd dabc
00000360: ecd2 b2ba c668 043d c363 f5bc f0db 673d
00000370: dd47 fe3d f7d0 853d 9a6f b33d fdb7 be3c
00000380: d441 9b3d fcc7 bf3d fc8d 153d 7ebe 10bc
00000390: 4eca f33b 9e2e 843d e724 843d f355 183d
000003a0: 31f6 3bbb 6225 493d 8342 0c3d 5db2 803d
000003b0: 5af2 a23d 0227 993d 8d26 6f3b 4c72 f23d
000003c0: 80b7 d53d 2b82 bf3d ab29 7f3d af50 463e
000003d0: 0b14 c53d 83ee fc3c f0a0 dd3d 426b 9a3c
000003e0: cedd 953d ffbf 733d 7257 663d 5dc3 e23d
000003f0: cf6c 673d 9c29 323e 5dd6 d83d 704b 0d3e
0.041809272 0.07251106 0.25127378 0.032012578 0.04015201 0.014391798 0.12341856 0.21663027
0.10862563 0.16164544 0.08837179 0.12884784 0.109180875 0.07470799 0.09373225 0.016739244
0.030226931 0.03246012 -0.5775545 0.06537588 0.078599565 0.07694149 0.029281706 0.06678648
0.10434399 -0.035223965 0.049610764 0.08567694 0.14148007 0.06455815 0.07605066 0.07274373
0.027155105 0.049197227 -0.12968989 0.062081806 0.021543944 0.042336874 0.12538122 -0.12171635
0.0203514 -0.5497862 0.04460087 -0.10818592 0.15407097 0.040144913 0.03552032 0.047805417
0.06402724 0.0660344 0.05569046 0.055605218 0.047763474 0.10281466 0.052994605 0.12895337
0.008032428 0.05490849 0.07047727 -0.1163136 0.036776952 0.05129288 -0.014350116 0.12705344
0.09506715 0.030113809 0.08883066 0.024445258 0.03512387 0.15524167 0.073898055 0.1298088
0.029424584 -0.019597588 0.05029389 -0.063987195 0.052708287 0.0378152 0.12257823 0.025901362
0.099974215 0.10556154 0.031119768 -0.06525338 0.012278387 0.043262884 0.12844943 0.052387618
0.04008673 0.16468759 0.04801194 0.04581899 0.01678891 -0.18708993 0.07419667 0.10479875
-0.002392978 0.14865866 0.046399146 0.051112104 0.06867785 0.12556797 0.11222711 0.04382793
0.07758482 0.10760266 0.030974315 0.026663063 0.03826876 0.03343886 0.06657436 -0.1281201
0.036765695 0.018065773 0.073353514 0.101609655 0.08225089 0.07386326 0.085838914 0.06408477
0.09778587 0.06970705 0.09938685 0.14545351 -0.02989888 -0.05449176 0.05368967 0.02183407
0.15985338 0.055920433 0.072972484 0.06787417 0.06283407 0.040317688 0.07812081 0.16897741
0.026434172 0.10062903 0.1935049 0.14089766 0.13714008 0.06706398 -0.026492631 0.060142234
0.17017518 -0.024315383 0.053272434 0.050315965 0.018265963 0.03921704 -0.071986265 0.016535852
0.062661245 0.043889623 0.042276043 0.20822282 0.12841868 0.076172896 0.0653903 0.044700466
-0.0037135489 0.0169487 0.031954423 -0.029976944 0.11545148 0.04868334 0.14008842 0.027371153
0.088291086 0.10612148 0.06528885 -0.027779488 -0.011919105 0.04312309 0.12743877 0.08886324
-0.023995524 0.050269168 0.18471637 0.057263803 0.20629829 0.20159866 -0.12192915 0.041636687
0.08629755 -0.023427032 0.101764925 0.15121609 0.076314166 0.007001625 0.11921379 0.013513475
0.12970527 0.02107168 0.08679403 0.035718642 0.08301274 -0.0021584958 0.13080338 0.21014073
0.06864761 0.06391811 0.16960877 0.116323315 0.075908646 0.06869981 0.07780503 0.09457307
0.03611532 0.041553974 -0.011889175 0.053726643 0.059178382 0.14052168 0.09251506 -0.02670161
-0.0013643182 0.032326482 -0.029954797 0.056606233 0.124160506 0.065339975 0.08761521 0.023281092
0.07580915 0.09364316 0.03651236 -0.008834479 0.007439888 0.06454204 0.06452351 0.037191343
-0.0028680677 0.049107917 0.034243118 0.0628402 0.07956381 0.07478143 0.0036491484 0.11838207
0.104353905 0.093509994 0.062295597 0.19366716 0.096229635 0.03087545 0.10821712 0.018849973
0.073176965 0.059509274 0.056235738 0.11072419 0.056500252 0.17398685 0.105877616 0.13798308

bn1.running_mean f4 [400]
00000000: d394 c03e 8538 873f 3eed 733f 26d6 9e3e
00000010: 0f59 a13e 703b 5b3e 7c6b 473f a506 0f3f
00000020: 4320 003f c9da 023f 8677 c13e a196 0c3f
00000030: ebd0 e33e 7766 f83d dea3 0c3e b5a3 333f
00000040: 45c2 383e fc0a 903e e149 803d 6be1 a13e
00000050: d55f 023f 44bd aa3f ab54 a33e efb0 503f
00000060: 9df6 333e e986 c53d 524b 0b3e b9d8 c23e
00000070: 1316 cc3e 71dd 2f3f 0051 d93e 11bc e03e
00000080: 5a38 273f 7089 793e d707 043e 8625 d33e
00000090: 04d8 d93e 570b 643e 2771 aa3e 995e ea3e
000000a0: 09a7 f53d c048 2c3f 0ec5 4b3f a36d b53e
000000b0: 5caa 363f a7ad 9e3e b2fd 073f 97c8 033f
000000c0: e838 233e 32d6 0a3f 7d7e 933f 587a 4a3f
000000d0: a5c8 843f 5eee b53e 807f 163e 3a8b b43e
000000e0: c3c9 fb3e 6d81 f73e 1246 cd3e 0a95 923e
000000f0: ddf4 aa3e 1c6a 0d3f 5b85 063f c04d 3b3f
00000100: 090c 063f f2a7 4c3f f3a8 573e 7435 053e
00000110: 0037 2a3e 7d79 cd3e a8c0 3e3f 5d11 033f
00000120: bcf5 323e 034b 143f 0a3d 153e f158 223e
00000130: f985 6b3e 2733 343f 543a 893f 3b19 ac3e
00000140: a652 1c3e d75e 443f b81e 853e 0b2b 703e
00000150: 7e0d b93e 2aca fe3e d27b ed3e ab2e 463f
00000160: 6c9e 4c3e 379f 703f a3af 643e e66f cf3e
00000170: dbce 5f3e fe9e 503f b91d a03e 7ae3 d73e
00000180: 6958 083f bc18 6f3e bdb9 163e ee9a f83f
00000190: b5dd 513f 503e 7b3e a05d 123f cc57 d83d
000001a0: bcb3 0a3f bfe9 5e3f 1a25 a13e 5aed 0f3e
000001b0: 8db5 843e a4c2 ac3e 2e1d 953e 1dca ac3e
000001c0: e61a c53e 32e0 d23d 9ab7 9f3e 3b7c 333e
000001d0: 3ff8 e73e f01f 583e 15d7 223f 369a 333f
000001e0: 7b28 413f 4be6 0e3f 79d1 223f faa4 723f
000001f0: 44bc d33d eed1 393e ba55 5b3e 214c 8b3e
00000200: 6de7 053f 4900 cd3e 611f 833e 2190 9f3e
00000210: 6558 8a3f 5006 5e3e b4de c03e 143d 3b3f
00000220: b121 ad3f b726 0b3f 8d98 cd3e 13f2 bd3e
00000230: dfaf 333f 477d ae3e 58d6 933d eba9 e43e
00000240: 630d b93f 4de2 bc3f 2628 4c3e dee7 2c3e
00000250: 2eb0 8f3e 392f 813f 721e 893e 3bdf 443e
00000260: 83e6 003f e506 cf3e 773c 5c3e f9a0 943f
00000270: 296b f43e 2656 e33e 72d1 bc3e d8e5 a03e
00000280: f9e6 a63e a0ed 0b3e b6f5 8d3f 0d12 a33e
00000290: 18b3 4c3f f5d2 a13f 2074 8d3e a254 873e
000002a0: 09f5 5b3e a215 023f 8238 7b3f 8b61 4f3e
000002b0: 6324 8b3f 43d5 b93e 1277 403f 1f3f b83e
000002c0: dc75 1c3f 3f16 613f 853e ad3e fc6a c63e
000002d0: 3c2d 963f 00e9 fc3e 0d47 c93e b267 5f3e
000002e0: f520 cd3f 0527 6a3d 5a8a d53e 83af 0240
000002f0: 0cbd c73f 1e76 aa3d a8dd ea3e 8fd7 4d3d
00000300: e689 7f3f 9817 573c 263c d33e 8d38 d63e
00000310: a635 193f 45f5 9a3e 9f5d d23e d75f 1c3f
00000320: 2928 b83e ddc4 873e 1045 4b3f f16a ba3e
00000330: 9872 ca3e b710 ca3e 7871 fd3e a3c2 ab3f
00000340: fb90 b23e ce96 5a3e 963c ec3d ed01 8d3e
00000350: 00a1 153f b01d 553f 4b1e 953e 4fa9 a33e
00000360: a899 843e ef9b b83e 31cd 2c3e a5eb 673f
00000370: a00c f63e 62a2 6c3e 9efc 5f3f 4950 bd3f
00000380: 49a7 9b3e c252 da3e 7f7a ac3e 3f2a 0b40
00000390: d13f 093f f387 503e 30b2 173e 7fa1 f33e
000003a0: 8247 063e d5f7 a73e d3f5 563e 6b57 303e
000003b0: 6e0f 5c3e e7ce 823e 818a 473e 3787 a73e
000003c0: 40a9 f63e 4ec2 de3e c5a9 203f 428c 403f
000003d0: 2b78 533e b478 d43e 0134 f53e bc45 ab3e
000003e0: 2ce2 893e e50f 993e c12f ce3e 4cc2 4b3e
000003f0: 34f3 433e 9754 b03e c995 ff3f 7c3f e73e
0.37613544 1.0564123 0.9528388 0.31022757 0.3151326 0.21409392 0.77898383 0.55869514
0.5004923 0.5111509 0.37786502 0.5491734 0.4449533 0.121289186 0.13734385 0.7017167
0.18042858 0.2813338 0.06264091 0.31617293 0.5092748 1.3339009 0.31900534 0.8151998
0.17574544 0.09644873 0.13602951 0.3805597 0.3986059 0.6869727 0.4244461 0.43893483
0.6532036 0.24368834 0.12893616 0.41239566 0.4254762 0.22269951 0.33289453 0.45775297
0.1199475 0.6729851 0.79597557 0.3543521 0.713537 0.3099186 0.53121483 0.5147795
0.15939677 0.54233086 1.1522976 0.7909293 1.0373732 0.35533422 0.14697075 0.3526247
0.4917737 0.48340932 0.40092522 0.28629333 0.3338994 0.55240035 0.52547234 0.7316551
0.52362114 0.79943764 0.21060543 0.13008672 0.16622543 0.4013175 0.7451272 0.5119837
0.17476553 0.5792696 0.14574066 0.15854241 0.23000325 0.7039055 1.0720925 0.33613
0.15265903 0.76707214 0.26 0.2345392 0.36143106 0.49763614 0.4638353 0.7741496
0.19982308 0.9399294 0.22332625 0.4051506 0.21856253 0.814926 0.31272677 0.42165738
0.53259903 0.23349279 0.14719291 1.9422281 0.81978923 0.24535489 0.5717411 0.10563621
0.541805 0.8707542 0.3147362 0.14055386 0.25919762 0.3374225 0.29123825 0.3374795
0.38497084 0.10296668 0.31194764 0.17527859 0.45306584 0.21105933 0.6360944 0.7015718
0.75452393 0.5582015 0.6360088 0.94782984 0.10338643 0.18146488 0.21419421 0.2720652
0.5230625 0.4003928 0.25609878 0.3116465 1.0808226 0.21682096 0.3766991 0.7314007
1.3525907 0.5435595 0.4015545 0.3709875 0.70190233 0.34079954 0.07218617 0.44660887
1.445721 1.4756562 0.1993719 0.16885325 0.28064102 1.0092536 0.2678104 0.1922578
0.5035173 0.40434948 0.2150744 1.1611625 0.47738007 0.44401664 0.36878544 0.31425357
0.32598093 0.13664865 1.109061 0.3184971 0.79960775 1.2642504 0.2762766 0.26431757
0.21480192 0.5081426 0.981331 0.20252053 1.0870479 0.36295518 0.75181687 0.35985658
0.6111734 0.8792457 0.3383676 0.38753498 1.1732554 0.49396515 0.3931202 0.218169
1.6025683 0.05716612 0.41707116 2.0419624 1.5604568 0.0832331 0.45872235 0.0502544
0.9981979 0.013128184 0.41256827 0.4184002 0.59847486 0.3026525 0.41087052 0.6108374
0.3596814 0.26517382 0.79402256 0.36409715 0.39540553 0.39465877 0.49500632 1.3418773
0.34876236 0.2134659 0.11534993 0.27540532 0.5844879 0.83248425 0.29124674 0.3196511
0.2589848 0.36056468 0.1687515 0.9059394 0.48056507 0.23108819 0.8749484 1.4790126
0.30401066 0.42641264 0.33687207 2.1744535 0.53613 0.2036436 0.14814067 0.4758415
0.13113216 0.32806268 0.20992212 0.17220847 0.21490261 0.2554848 0.19486429 0.32720348
0.48176003 0.43507618 0.6275905 0.75214016 0.20651309 0.4149834 0.47891238 0.3345164
0.26930368 0.2989494 0.40270808 0.19898337 0.19135743 0.34439537 1.9967586 0.45165622

bn1.running_var f4 [400]
00000000: a344 6f3f dfe5 3240 28a8 7c3f 345f d23f
00000010: f4cb d73f fa1b 8a3f 7cce dd3f 2e1e 823f
00000020: f60e 933f e559 873f 512f 603f 07a3 9e3f
00000030: 73d9 b43f 4c90 113f 2342 af3e 4685 0040
00000040: b1d0 5c3f 0292 e93f 2931 693f 5570 8b3f
00000050: 4dab 3d40 11fe 9440 1b11 9f3f 3105 a540
00000060: c6fd 1d3f 507e 203f 55a2 c03e 586c a63f
00000070: 7317 1140 ca47 0f40 e12a 883f 198f ac3f
00000080: 387d e63f d0ee f23e d21a 343f b870 a83f
00000090: f570 a53f 150a 1b3f 9218 993f dbc3 d73f
000000a0: 3332 ac3e ae17 c440 65b2 8240 0063 a63f
000000b0: bed6 0b40 2112 543f 16e1 ff3f f293 ff3f
000000c0: b19f c93e fbb8 c43f 0ef8 a840 ec79 7340
000000d0: 9905 8040 867c 333f e4ea be3e 2eac 313f
000000e0: 68f8 883f 364d ab3f a2fb c73f ea25 703f
000000f0: 4a2a 8e3f 0e77 c93f 1da0 1340 44cd 0940
00000100: 2c13 b53f eb8c 3a40 cf33 f83e 8bd8 c23e
00000110: bd65 123f 68d6 8e3f a3c6 db3f 0256 ec3f
00000120: 74bb d23f b909 1840 a550 fa3e 5902 7f3f
00000130: ec15 013f 9417 3d40 8021 3240 d9e2 de3f
00000140: e182 b93e a605 6440 f4df 533f cd8e 473f
00000150: e1cd 963f 017b c03f 3960 ba3f 548f 4540
00000160: 1fb0 123f 5954 2140 631f de3f 6545 4b3f
00000170: cee4 3c3f ee0f 3a40 6b5b 5d3f c55e 763f
00000180: 98dd e93f de3e 0d3f f7f0 233f ecee 9240
00000190: 0fe9 4140 4914 e53f 5998 f53f 0913 053f
000001a0: b590 953f ca4b 0d40 f274 833f 675c e13e
000001b0: 0408 643f 4e5a 8f3f 6d70 653f c144 aa3f
000001c0: 7e56 b23f 2f0d 823e a14f 5b3f 5404 183f
000001d0: 4b4b b23f 86db 663f 30b4 e03f 60d2 e33f
000001e0: 278f d73f b5da 3b40 62a2 e63f ebf8 e63f
000001f0: cc4c 1a3f 3385 b23f 2bd9 d03f 156b 793f
00000200: 0433 a03f b6b8 5b40 8ddc 443f 1895 ba3f
00000210: b0f0 1140 dd82 433f 12f0 e33f 7489 1e40
00000220: f2f9 9840 3e0f f03f 5a3f 1740 d93e 9e3f
00000230: 75fa da3f 2781 d03f 08c2 183f 6cca 903f
00000240: 35d3 9240 a8d2 d940 f2d4 433f ea23 df3e
00000250: 161c 293f 4e99 5240 488e c63f 0817 fd3e
00000260: fb3e db3f 35d8 f93f 6970 243f 3d66 4840
00000270: 0156 9a3f fa21 d43f d6cc b43f 4764 3f3f
00000280: 3cac 833f 2c71 e03e e76f 8c40 c6f9 ed3f
00000290: 504b b340 6226 9640 b64f 2c3f 7deb 733f
000002a0: d233 333f a352 7c3f 6f75 7e40 612b 423f
000002b0: da49 5f40 b8e1 6e3f a471 e83f 2fba ae3f
000002c0: 4932 bc3f 38e5 0d40 991b 2f3f 5078 963f
000002d0: 6fee 8540 1e6a 983f 60e1 773f 36b0 bd3f
000002e0: 90de 9a40 20d0 903e 7542 a33f 57e5 0e41
000002f0: e092 b240 748b 563e 528c ad3f 5ede 4d3f
00000300: f561 5840 e289 c43e a155 7e3f 5189 0640
00000310: 94c1 1940 30c4 573f 5b14 943f 8eef bb3f
00000320: 6693 973f 6b46 e13f 906f 0340 e308 7c3f
00000330: 4152 d73f 05e4 6e3f 02e6 bb3f 0527 7940
00000340: 25ad 8d3f 6193 3f3f 5274 153f 9398 653f
00000350: 2f64 9a3f ce39 e63f 8fdc 513f da6f c73f
00000360: 8543 1a3f 342d a23f fc27 013f 427d 1640
00000370: e862 b73f a1b5 1f3f 8f98 2c40 69f9 bf40
00000380: d86f 513f 8746 d23f 3a8b 5e3f b0a0 0f41
00000390: 7650 a33f 47e9 663f 56f2 dd3e 63af 953f
000003a0: 22be 9d3e 3ac0 e83f 6eb4 2a3f 02b7 c13e
000003b0: 6c40 063f 5ea8 393f 5d86 493f ff17 713f
000003c0: d124 903f 5ad1 dd3f ec9f 3640 2ebe c53f
000003d0: 21c8 743f 46d2 ef3f 427c 823f 4a45 c93f
000003e0: d788 323f 8cff da3f f133 f43f 880c 023f
000003f0: 9519 ca3e e04f 3c3f 0b8d f940 dc96 763f
0.93464106 2.7952802 0.98694086 1.6435304 1.6859117 1.0789788 1.7328639 1.016546
1.1488941 1.0574309 0.875722 1.2393502 1.412886 0.56860805 0.34230146 2.0081344
0.8625594 1.8247683 0.9109064 1.0893656 2.9635804 4.656014 1.2427095 5.1568837
0.6171535 0.6269274 0.3762385 1.3001814 2.2670562 2.2387567 1.0638086 1.348117
1.8006964 0.47447824 0.70353425 1.3159399 1.2925097 0.6056226 1.1960623 1.6856645
0.3363205 6.1278906 4.0842767 1.2998962 2.1849818 0.8284016 1.9990566 1.9967024
0.39379647 1.5368952 5.28028 3.8043165 4.0006833 0.7011188 0.37288582 0.6940335
1.0700808 1.3382938 1.5623667 0.9380785 1.1106656 1.5739458 2.3066475 2.1531534
1.4146476 2.914851 0.48477027 0.38055834 0.5718649 1.1159182 1.7169994 1.8463748
1.6463456 2.3755934 0.48889652 0.9961296 0.50424075 2.954564 2.7832947 1.7412978
0.36232665 3.5628448 0.827636 0.7795227 1.1781579 1.5037538 1.4560615 3.086873
0.5729999 2.5207732 1.7353328 0.7940276 0.7378663 2.9072223 0.8646762 0.96238357
1.827075 0.5517405 0.6403956 4.5916653 3.0298498 1.7896816 1.9187118 0.5198217
1.1684786 2.2077508 1.0270064 0.4401581 0.8907473 1.1199434 0.89624673 1.3302232
1.3932645 0.25400683 0.8566838 0.59381604 1.3929228 0.90178716 1.7554989 1.7798576
1.6840562 2.9352238 1.8018305 1.8044714 0.6027343 1.3946899 1.6316274 0.9742902
1.2515569 3.4331489 0.76899034 1.457675 2.2803154 0.76371557 1.7807639 2.4771395
4.780511 1.8754652 2.3632417 1.236293 1.7107683 1.6289414 0.5967107 1.1311774
4.588282 6.806965 0.76496804 0.43582088 0.6605848 3.290607 1.5512171 0.49431634
1.7128595 1.9519106 0.64234024 3.1312401 1.2057496 1.6572869 1.4125011 0.74762386
1.0286937 0.43836343 4.38866 1.859185 5.6029434 4.6921854 0.6730913 0.952812
0.70000947 0.98563594 3.9759176 0.7584744 3.4888825 0.9331317 1.815968 1.3650569
1.4702846 2.2171154 0.68401486 1.1755466 4.1853557 1.1907384 0.9682827 1.48194
4.8396683 0.28283787 1.2754656 8.930991 5.580429 0.20951635 1.3558447 0.8041743
3.3809788 0.38386446 0.9934941 2.1021311 2.40244 0.84283733 1.1568712 1.4682481
1.1841857 1.7599615 2.0536842 0.9845106 1.6821977 0.9331668 1.4679568 3.8930066
1.1068465 0.7483426 0.58380616 0.89685935 1.2061824 1.798639 0.8197717 1.5581009
0.60259277 1.2670045 0.50451636 2.3513951 1.4327059 0.6238652 2.6968114 5.9991956
0.81811285 1.6427773 0.8693119 8.97673 1.275893 0.901997 0.4334895 1.1694149
0.30809122 1.8183663 0.66681564 0.37834936 0.5244205 0.7252253 0.7872065 0.9417724
1.1261235 1.7329514 2.8535109 1.5448663 0.9561787 1.8736045 1.019417 1.572427
0.6974005 1.7109237 1.9078351 0.5080037 0.39472643 0.7355938 7.798467 0.96323943

fc2.weight f4 [300, 404]
00000000: 4341 cfbe 5d27 bd3e e882 7f3d ffe7 233e
00000010: bf47 993d 0e73 f9be 8ab4 eebd 7f79 efbd
00000020: bf26 8abe 9ccc 2fbf 7f9a 0bbe ace4 07bf
00000030: 400a 0d3d 8d83 1bbe 1661 0fbf 69d0 2cbe
00000040: 0e8a 6fbe a72b 0e3e ce0b dd3e de3a a3be
00000050: 186e edbe 2d58 96be dc0c fbbd ef03 52be
00000060: d4ff 893e 5a04 4e3e 49da 793d 0b70 713e
00000070: 799f eabd aa8e debd 031d 5c3e 7e12 51be
00000080: 31ce 28be 0f27 b3be a91b 2a3f 1687 a8bd
00000090: 8e67 5cbe 2cc9 9bbd 47d7 34be 5842 81bd
000000a0: 40f2 56bd 1de7 a23e 3f30 a13e 16ea 1b3f
000000b0: 9720 81bb f019 c6bd 2ef3 4ebe 9cd8 883d
000000c0: d8b3 a4be eb7f 663e 56fd 763b 8886 07bd
000000d0: eeff 43bd a220 ea3d 3f76 833e 649b 533e
000000e0: 0287 f5bd 1667 93be 62e5 18bf ddac 06be
000000f0: a41d 243e 61c4 0a3f dcb5 87be 518d 1ebf
00000100: 2954 34be 5f7a fabd b71b 553d 4dec a53d
00000110: f682 8d3e f807 10be bfe2 59be ff34 93be
00000120: 3ad0 813e 0c3b a3bd 8862 2b3e 9380 c03e
00000130: d446 883e 51f6 c03e 77eb d4be ae56 fabd
00000140: 65a4 dfbe 05ad 84bd 1aaa d5bd 1f23 da3e
00000150: 28e3 123f 819f e9bc 5144 b7be b041 7abe
00000160: 6a32 4aba ed0f dabe a73c 443e 07b2 373d
00000170: 8514 52bf 80fa bb3d 2662 25bf ca3e 83bb
00000180: 488e 13be 5eef 20bf 8ea6 4fbe d821 cebd
00000190: 4d9b 213e ae3f e5be 17ea 3bbe bf49 fe3d
000001a0: 08be b6be 8ec5 b03d 2e49 40bc b65d 543e
000001b0: bf65 76be e06a 083f 34a7 dc3e 0f57 a5bd
000001c0: 8525 4b3e a9f8 2eba 8ed9 0b3e 7549 6f3d
000001d0: e345 193e 13bb 81bd 1d1e e13d 29d1 1bbe
000001e0: a09d d5be 5b2e 51be aae5 923c 9f7f 4ebb
000001f0: 9d37 dcbe b300 d73c e9b9 4cbe a747 3dbd
00000200: 7373 f9be a6d7 da3d 5374 e8be a80b b1be
00000210: eadf f93e fa26 ecbc 30c1 acbe 0a62 e63e
00000220: 719f 893e 6c1d 12bd 3498 26bf 4909 a8be
00000230: 6a3c 64bf 0e86 1abe 4c8a 38bd 7611 433e
00000240: c687 53bd 4852 9f3e 132e 97be da25 71bd
00000250: 411e 89bd bcb7 89bd 7f67 eebd e4b4 88bd
00000260: a6ee 0b3f 1021 703d 2fba 48bb e7c4 01bf
00000270: e813 9cbd c49c 513e 4ed5 51be bbc0 44bf
00000280: e14c be3d bedc a4be 8d40 133e c59e 423e
00000290: cf33 99bf ea75 993c cc76 02bd 457b 75be
000002a0: 83dc 4ebd f2b1 30bf 5d34 dbbe cc74 14be
000002b0: 09d2 303f ecb3 14bf c94d 5cbd 5d4a 843e
000002c0: e124 3ebe 19b3 5f3e f308 3abe b303 1bbf
000002d0: 0aca f3be 6cf0 fabe c6ba ba3e 3066 47bd
000002e0: 05d3 a5be bd03 19be 769a a13e 3597 a0be
000002f0: 7578 023e 876d 2d3e c2cf 8c3e abb3 5abe
00000300: b598 80be b541 8ebe 10ef 56bf 0fda 81be
00000310: 5f66 11be f078 43bd 47ae 54bf 2f47 c1be
00000320: 1d5e bd3d 79f5 bdbd 4ad4 38bf b229 2abf
00000330: 5dde 88be 5ce6 7c3e 88d7 c4bd 895e 52be
00000340: 7a28 52bf 0beb f8be a228 70be 2ca4 6fbe
00000350: 7e64 c83a ff8c 823e 553e 72bc bc98 1d3a
00000360: 738c 2ebf 5119 0b3f 21cc 86bc b612 eb3b
00000370: 2c14 f5be 588f c3be edce 27be 7f4c 3abe
00000380: 9770 e5be 633a 103c b274 d93e 6b87 8b3e
00000390: d2b4 c63e 13c6 113f 97ec 6ebd 437b 42bf
000003a0: e870 4dbe a9b7 c3bd 0a31 5c3e f124 e8bc
000003b0: 8249 73be 52d8 a5bb 2c81 953e 36cb 243c
000003c0: 49d2 13bf 7d79 a9be acf4 c0be ad42 a5be
000003d0: 29ce cbbe 33de 9abe 4d7b 9ebd 78f7 85be
000003e0: c02c d8be b8e3 70bf cba4 d2be d95f e8be
000003f0: f716 19be d070 ef3c 4d9a 2fbd d279 693e
-0.40479478 0.36944094 0.0623807 0.16006468 0.074843876 -0.48720592 -0.11655529 -0.116930954
-0.26982686 -0.68671584 -0.13633154 -0.530833 0.034433603 -0.15186901 -0.56007516 -0.16876377
-0.23392507 0.1388384 0.4317307 -0.3188085 -0.46373057 -0.29364148 -0.12258312 -0.20509313
0.26952994 0.20118847 0.06099919 0.23577897 -0.11456198 -0.10867055 0.21495442 -0.2041721
-0.16484906 -0.34990737 0.66448456 -0.082288906 -0.21523878 -0.0760673 -0.17660247 -0.06311482
-0.05247712 0.3181695 0.3148212 0.6090406 -0.0039406526 -0.09672916 -0.20209953 0.0668194
-0.3216846 0.22509734 0.003768762 -0.033087283 -0.047851495 0.114320055 0.25676152 0.20664746
-0.11988641 -0.28789586 -0.5972501 -0.1315188 0.16026932 0.542059 -0.26505935 -0.6193438
-0.1761023 -0.12230372 0.052028384 0.081017114 0.27638978 -0.1406554 -0.21277903 -0.2875137
0.25354177 -0.07970247 0.16736805 0.37598094 0.26616538 0.37687925 -0.41585895 -0.12223564
-0.4368011 -0.06478313 -0.10432835 0.4260492 0.5737786 -0.02851844 -0.3579431 -0.2443912
-0.0007713201 -0.42590275 0.19163762 0.044847514 -0.8206256 0.091786385 -0.6460289 -0.004005288
-0.14409745 -0.62865245 -0.2027838 -0.10065049 0.15781899 -0.44775146 -0.18351017 0.1241641
-0.35691857 0.086314306 -0.011736197 0.20738873 -0.2406225 0.5328808 0.43096316 -0.08073246
0.19838531 -0.00066746265 0.1365721 0.058419663 0.14968066 -0.0633451 0.10992072 -0.15216507
-0.4172182 -0.2042784 0.017931778 -0.0031509174 -0.4301118 0.02624545 -0.19992794 -0.04621091
-0.48720893 0.10685663 -0.45401248 -0.34579206 0.48803645 -0.02882718 -0.3374114 0.44996673
0.26879457 -0.03567259 -0.65075994 -0.32819584 -0.89154685 -0.150902 -0.045053765 0.1904963
-0.051643156 0.31117463 -0.2952734 -0.05887399 -0.066952236 -0.06724498 -0.11640834 -0.06675127
0.54661024 0.05862528 -0.0030628552 -0.50691074 -0.07620984 0.20469958 -0.20491526 -0.76856583
0.09292007 -0.32199663 0.14380093 0.19005878 -1.1968936 0.018732984 -0.031851575 -0.23972805
-0.050503265 -0.69021523 -0.42813388 -0.1449768 0.6907049 -0.5808704 -0.05378512 0.25837985
-0.18568756 0.21845664 -0.18167476 -0.6055252 -0.4761508 -0.49011552 0.36470622 -0.048681438
-0.32387558 -0.14942832 0.31563157 -0.31365362 0.12741263 0.16936313 0.27502257 -0.213576
-0.25116506 -0.27784505 -0.8395853 -0.25361678 -0.14199208 -0.047722757 -0.83078426 -0.3774962
0.09246466 -0.09275336 -0.7219893 -0.6646987 -0.2673215 0.2469725 -0.09611422 -0.20543875
-0.8209301 -0.48616824 -0.23453 -0.2340247 0.0015288738 0.25498196 -0.014785369 0.0006011834
-0.6818306 0.54335505 -0.016454758 0.0071738614 -0.47866952 -0.381953 -0.1638753 -0.18193243
-0.44812462 0.008802983 0.42471844 0.27251753 0.3880983 0.5694286 -0.0583311 -0.7596933
-0.20062602 -0.09556515 0.21503082 -0.028337928 -0.2375851 -0.005061188 0.29200113 0.010058215
-0.57742745 -0.331005 -0.3768667 -0.32277432 -0.39805725 -0.3024765 -0.077383615 -0.26165366
-0.42221642 -0.9409747 -0.41141352 -0.45385626 -0.14950167 0.029228598 -0.042871762 0.22800377

fc2.bias f4 [300]
00000000: 5647 b0be 79d8 e4be 9364 1e3e bb76 c2bf
00000010: c6d5 cabe 47d0 92be 0376 8dbe 1c7c d5bf
00000020: 730b c43c ed9e f7be 32d5 91be 7e08 a2be
00000030: 220a 90bd ba12 2bbf fd2f ffbe 67a3 a6be
00000040: 14ea c5be 1723 efbe 981b 76bd 0270 1b3c
00000050: 70a2 1dbf 23ad 8fbe f6bf f8be 0f8a 89be
00000060: 2ddf b5bd 605e 3e3e c858 a3be b68f 543e
00000070: cfda 43be 06a5 a9be d487 20bf 6f64 c6bc
00000080: f067 27be 3ae5 1bbf c0f2 b4be 14b4 88be
00000090: f45a 22be c449 e4be aee2 93be 5eb6 dbbe
000000a0: af2d 13be f3b5 32be d88a b5be 9d4f 1cbf
000000b0: 2614 09be 788d 93be 65ef e4be 4075 03be
000000c0: 4775 64be 9f33 09bf cfc5 a4be 1e4f 40be
000000d0: 69ab 3bbd a2d2 dabe c3db 4ebe acf2 a9be
000000e0: b9fa 4bbd 4a82 80be 3821 2dbf 6363 9cbe
000000f0: 14bc 11bf 4072 0a3e 8239 0ebf 2975 0cbd
00000100: 18f1 96be 426c babe 377e 02bf e1bc 75be
00000110: 242a b7be 0500 edbe 9895 6dbe a5de 39be
00000120: da56 81be 354d e6be 4d54 05bf e842 a8be
00000130: 7669 afbd f06d b9be cccf 4abe 4204 5cbf
00000140: a091 d3bf 2a49 fcbe 128e c2be 1c66 09bf
00000150: 8505 79be c6af febe ca9b cbbe 7226 d8be
00000160: 6a8e a9bd 4ad7 f1be 6d83 85be 85ca 89be
00000170: af73 f6be 19ac cbbd 8fcc b9be 8069 89be
00000180: b042 0ebf ad7f a3be ffa9 c2be b06d 15bf
00000190: 743c 80be 47a4 91be 286d 41be 4b4d 99be
000001a0: a2ea bebe a8b0 7ebe 36e9 a7bd b8d3 64bd
000001b0: 34d8 25be 9072 89be de5b 9fbe 1c57 a0be
000001c0: 655d a6be a2be 89be 604b b83c 1328 e1be
000001d0: b1d0 ab3c 4f3e bdbe 0518 4ebe 986b c9be
000001e0: 6461 95be f261 2cbf c309 84bd a88c 85be
000001f0: 15ec 72be 106d 04bf 59a6 49bd 50a3 adbe
00000200: 980c 92be d69a c2bd bff2 c8bd c911 a6be
00000210: 09c6 7fbe c4fd cabe 4d14 3bbe ab7a 8cbe
00000220: ec39 86be 12cc d0bf 14a1 95bc 1b8c 91bd
00000230: 666a 80bf 16ea dbbe ac94 d5be 9133 0cbf
00000240: 626e bebe f5c7 27be 7593 18bf b88c 3cbd
00000250: 2e59 66be ba87 b2be b8df aebe 6dd5 14be
00000260: 3de2 d9bf 8f3f b93d 5c72 f6be f512 81be
00000270: d77e 03bf 7fe0 f9be cc39 a8be 46f9 d6be
00000280: 2e71 51be ead1 6dbe ef90 21be 10a9 b7bd
00000290: 4399 69be 6a04 d6be 4854 43be 9900 43be
000002a0: f6ad f4be 4ee5 e8be 918f 80be cf22 14be
000002b0: 2693 4cbe 9775 92bd 886c 783d 0fbd d1bd
000002c0: 4e88 e8be 57b6 cbbe 9fc9 c0be 03a9 9abe
000002d0: 2bdc 04bf fa83 d8be 362f 01be 4e22 cfbf
000002e0: 8aab 84be cd59 29bf 1e20 b3be e8e4 93be
000002f0: 7bda bdbe e64b 82be 23bd 70be 03fb b4be
00000300: 3c37 6e3d a5df 0bbe c729 fabe 31c5 3bbd
00000310: 185b 69be d1de f4bd e121 a4be 4f37 2dbf
00000320: f41d 6abe 99f6 643e 3bd2 2bbd a2f0 e2be
00000330: 68ac 24bf 5c01 89be 1bae 84be 5e6d debd
00000340: 5d97 d6bf 5dfe babe 2ec3 f6be eea4 6abe
00000350: 8fb7 d2be f33d 9cbe 033f 15bf 9121 28bf
00000360: affb e7be 1c45 56be 8fef c8be 9427 9dbe
00000370: e802 a6be e1b7 4dbe 0687 47be 68e1 f2be
00000380: f7c0 b7be d422 d9be 46a9 66be 4ca4 c0be
00000390: 533a 84be eeed b2be 45e1 04bf e6b3 f1be
000003a0: fe73 0ebf 85c5 1dbe c5b0 a6be 2286 1fbf
000003b0: 6e4f 31be c17e c3be e741 52be 8661 6cbe
000003c0: 38ec 8bbe 1f92 a8be bfa9 cf3e 35e7 6a3e
000003d0: 4b7c 58be 6972 bebe 9371 77be 457a eebe
000003e0: fbc7 f5be c317 b1be e062 c6be 39c3 f93d
000003f0: d5ad 90be d04d 22bc b320 c6be 16f8 81be
-0.34429425 -0.44696406 0.15468054 -1.5192484 -0.3961622 -0.28674528 -0.27629098 -1.66785
0.02393124 -0.48363438 -0.28482968 -0.31647104 -0.07033183 -0.6682545 -0.498413 -0.3254654
-0.3865515 -0.4670646 -0.06008491 0.009487154 -0.61575985 -0.2806178 -0.48583955 -0.26863143
-0.08880458 0.18590689 -0.31903672 0.20757946 -0.19126438 -0.33133715 -0.6270726 -0.024217812
-0.16348243 -0.60896647 -0.35341454 -0.2669989 -0.15855008 -0.4458753 -0.2888388 -0.42912573
-0.14372896 -0.1745222 -0.35457492 -0.6105898 -0.13386592 -0.2881887 -0.44713894 -0.12837696
-0.22310363 -0.5359439 -0.32182166 -0.18780181 -0.045817766 -0.42738825 -0.2020102 -0.33192956
-0.049799655 -0.25099403 -0.6762881 -0.30544576 -0.5692761 0.13520145 -0.555565 -0.03429142
-0.29480815 -0.3641072 -0.5097384 -0.23997833 -0.35774338 -0.46289077 -0.23201597 -0.18151338
-0.25261575 -0.4498078 -0.5208176 -0.32863545 -0.08565037 -0.36216688 -0.1980583 -0.85943997
-1.6528816 -0.4927457 -0.37999016 -0.5367143 -0.24318512 -0.4974348 -0.39767295 -0.4221683
-0.082791165 -0.47234565 -0.26076832 -0.26912323 -0.48135135 -0.099449344 -0.36288878 -0.26838303
-0.5557051 -0.31933346 -0.38020322 -0.58370495 -0.25046122 -0.28445646 -0.18889296 -0.29941782
-0.37288386 -0.24872077 -0.08198778 -0.055865973 -0.16195756 -0.26845217 -0.31124777 -0.3131646
-0.3249313 -0.26903254 0.02249688 -0.43975887 0.020973535 -0.369616 -0.2012635 -0.393399
-0.29175866 -0.6733695 -0.064471744 -0.26083875 -0.2372287 -0.51728916 -0.049230907 -0.3391366
-0.28525233 -0.09502189 -0.09811925 -0.32435444 -0.24977888 -0.39646733 -0.18269463 -0.27437338
-0.26216066 -1.6312277 -0.018265285 -0.07106801 -1.003247 -0.4295203 -0.4171499 -0.54766184
-0.3719359 -0.16384871 -0.596 -0.046032637 -0.22494957 -0.34869176 -0.3415506 -0.1453454
-1.7022167 0.09045326 -0.48134124 -0.25209776 -0.5136542 -0.4880409 -0.32856596 -0.41987056
-0.20453331 -0.23224607 -0.15777944 -0.08967793 -0.22812371 -0.41800243 -0.1907512 -0.19043197
-0.47788972 -0.45487446 -0.25109532 -0.14466403 -0.19978008 -0.07151335 0.06065038 -0.10241138
-0.45416492 -0.39787552 -0.37653825 -0.3020707 -0.5189845 -0.4228819 -0.12615666 -1.6182344
-0.25912124 -0.6615265 -0.3498544 -0.2888558 -0.3708075 -0.2544853 -0.2350965 -0.35347757
0.058158144 -0.13659532 -0.4886 -0.045842353 -0.22788656 -0.11956561 -0.32057098 -0.6766252
-0.22862989 0.22359695 -0.04194854 -0.44324213 -0.6432557 -0.2675885 -0.25914082 -0.10860704
-1.6764942 -0.3652219 -0.48195785 -0.22914478 -0.4115567 -0.30516014 -0.58299273 -0.6567622
-0.45309207 -0.209248 -0.3924527 -0.30694258 -0.32424092 -0.20089675 -0.19485101 -0.47437596
-0.35889408 -0.42409384 -0.2252551 -0.3762535 -0.25825748 -0.3494715 -0.51906234 -0.47207564
-0.5564574 -0.15407379 -0.3255674 -0.62314045 -0.17315456 -0.38182643 -0.20532952 -0.23084077
-0.27328658 -0.32923982 0.40559193 0.22939761 -0.21141164 -0.37196663 -0.24164419 -0.4657766
-0.48004135 -0.3458844 -0.3874731 0.12195439 -0.28257623 -0.009906247 -0.38696823 -0.25384587
