1. Value-Based Methods/navigation/checkpoint2.pth (torch_old, 11526 bytes, 4 tensors)

fc1.weight f4 [64, 37]
000000 77 bd 03 be 0c 79 9f bd 18 fe a3 bc 78 d6 31 bc
       -0.12865244 -0.0778676 -0.020018622 -0.010854356
000010 36 2e 0b be ed aa e4 3c 0e e9 01 be e0 40 73 be
       -0.13591847 0.027913535 -0.1268656 -0.23755217
000020 6c b0 f3 3c 2f 82 34 be 91 b6 1b 3e d6 b3 ad be
       0.02974721 -0.17627786 0.15206362 -0.33926266
000030 3d 0f 46 be 9b 6f 15 be dd ec 99 be df 4e bc 3c
       -0.1934175 -0.14593355 -0.30063525 0.022986827
000040 f8 ad c7 bd b8 e3 71 bd d1 84 b6 bd f1 fc 05 be
       -0.09749979 -0.05905506 -0.089120515 -0.1308477
000050 9a 3a f1 3d 49 4d 24 bd 3b 0f 7d 3d af 66 82 3c
       0.117787555 -0.040112767 0.061782103 0.015918104
000060 99 ec 73 3d ca 9d d9 3a 26 49 be 3d de 51 4c bd
       0.05955181 0.0016602811 0.09291296 -0.049882762
000070 bf 36 22 3e 4a 4f 4a bc 00 4c 49 3e 11 e1 91 3d
       0.15841196 -0.012348006 0.19657898 0.07123006
000080 7b 4e 05 be 23 e4 dd 3b d7 a1 4c 3e 0b 8d 4c 3d
       -0.13018219 0.006771581 0.19983612 0.049939197
000090 44 b1 0f bd 23 a3 0a 3d ae 99 33 be 43 d0 c3 bd
       -0.035081163 0.033846986 -0.17539093 -0.09561207
0000a0 7a c8 23 be 60 cd bc bd bb a1 e3 bb e8 63 52 3d
       -0.15994444 -0.0921886 -0.00694677 0.05136481
0000b0 88 0d 49 3d 6c 80 1f be d1 8d 07 3e 28 4e 11 bd
       0.04908517 -0.15576333 0.13237692 -0.035474926
0000c0 49 2f d8 3d 9c 09 71 3d 67 c3 57 3c e3 f5 04 3e
       0.10555894 0.058847055 0.013169146 0.12984423
0000d0 25 b6 47 bd b6 cc d4 3d 92 81 f7 bd 40 74 5d be
       -0.04875769 0.10390608 -0.120852605 -0.21626377
0000e0 2f 35 ad bc 46 99 8a bd 34 c5 7d 3c 83 57 ec bd
       -0.021143524 -0.06767516 0.015488911 -0.11540129
0000f0 1b 5f f3 39 7c 75 de 3d 11 a7 14 be b5 25 d7 bd
       0.0004641943 0.10862252 -0.14516856 -0.10505239
000100 9c 39 3e be 2c b4 11 be 9c 67 48 bc 0b b9 b2 3d
       -0.18576664 -0.14228886 -0.012231734 0.087267004
000110 f8 07 17 be e0 33 0f be 75 fc ab 3c 74 47 39 3e
       -0.14749134 -0.13984632 0.020994404 0.18093663
000120 8b 39 97 bd d7 07 f7 bd 34 a5 27 bd 0b 14 f3 3d
       -0.07384022 -0.12062042 -0.040929034 0.11869057
000130 36 97 01 3e f6 56 5c be 39 88 3e be 0e 61 6c 3e
       0.12655339 -0.21517548 -0.18606652 0.23083898
000140 4f e7 f8 bb 5f 29 1d be 0e 87 f0 bd 19 a5 37 bf
       -0.0075959335 -0.15347813 -0.1174451 -0.71736294
000150 07 31 6a 3d df 3a 2b be e3 71 45 be 47 94 d5 3d
       0.057175662 -0.16721676 -0.19281726 0.10428672
000160 39 77 7c 3d 27 05 dd 3c c6 56 93 bb 37 8e f4 3c
       0.061637137 0.026979996 -0.004496428 0.02985297
000170 0f 96 d7 3d ca 6f 00 3e 0e 28 d5 3d 30 bb 3c bd
       0.10526668 0.12542644 0.104080305 -0.046076953
000180 e8 24 96 3c 3c 12 9c 3d 3a 53 07 3e ed b4 4b bd
       0.018328145 0.076206654 0.13215342 -0.04973309
000190 34 e8 7d 3d 68 e6 b3 3d fc 32 2b bd 17 6a 1a 3d
       0.061989024 0.08784181 -0.04179667 0.03769883
0001a0 65 ad 01 be 56 50 7d 3d 79 03 07 bd 42 9f 90 3e
       -0.12663801 0.061844192 -0.032962296 0.28246504
0001b0 42 3d fe 3d db 67 e2 3b c6 7d 2b 3c b2 fe a2 bc
       0.12414028 0.006909353 0.010466998 -0.019896839
0001c0 6e 54 b5 bb 4b 0e fd bc ca fa ab bc fa ef ea bb
       -0.0055337464 -0.030890604 -0.020993609 -0.0071697207
0001d0 8f df fe bd 9b b0 b5 ba 9f db 16 3d 52 11 03 3e
       -0.12444984 -0.0013861837 0.03683054 0.12799576
0001e0 af c8 19 3e fd cd 26 3d 6b 73 e0 3d 82 b5 ce 3d
       0.15017961 0.04072379 0.10959514 0.100932136
0001f0 55 32 10 3e 02 61 8e 3d 1c 28 03 3d 41 10 84 3d
       0.140817 0.069520965 0.032020673 0.06448413
000200 c7 b0 18 3d 80 b5 e9 3d a4 77 eb 38 de 68 b2 3e
       0.037277963 0.114115715 0.00011227958 0.34845632
000210 42 d5 1f bf 62 c0 0d bf af 1c 0c bf 7f 95 18 c0
       -0.6243478 -0.5537168 -0.5473127 -2.3841245
000220 2a dc 9a bd 92 ef 58 bb 5d e8 7a 3d 28 3f e0 3d
       -0.07561524 -0.003310178 0.061256755 0.10949546
000230 9e 60 0c 3e cb 3b 78 bd 7b b2 d7 3d 87 37 fa 3d
       0.13708732 -0.060603898 0.10532089 0.12217622
000240 5b 2d 49 3e d7 76 65 3e 38 9b ad bc a7 75 85 ba
       0.19646208 0.22408615 -0.021192178 -0.0010182158
000250 6c 7b 48 3d 37 b5 00 3d d2 21 17 3e 73 e6 d3 3c
       0.04894583 0.03142282 0.14758995 0.025866723
000260 65 2b 6e 3d b9 1a 98 3e 99 8e 88 3e d0 50 73 3e
       0.058146853 0.29707888 0.26671293 0.23761296
000270 48 98 8f 3d be d7 06 3d c4 3f a8 3d a8 a8 39 3e
       0.07011467 0.03292059 0.08215287 0.18130744
000280 af ed 93 3e 53 bb 89 3e e1 41 d1 bd 20 93 b0 3e
       0.28892276 0.2690073 -0.102176435 0.34487247
000290 1a 50 94 3e eb 69 94 3e ef 19 6f 3e ba 6f 1f 3d
       0.28967363 0.2898706 0.23349737 0.03892491
0002a0 f5 34 95 3e a2 a4 72 3e fd 11 5d 3e 29 9a 84 3d
       0.29141966 0.23695615 0.21588893 0.06474716
0002b0 84 40 56 3d 20 47 59 3e 6f b7 90 3d 53 f3 fb 3d
       0.05230762 0.21218538 0.07066237 0.1230227
0002c0 ba b2 65 bd 1c 9f 54 bd 8b 08 a6 3e a8 ed 72 3e
       -0.05607865 -0.05190955 0.32428393 0.23723471
0002d0 c9 2b 07 3e b6 06 0c 3e 32 95 19 3d 86 5b ff bd
       0.13200296 0.13674435 0.0374958 -0.124686286
0002e0 d3 12 2b bd d3 3f fa bd 1c c5 f0 3c f3 58 11 be
       -0.041766 -0.12219205 0.029390864 -0.14194088
0002f0 5a e4 0b 3e 67 83 0c be 15 fa 79 bd 5b 78 b1 be
       0.13661328 -0.13722001 -0.061029512 -0.34662136
000300 fd 11 b3 be 2f fc 59 3e 3b 3e 98 be 82 c2 91 be
       -0.3497466 0.21287607 -0.29734978 -0.2846871
000310 77 4a 46 be 8c 8b 2e 3e d1 4b 63 bd 75 bc 49 bd
       -0.19364344 0.1704542 -0.055492226 -0.049251992
000320 b0 4b 9e bd 1d db 59 3c e4 dd 3b bd 06 b0 a5 3c
       -0.0772928 0.01329687 -0.04586591 0.020225536
000330 41 97 5d bd da 44 30 be c1 81 5f bd c9 53 dc 3d
       -0.054099325 -0.17213765 -0.054567102 0.10758168
000340 4f 1d df bd 93 46 6e 3c 1d e3 30 bd c4 0b 07 3e
       -0.10894262 0.014543193 -0.043185342 0.13188082
000350 e4 9a 01 be e7 93 6f be 2b 1d 1d 3d 41 1e cb 3d
       -0.12656742 -0.23396264 0.038357895 0.0991788
000360 6b 62 0c 3e 89 91 de be 1d 1b 50 be b8 0f 47 be
       0.13709418 -0.4347041 -0.20322843 -0.1943959
000370 e3 94 a6 bc f5 6f 94 bd e8 9f 5e 3b 1f 02 ed bd
       -0.020334667 -0.072479166 0.0033969823 -0.1157267
000380 b7 56 12 3d 56 99 47 be 2d e1 7c bd bf ec 0f bd
       0.03572723 -0.19492087 -0.06173818 -0.035137888
000390 43 d0 5d be 20 ad 02 be 17 ea 2a be ec 08 f9 bb
       -0.21661477 -0.12761354 -0.1669086 -0.0075999405
0003a0 1e 43 40 be a6 c3 e6 3b fd e0 15 be 62 92 25 be
       -0.18775603 0.007042366 -0.14636607 -0.16169122
0003b0 ae 2f e2 bc 03 86 b3 3c b0 dd 3e be 20 3a 13 bd
       -0.027610626 0.021914488 -0.18639255 -0.035944104
0003c0 a5 bd 16 be 8a 14 a2 3d a0 09 ea bd bb 91 94 bd
       -0.14720781 0.07914074 -0.11427617 -0.072543584
0003d0 e5 e6 92 3c 14 6b 90 bd 0a c0 08 be 4b 31 f9 3d
       0.017932365 -0.070516735 -0.13354507 0.12167605
0003e0 fa 59 09 be 17 2a a4 bd 68 40 c6 bd 66 9d a8 bd
       -0.1341323 -0.080158405 -0.09680253 -0.08233146
0003f0 f4 16 ad 3d 35 11 68 be 40 fd 15 be 1d 52 7e 3c
       0.084516436 -0.22662814 -0.14647388 0.015522507

fc1.bias f4 [64]
000000 25 da 9f 3d 95 37 23 be bf e4 2c be 39 30 3a be
       0.0780528 -0.15939172 -0.16884135 -0.18182458
000010 42 86 b4 3e eb f7 29 be 06 30 0c bd ab ab 32 be
       0.3525868 -0.1659848 -0.034225486 -0.17448299
000020 65 f9 ca bd 5d 39 30 be dd 2a 22 3e b3 96 db 3a
       -0.099108495 -0.17209382 0.15836664 0.0016753286
000030 40 19 b3 3d 35 93 f3 bd 2d ff 1f 3d 4c bb a4 3e
       0.087450504 -0.11893312 0.039061714 0.32174146
000040 92 99 2d 3d 66 5d 10 be 1d 90 c8 3c ff d1 05 bd
       0.042382784 -0.14098129 0.024482781 -0.03267097
000050 0b ae ab 3b c7 32 a3 3d 9c 77 9a 3d e8 34 4a 3e
       0.0052392534 0.079686694 0.07542345 0.19746745
000060 ad 97 87 be da c6 0d bd bd b5 f9 bd 40 51 3f 3b
       -0.26482907 -0.034613468 -0.12192867 0.0029192716
000070 96 c0 8c 3d 67 08 45 3e 81 36 2c bb b3 68 cd 3e
       0.0687267 0.19241486 -0.0026277604 0.40118942
000080 ec 26 b3 3d 13 74 e0 3c 99 f2 63 bd c4 af ed bd
       0.08747658 0.027399099 -0.05565128 -0.1160579
000090 d1 09 8c bd 55 9f 4f be 30 16 54 bd a5 07 8c 3e
       -0.0683781 -0.20275624 -0.051778972 0.27349582
0000a0 6c f8 27 3d b1 fd 3c 3d ad 2a 4d 3d 06 aa bd 3e
       0.041008398 0.046140376 0.050089527 0.3704378
0000b0 2b 11 9b 3d 8e ea c0 3e 93 a0 8a 3d c8 22 ba 3d
       0.07571634 0.3767895 0.06768908 0.09088665
0000c0 8f 7d 40 bd 33 72 4a be 70 9e 4c be 21 a9 e0 bd
       -0.046994742 -0.19770126 -0.19982314 -0.10969759
0000d0 c2 1b 66 3e de c5 80 3e 07 8f 46 bd 25 4b f2 bd
       0.22471526 0.2515096 -0.048476245 -0.11830739
0000e0 82 ff 89 3d 2d 91 a2 bd 6d ab c2 bd fc bd ab 3d
       0.067381874 -0.07937846 -0.09505353 0.08385846
0000f0 80 74 10 bd a3 c0 01 3d b9 67 16 3e 9e 07 8d bd
       -0.035267353 0.031677853 0.14688005 -0.068862185

fc2.weight f4 [4, 64]
000000 ff 6e 5f 3c a3 69 91 bd 90 aa b0 3d da bd d9 3e
       0.013637303 -0.07100227 0.08626282 0.42527658
000010 a9 d1 23 3e 45 bc af 3d 38 dc 3a bc 18 bc 07 be
       0.15997948 0.085808314 -0.011405043 -0.13255346
000020 d5 74 6b 3e 7b 95 f9 bc ac 4c 52 3d 86 c9 ca 3d
       0.22993787 -0.030466786 0.05134265 0.09901719
000030 35 62 c1 3e e9 ca aa 3e e4 38 3b bb f5 c6 e8 3d
       0.3777024 0.33357933 -0.0028567845 0.11366073
000040 16 17 d7 3c a2 26 e8 3e 76 ae b5 be 4b 8e 10 3e
       0.026256125 0.45341974 -0.35484666 0.1411678
000050 a1 76 83 3e 65 d5 3c 3d 57 69 84 3d 95 b2 07 3e
       0.25676444 0.046101946 0.064654045 0.13251717
000060 8e 2f c6 3d 89 2e 4a be d8 2d f5 be 80 07 bd 3d
       0.09677039 -0.19744314 -0.47886539 0.09229946
000070 33 a5 02 be b9 74 52 3d 40 64 02 be 64 3f 1d 3e
       -0.12758331 0.051380847 -0.12733555 0.15356213
000080 9c c3 f9 bc 4a cc 27 3f 7e fc 4d 3e fd a6 cd be
       -0.030488782 0.65546095 0.2011585 -0.40166464
000090 5a 19 e5 3e 3e 3d 3f bc b8 30 9a 3e f5 c5 03 3e
       0.44745904 -0.011672316 0.30115294 0.12868483
0000a0 4d ec f6 bc 15 fd fa 3c 41 90 cf 3e 48 68 c9 3d
       -0.030141974 0.030638257 0.40539744 0.09834343
0000b0 81 8e c6 bc 1f f4 4e 3e 4b 55 d9 3d 46 46 4c be
       -0.024237873 0.20210312 0.106119715 -0.19948682
0000c0 19 51 d7 bc 34 f7 0c ba 43 a8 19 3d 2e 30 d5 ba
       -0.026283788 -0.00053774123 0.037513983 -0.0016264969
0000d0 09 c3 05 3e 62 3d 96 3d 86 f6 86 be 8f d8 c3 3e
       0.13062681 0.073359266 -0.26359957 0.3825116
0000e0 b4 e5 4e be 18 63 a3 3b 36 72 b5 be b2 1a 2c bd
       -0.20204812 0.004986178 -0.354387 -0.042017646
0000f0 b1 72 54 bd d9 e0 9c 3d fe 3e 8d 3d 0e 38 8b bd
       -0.05186719 0.07660074 0.068967804 -0.06797801
000100 37 48 6c bb f8 0a a1 bd 05 06 80 3c 75 5a 0c 3f
       -0.0036053786 -0.0786342 0.01562787 0.54825526
000110 0e a5 22 3e 31 26 a5 3d d8 cc 56 bc f4 4c 17 be
       0.15883276 0.08063925 -0.013110362 -0.14775449
000120 87 48 e6 3e 12 9a 39 3c b8 2b a0 3d 77 1d 20 3d
       0.4497721 0.011328237 0.07820839 0.0390906
000130 cf a0 cf 3e f1 8a c0 3e 7b ed 26 3d 88 2f f5 3d
       0.40552375 0.37606004 0.040753823 0.119719565
000140 35 3b dd 3c 42 5f 0b 3f 56 c7 9b be 48 01 1f 3e
       0.027005771 0.54442227 -0.3042552 0.15527833
000150 5c 07 82 3e 57 f1 ff 3b 62 72 06 3e a4 6d b2 3d
       0.2539624 0.0078107524 0.13129571 0.087123185
000160 7a e4 e9 bc 07 cf 3a be 15 5b d6 bd 43 19 ab 3d
       -0.028551329 -0.18243037 -0.10466591 0.08354428
000170 00 08 ff bd ea 97 66 3d e1 77 49 be aa cc 10 3e
       -0.12452698 0.05629722 -0.19674636 0.14140573
000180 b1 a2 7d bb f5 86 13 3f c3 46 82 3e eb b9 3b bd
       -0.0038701708 0.57627803 0.25444612 -0.045831602
000190 5a c0 d0 3e f0 9a af bb 86 e9 bf 3e 95 16 01 3e
       0.40771753 -0.005359046 0.37482852 0.1260627
0001a0 d6 a1 a1 bc ef 59 8c 3d 8d 06 a8 3e 08 c3 0f 3e
       -0.01973049 0.06853091 0.32817498 0.14039242
0001b0 5b 68 dc 3c a1 61 57 3e de 7b 8b 3e e9 7d 28 be
       0.02690523 0.21033336 0.2724294 -0.16454281
0001c0 2b ed 2c bd 0b d0 28 bd 77 48 7a bc 6e 0e d9 3b
       -0.04221837 -0.04121403 -0.015276066 0.0066240346
0001d0 59 3f 02 3e 3d 44 c8 3d 68 f3 41 be 95 90 88 3e
       0.12719478 0.097786404 -0.18940508 0.26672807
0001e0 d0 1e 36 be fc 18 c0 bd a3 e7 0b bf 9b 4c 41 bd
       -0.17785192 -0.093797654 -0.54650325 -0.047192197
0001f0 52 d7 b8 bd 89 a4 96 3d 21 55 b1 3d ff ba 17 bd
       -0.09025444 0.07355601 0.08658815 -0.037043568
000200 04 58 17 3e ae cb b2 bc c7 e0 d3 bc fa 30 71 3f
       0.14779669 -0.021825638 -0.025864018 0.9421536
000210 88 72 36 3e a2 4b 57 be 16 d0 7d bd dc fb 9d be
       0.17817128 -0.21024945 -0.061966024 -0.30856216
000220 82 2c 00 3f d3 7b 9f 3d 0a c5 c9 3d ca 81 59 bd
       0.50067914 0.077872895 0.09852035 -0.053102292
000230 57 77 b0 3e 13 42 1e 3e 8f f5 93 3d 54 7d 95 3d
       0.3446605 0.15454893 0.07224571 0.07299295
000240 02 a6 ee 3d 8c 1d 16 3e f3 01 76 be c1 c6 54 3e
       0.11652757 0.14659709 -0.24024181 0.20778944
000250 8b 32 69 3e 75 dd d1 bc a9 fc 79 3d f9 6f de 3d
       0.22773187 -0.025618294 0.06103197 0.10861201
000260 59 e6 b7 bd c4 88 a1 bd 04 77 a5 be e4 31 cf 3d
       -0.08979482 -0.07887414 -0.32317364 0.10116938
000270 6d 78 75 be 5e c3 9a 3d 26 a2 ea bd f9 e3 24 3e
       -0.2397172 0.075567946 -0.114567086 0.1610259
000280 a6 47 12 be bf 06 8c 3e 6d 5c bf 3e ca 89 db be
       -0.14285144 0.27348897 0.37375203 -0.42878562
000290 8c 09 12 3f 9f d8 c6 bd 02 7a 32 3f 5c 0e d7 3d
       0.5704582 -0.09709286 0.6971742 0.10500786
0002a0 a8 97 45 bd 3d d6 b7 3d 8d 2e d6 3e 3a f0 0d 3e
       -0.048240334 0.089764096 0.4183239 0.1386117
0002b0 e7 6f ba bd 5e a1 3a 3e b6 15 2a 3e ae cd cb 3d
       -0.09103375 0.18225619 0.16609845 0.0995134
0002c0 a2 76 ad bc 11 1c 7c be 93 11 5b be 53 67 7e 3e
       -0.021174733 -0.24620081 -0.21393423 0.24844103
0002d0 57 b8 42 3e 87 da ab 3d 00 b5 03 be 10 7f bc 3c
       0.19015633 0.0839129 -0.12862015 0.023009807
0002e0 ae a2 8e be 96 cc 35 bd 9f 14 63 bd ac f1 90 bd
       -0.2785849 -0.04438456 -0.055439588 -0.07077345
0002f0 e9 60 ed bd ed 10 5d bb 90 cd fd 3d 4a 3e 80 3c
       -0.1159075 -0.0033732012 0.123927236 0.015654702
000300 31 75 89 3d 0f d4 9f 3c 77 16 06 be f4 83 bc 3e
       0.067118056 0.019510297 -0.13094507 0.36819422
000310 1b 11 1a 3e ef 7d bd bd 33 78 3d bc 8e 1a a8 bd
       0.15045588 -0.092525356 -0.011564302 -0.0820819
000320 9d a0 90 bc 4e b3 34 3d 11 e0 16 3d aa 5c 0c bd
       -0.017654711 0.04411631 0.03683478 -0.03426806
000330 bf 7e 0a 3f 19 b9 da 3e 79 43 f1 3c df 94 21 3e
       0.5409965 0.42719343 0.029451119 0.15779446
000340 b8 73 f0 3d 16 53 35 3f 79 e9 22 be 76 4e 03 3e
       0.117408216 0.70829904 -0.15909375 0.12822899
000350 ed a7 1a 3f 83 65 79 bd 54 6c 09 3f dd 92 07 3e
       0.60412484 -0.060887825 0.5368092 0.13239618
000360 8b b1 40 be a6 6a 49 be 9b a0 ef bd 3a b2 ab 3d
       -0.18817727 -0.1966959 -0.11700555 0.083836034
000370 15 7a 60 bc 21 2e a0 3d ca 5c 8b be 01 fb f2 3d
       -0.013700982 0.078212984 -0.2721923 0.118642814
000380 3f 22 4c bd cb 93 82 3e 81 51 37 3b db e4 47 be
       -0.049837347 0.25503382 0.0027972164 -0.19520895
000390 e6 4f 9b 3e d1 be 2d 3d 37 22 e8 3d 8b 38 cd 3d
       0.30334395 0.042418305 0.11334651 0.1002055
0003a0 37 e6 19 bc 9c c4 bf 3d 4a 5d bb 3e ca 76 ff 3d
       -0.009393266 0.09363672 0.3659461 0.12473829
0003b0 f0 95 dc bc 3e af 23 3e 1d 16 fa 3e e1 84 3f be
       -0.026926965 0.15984818 0.48844996 -0.18703033
0003c0 af 7d 88 bd 78 c3 05 bd 85 e8 43 be 5b b5 81 3c
       -0.06664597 -0.032657117 -0.19131668 0.015833547
0003d0 b0 d8 d7 3d ce cf 98 3d 6f 44 7a be 63 c5 d1 bd
       0.10539377 0.074615106 -0.24440168 -0.10242727
0003e0 19 e1 a7 bd 7b f1 f7 bd 03 c6 ee be b0 22 85 bd
       -0.08197231 -0.121066056 -0.46635446 -0.06500757
0003f0 a1 6b bc bd c1 df a8 3d 01 21 f0 3c 85 09 38 bc
       -0.09200216 0.08245803 0.029312612 -0.011232738

fc2.bias f4 [4]
000000 75 40 84 3e 20 0c b9 3d 67 53 01 3e 53 f5 89 3e
       0.25830427 0.09035516 0.12629472 0.2694498
