3. Multi-Agent Reinforcement Learning/collaboration-competition/agent_1_actor_checkpoint.pth (torch_old, 83482 bytes, 10 tensors)

fc1.weight f4 [128, 24]
000000 1d ab 6a 3d b1 65 d8 bd cb 5f a5 3c bc 88 12 3e
       0.057292093 -0.10566271 0.02018728 0.14309973
000010 0f 57 11 bd e9 63 80 be 93 ff c2 bc 1e 24 64 3d
       -0.035483416 -0.25076225 -0.023803508 0.055698507
000020 13 19 6c 3d 16 aa ba bd c8 3b 87 3c 8b fe 12 3d
       0.0576411 -0.091144726 0.016507998 0.035887282
000030 0a 15 af 3c c0 34 1b be 9c e0 93 bd ec 70 6b 3c
       0.021372337 -0.15156841 -0.07220575 0.014370184
000040 53 96 d1 3d 4e ee ba 3d a1 13 35 3a 9d bb bd 3d
       0.1023375 0.09127484 0.0006907527 0.092643
000050 56 42 c1 3d 17 f6 6f bd cd c6 66 bd cd b9 9d 3d
       0.09436481 -0.0585843 -0.056341935 0.07701454
000060 10 9c 31 ba c7 67 90 3e 50 87 97 bc b5 4a 09 3c
       -0.0006775269 0.28204176 -0.01849714 0.008379628
000070 bd 1b bf 3d 7f 1d e2 3d 16 5d 9e 3c ee c4 ea 3c
       0.093314625 0.11040782 0.019331496 0.028658357
000080 d9 12 83 3d 03 0e 6f 3e c1 a7 98 bd 12 50 01 3d
       0.06400079 0.23345189 -0.074538715 0.0315705
000090 f0 b4 55 3e 6f 91 f4 3d 66 0e 01 3d 4f 68 28 3d
       0.20869803 0.11941802 0.031507872 0.0411151
0000a0 78 d5 f8 3d 00 59 78 3e 68 d1 e0 bc 6e 4d 01 3e
       0.12150091 0.24252701 -0.027443603 0.12627193
0000b0 08 b7 f4 3d c9 c5 f6 3c 53 32 78 bc e5 09 a9 bc
       0.11948973 0.030123608 -0.015148717 -0.0206346
0000c0 1b c8 59 bd 92 e5 30 3d 40 23 ca bc 2b ae 8b 3c
       -0.05316935 0.043187685 -0.024675012 0.017050823
0000d0 60 6a 0c 3e a0 b0 12 bc aa 7d d1 3c 13 6e 98 bc
       0.13712454 -0.0089532435 0.025572617 -0.018607175
0000e0 67 45 e4 3c 5b 05 13 3e 88 7c 6d bb 74 0b 15 3d
       0.027865125 0.14357512 -0.0036237556 0.036387876
0000f0 1c 01 eb bd 63 61 82 3d 2c 6a 9c 3a 56 a3 82 bc
       -0.11474821 0.06366231 0.0011933497 -0.015947025
000100 a5 7a c0 3d db 8a 84 3d 0b 82 61 bd a3 6b c9 3d
       0.093983926 0.06471797 -0.05505566 0.09834983
000110 64 4c 88 be 93 be 1a be cd a2 53 3d 24 a6 b4 bb
       -0.2662078 -0.15111761 0.05166893 -0.0055129696
000120 aa 5e 57 3d 58 7f 69 bb 74 48 75 3b 2c d4 29 3e
       0.052580513 -0.0035628881 0.0037427219 0.16584843
000130 ac 81 9b bd 2f 58 c0 3d a4 cb 8b bb d2 70 36 3e
       -0.07593092 0.0939182 -0.004266219 0.17816475
000140 07 1a 71 3d ae 9f e5 3d 86 cf ef bd fa 3b 36 be
       0.058862712 0.11212097 -0.11709504 -0.17796317
000150 9f 2d 8a bc 9b d6 bc 3c 8b 51 85 bc 94 61 2c bd
       -0.016867457 0.02305155 -0.016274234 -0.042085245
000160 9e 06 f4 3d de 47 0a 3e 2d cd 80 bb db 77 ee bd
       0.11915325 0.13503978 -0.003930709 -0.11643954
000170 09 26 9b bd 44 b4 5e 3d 02 7e 59 3b 7d c2 98 bd
       -0.07575614 0.054371133 0.0033186679 -0.07458971
000180 21 56 80 bd f0 b4 1c 3e b2 25 00 bd b3 6d 8a 3d
       -0.06266428 0.15303397 -0.03128595 0.06759205
000190 60 a2 93 3d cb 26 ae bd 5e 6e f4 3c a0 85 0b bd
       0.07208705 -0.08503493 0.029837783 -0.03406298
0001a0 2b e3 80 bd 24 76 2c 3e 24 21 71 39 15 e2 85 bb
       -0.06293329 0.16841942 0.00022995897 -0.004085789
0001b0 18 44 4d bc 67 77 84 be ec 08 98 3b 1e 76 d2 bd
       -0.012528442 -0.25872347 0.0046397354 -0.10276435
0001c0 f0 30 c0 3a cc a6 22 3e ac fb 94 3d 6e 47 87 3d
       0.0014663022 0.1588394 0.07274565 0.06605421
0001d0 a5 c8 84 3d fd 6d a7 be d0 f8 aa bd 84 75 4e 3c
       0.064835824 -0.32701102 -0.083482385 0.01260126
0001e0 a9 d2 bf bd 09 b1 27 3e 06 c2 83 3a 50 82 a9 3d
       -0.09366352 0.16376127 0.001005233 0.08276808
0001f0 03 eb 0c 3d 70 d3 23 be 0f a9 35 bd d6 1f b0 3d
       0.034403812 -0.15998626 -0.04435068 0.08599822
000200 1d 99 96 bd a4 2d 34 3e 80 8a 3b 3d b1 79 a1 3d
       -0.07353423 0.17595536 0.04578638 0.07884539
000210 31 d7 4b 3d 90 2d 22 be cc a5 3c bd ff 66 5b bd
       0.04976577 -0.15837693 -0.046056554 -0.05356502
000220 1c 66 51 bd 8f 87 8d 3e f3 bd 44 bd 9c 87 cd 3c
       -0.05112277 0.27642485 -0.048032712 0.025089078
000230 15 06 78 bd fb 0c 24 be e5 76 35 3d 58 21 56 bd
       -0.060552675 -0.16020577 0.04430284 -0.052277893
000240 5e 22 2b 3e 2d e5 dd bd b6 0c e6 bc 8b 18 aa 3d
       0.16712329 -0.108347274 -0.028082233 0.083054624
000250 e7 10 25 3d d2 46 df 3c 97 a8 c3 bd 88 2f 2c bd
       0.040299322 0.02725545 -0.0955364 -0.042037517
000260 67 a9 a7 3d 03 4e 23 be f3 46 10 bc a8 3a bd 3d
       0.08186608 -0.15947728 -0.008805978 0.092397034
000270 2d 69 bf bb d3 87 28 bc 1a 0c e3 3a b4 21 e8 3d
       -0.0058413954 -0.010286289 0.0017322332 0.11334553
000280 40 e4 e7 3c e0 ad 27 bc 7b b0 e1 3a aa ac 6d 3e
       0.02830708 -0.010234326 0.0017218733 0.23210397
000290 28 ac 93 3c 3f 24 1f be b6 50 a9 bd 94 96 46 3e
       0.018026426 -0.1554117 -0.082673475 0.19393378
0002a0 ae 6c 1e bd ff 54 9d 3e 70 ea 18 bd f5 8a 9f 3d
       -0.038677864 0.3072891 -0.037332952 0.07790176
0002b0 c0 b4 08 bc f5 04 0c 3e 38 4e 99 3d c2 cc 1d 3d
       -0.008343875 0.13673766 0.07485622 0.03852535
0002c0 97 1c 45 3d 70 97 75 3e 60 bb 94 bd f7 a1 a8 bd
       0.04812297 0.2398355 -0.072623014 -0.08234017
0002d0 16 a7 bc 3c 90 14 47 3e 22 0d a8 bd 4e 3c 80 3d
       0.023028892 0.19441438 -0.0820563 0.06261502
0002e0 62 06 11 3d d7 c7 0c 3e 09 36 b0 3c 31 36 80 bd
       0.035406478 0.13748108 0.021510141 -0.06260336
0002f0 77 ee 0c 3c a3 9d aa 3e c7 de 30 bd e8 61 d8 bc
       0.008601776 0.33323392 -0.043181207 -0.026413873
000300 d9 6d 52 3b 46 86 3c 3e e5 01 d2 bc 0d 95 c3 3c
       0.0032108931 0.18410596 -0.025635669 0.023874784
000310 9a a6 34 bd 46 ff 1d be f3 e6 0c 3d 41 f9 a2 3d
       -0.044104196 -0.1542941 0.034399938 0.07957698
000320 74 18 6d bd 10 b1 84 3e ec 81 31 bc ec f3 a9 bd
       -0.05788465 0.25916338 -0.010834198 -0.082984775
000330 34 f4 9d b7 68 d4 89 be 2a eb 1c bc a8 7a 56 bc
       -1.8829574e-05 -0.26919866 -0.009577552 -0.013090767
000340 41 0f 8d bd 34 8f 76 3e 5b 5a 89 3d 33 72 5e bc
       -0.06887675 0.24078065 0.06706687 -0.013577032
000350 6c ed cd 3c 3e ea 69 be 1b de 85 bd 07 20 76 3d
       0.025137626 -0.22843263 -0.06536504 0.060089137
000360 6d 40 49 3c e3 b3 3b bd fe 50 60 bc 21 30 e3 3d
       0.012283427 -0.04582585 -0.013691185 0.11093164
000370 87 32 84 3d 51 06 91 bd 51 7e e8 3d a6 da 0d 3e
       0.0645495 -0.07081283 0.11352218 0.13852939
000380 20 d3 b3 bc ff df 1a 3d 40 b4 2b 3d a6 36 db 3c
       -0.021951258 0.037811276 0.041919947 0.026759457
000390 49 69 bd bb 5c ba 3c be 4f d5 91 bc 36 34 b0 bd
       -0.0057803732 -0.18430465 -0.017801909 -0.086037084
0003a0 bf d1 17 bd ae 63 ca ba 35 75 93 bd d0 8f f1 3d
       -0.037065264 -0.0015441084 -0.0720009 0.11795008
0003b0 47 d6 00 bd 1a e6 9b be 5a 8c 32 bc d5 2d 39 3c
       -0.03145435 -0.3044899 -0.01089772 0.011302431
0003c0 d1 46 cb 3c 3e bc dd bd 0c da 1f 3b 7c 8a 06 3e
       0.024814041 -0.1082692 0.002439144 0.13138765
0003d0 fc 52 03 3e 60 35 35 bd 81 51 8b 3c cf 1b a7 3d
       0.12824625 -0.044240355 0.017006638 0.08159601
0003e0 32 18 8b bd ac 76 88 bc 9a 79 05 bd 22 fd e8 3d
       -0.06791724 -0.01665815 -0.03258667 0.11376406
0003f0 52 45 a8 3d 7e 81 03 be f5 f3 df bd 80 74 2f 3d
       0.08216347 -0.12842366 -0.10935203 0.042835712

fc1.bias f4 [128]
000000 a0 7d af bc b8 99 ad be 47 0e ad be f8 10 b6 bd
       -0.021422207 -0.3390634 -0.33799955 -0.08889955
000010 d1 2f b1 be 0b e5 4d be 80 07 85 be 20 15 74 be
       -0.34606794 -0.20106904 -0.25982285 -0.23836184
000020 40 9a d7 bd 16 06 97 bd 78 8f 77 bd e0 1d 2c be
       -0.10527468 -0.07374208 -0.060439557 -0.16808271
000030 ac 8a 18 be f8 b6 47 3d 1a 8b 9d bd 75 17 25 be
       -0.14896649 0.048758477 -0.07692547 -0.1612223
000040 07 f1 1f 3d 61 eb 9f 3d 16 57 94 be 2c 14 70 bb
       0.03904822 0.07808567 -0.2897269 -0.0036633117
000050 0b 85 15 be c0 b4 68 3c 0c 8c 3b be 51 12 31 be
       -0.14601533 0.01420325 -0.18315142 -0.17292143
000060 2a 0e 5c be 15 44 83 3d aa e3 00 bd d4 d9 bd bd
       -0.21489778 0.0640947 -0.031467117 -0.09270063
000070 5b a1 32 3e 95 cb 89 be 05 74 1a be 3c 75 54 be
       0.17444365 -0.26913133 -0.1508332 -0.20747846
000080 1c f6 82 be dd 3f 88 3d bd d0 74 3e fb 10 16 3e
       -0.25578392 0.06652806 0.23907752 0.14654915
000090 33 ae 0d 3d be a9 ac bd 7b e9 26 be ee 37 5a 3d
       0.034589957 -0.08430813 -0.16300003 0.053275995
0000a0 9b 3d d2 bd 90 18 b9 bd e5 23 6a 3e 28 9d fe 3d
       -0.102656566 -0.09037888 0.22865255 0.12432319
0000b0 3a 78 99 be 03 62 12 3d 8c fe bc 3b 2f 8f 7b bd
       -0.29974538 0.035738003 0.005767649 -0.061415847
0000c0 a3 6b ce bc 2e b5 96 3d cd e1 38 be a7 dd 76 bc
       -0.02519781 0.07358776 -0.18054886 -0.0150674945
0000d0 e4 13 53 3d bc ad 6e be 19 46 29 be 0f e9 9b bc
       0.05153264 -0.23308462 -0.16530646 -0.01903203
0000e0 9e 4b 1e be 8c 56 38 3e 98 1d 15 bd 34 eb 96 be
       -0.15458533 0.18001765 -0.036405176 -0.2947632
0000f0 36 26 79 3d d8 8e f6 bd af 24 6b bd d3 e0 29 bd
       0.060827456 -0.12038964 -0.05740803 -0.041474175
000100 d4 7c 87 3d 23 0e 6e bd 3f d7 e8 bd 2f 99 80 be
       0.06615606 -0.05811895 -0.1136918 -0.2511687
000110 94 de 19 be 96 90 89 3c 67 b9 3a 3d 2a dd 86 3c
       -0.15026313 0.016792577 0.04558697 0.016462881
000120 06 9c 17 bc ef ef 75 be e9 0d 65 be 97 5c 78 be
       -0.0092535075 -0.24017309 -0.22368588 -0.2425407
000130 ad 6c c4 bd d0 dd ea bd 24 90 bf 3d 97 ff 5a be
       -0.09591041 -0.114680886 0.093536645 -0.21386562
000140 46 a3 0b be c4 0b 74 bd 55 f0 39 be 91 aa 22 3e
       -0.13636503 -0.059581533 -0.18158086 0.15885378
000150 89 d7 40 be 8a ae 8d 3e 66 e4 f6 bd b9 79 6d be
       -0.1883222 0.27672225 -0.12055282 -0.23190965
000160 85 6b c1 be 6f bc 32 be d0 19 c8 ba 00 54 24 bd
       -0.37777343 -0.17454694 -0.0015266482 -0.04011917
000170 1e 55 85 be c1 41 2e be 32 28 9a be 81 aa d1 be
       -0.26041502 -0.1701727 -0.30108792 -0.40950397
000180 97 74 cb be 7d bb 68 3d a8 ec ac bd 2d e9 35 be
       -0.39737388 0.056819428 -0.08443576 -0.17764731
000190 02 38 0a be d4 e6 c5 3d 83 17 c0 bd 7b 45 18 3e
       -0.13497928 0.096631676 -0.093794845 0.14870255
0001a0 d5 9c 7b be 02 2b db 3c 4e 8d 80 be e5 b4 ae bd
       -0.24571545 0.026753906 -0.25107807 -0.08530597
0001b0 dd 75 3b be 9d 9f 6d 3d 8b c3 20 be 63 ca be bd
       -0.1830668 0.058013547 -0.15699594 -0.09315946
0001c0 a8 c7 97 bd a6 ca 90 be ee 98 d1 bd 48 95 af be
       -0.07411128 -0.28279608 -0.10234247 -0.3429358
0001d0 fe 2f a6 be fb b8 54 be 3d 8a 09 be d3 1a d5 bd
       -0.3245849 -0.2077369 -0.1343164 -0.10405507
0001e0 d5 66 80 be ec b2 be be f8 e6 96 be b7 0e 53 be
       -0.25078455 -0.37245882 -0.2947309 -0.20611082
0001f0 6f 65 6a be 60 0d 97 be 09 04 16 be 8b a2 24 bc
       -0.22890256 -0.29502392 -0.14649977 -0.010048519

fc2.weight f4 [128, 128]
000000 c3 ed bd 3d 65 71 1c 3e b0 1d a5 3d a2 cf ce bb
       0.09273865 0.15277632 0.08062303 -0.006311373
000010 05 0a 20 3e 4a 6b 43 bc cd 6d 81 3d c8 54 0e bc
       0.15628822 -0.011927435 0.06319771 -0.008687206
000020 e0 79 1c bd 2e 42 ad be 9a 79 dc 3d 03 81 16 3d
       -0.038202167 -0.33839554 0.10765381 0.03674413
000030 b3 b2 b3 bd a8 06 be bd 5d 45 7a be ab bd 3f 3e
       -0.087743185 -0.09278613 -0.24440522 0.18724696
000040 be e7 f3 3d 76 89 31 3d 1b 4d d5 bd b9 38 a4 3d
       0.11909436 0.043343984 -0.10415097 0.080186315
000050 55 4a 27 be fd de 52 bc d0 d2 e3 bc 0f 1a 41 bd
       -0.16336949 -0.012870547 -0.027810484 -0.047143992
000060 23 a9 41 bd 2d 56 13 3e 84 40 1f 3e 6e ed d4 bd
       -0.047280442 0.14388342 0.15551955 -0.103968486
000070 23 16 82 be 31 59 0c 3e a4 71 59 be 38 88 d4 3b
       -0.25407514 0.13705899 -0.21234757 0.006485965
000080 8d 9f f3 3d 7d 14 e7 3d 28 92 a2 bd cf 6a c6 bd
       0.11895666 0.11283205 -0.07938033 -0.09688341
000090 78 09 1d be e2 14 d3 bd 96 81 45 3e f4 4b c9 bd
       -0.15335643 -0.103067175 0.19287714 -0.0982894
0000a0 07 d3 59 3c fd ef 16 be b0 58 3e 3d 82 ac af bd
       0.013294942 -0.14739986 0.046471298 -0.08577825
0000b0 e3 70 4c 3d ba e3 38 3e 30 1d ad bd 01 ed 1d be
       0.049912345 0.18055621 -0.08452833 -0.15422441
0000c0 3c 0c e0 bd 4c f1 cd 3d 92 9c 22 bd 9c e5 3b 3e
       -0.109398335 0.10055789 -0.0397001 0.18349308
0000d0 e8 70 17 3e 8e 0f 55 bd e8 3c 7f bd 66 35 14 3d
       0.14789164 -0.052016787 -0.062313944 0.036183737
0000e0 17 44 1f 3e 75 b1 d0 3d bc 93 df be 7d 47 5d 3e
       0.15553318 0.10190097 -0.436674 0.21609302
0000f0 9a 85 01 bd 81 0c 70 3e dc 1f 87 be d4 ae 2e 3d
       -0.031621553 0.2344227 -0.26391494 0.042647198
000100 18 b3 b9 be 43 64 f5 bd d8 8d 51 3d 69 c2 60 3e
       -0.3626945 -0.11982014 0.051160663 0.21949162
000110 ec 7f b0 be a1 72 29 be ba d3 72 be 67 02 38 be
       -0.34472597 -0.16547634 -0.2371358 -0.17969666
000120 f2 9a 97 3e 5d 77 02 be a9 a2 d7 3d 9d c5 a3 3d
       0.296104 -0.12740846 0.10529072 0.07996676
000130 5d e5 62 3b 1e ca 29 be f9 50 b3 bd ea 24 2e 3e
       0.0034621574 -0.16581008 -0.08755679 0.17006269
000140 81 c8 eb bd 06 28 78 3d 2d 6b 3f 3d 71 43 97 be
       -0.115128525 0.060585044 0.04673307 -0.2954364
000150 df 02 e9 3d d2 de 30 3c 23 51 c9 3d c0 ee 17 be
       0.11377501 0.010795312 0.09829929 -0.1483717
000160 79 cf 64 be a6 1f 74 3d be 74 b0 be 47 59 89 3c
       -0.2234477 0.059600495 -0.34464067 0.016766204
000170 fa 42 0e bd 94 79 a0 3d 4b e6 a1 3d 2b 75 23 bd
       -0.034731843 0.07835689 0.07905253 -0.039906662
000180 ec 70 91 bc e8 51 2f 3d d1 43 4b bd 5a a4 9b bd
       -0.01775404 0.04280272 -0.04962522 -0.07599707
000190 03 15 0b bc 80 3a 52 3e eb 2f d7 3d fa 55 0e 3e
       -0.008488896 0.20530128 0.105071865 0.13899985
0001a0 f1 9a 10 3e c0 fb 8f bd 64 bb b2 3e 21 70 a2 3d
       0.14121605 -0.070304394 0.34908593 0.07931543
0001b0 4d 3a 25 3e 8c d0 0b 3e 76 09 a6 bd b7 20 0f be
       0.16135521 0.13653773 -0.08107273 -0.13977323
0001c0 ae 9e 27 3e bb c5 94 bd 9b d0 2c be 2c ff 3f 3e
       0.16369125 -0.072642766 -0.16876452 0.18749684
0001d0 7b b5 f4 3c 43 07 d0 3d 5d 93 2a bd 01 2f 55 bd
       0.029871693 0.10157635 -0.041644443 -0.05204678
0001e0 9d 77 37 bd 54 31 ef 3c 76 db f9 3d 75 6c f8 bd
       -0.044791806 0.029198326 0.12200062 -0.121300615
0001f0 72 30 d1 bd 76 54 8a be 63 27 25 bd 9a e8 6b bd
       -0.10214318 -0.27017564 -0.040320765 -0.057594873
000200 e6 36 83 be 1b 58 a1 3e 06 36 6f be ea 2c 4a bc
       -0.25627822 0.31512532 -0.23360452 -0.01233981
000210 42 3d 75 bd 59 15 26 3d 7f 82 56 3e 0f 1a 9e 3d
       -0.059872873 0.040547702 0.20948218 0.07719814
000220 d4 b7 48 3d 1f db 89 be 3e 73 9c be c3 b4 4f 3e
       0.049003437 -0.2692499 -0.30556673 0.20283799
000230 fc 64 88 3d 52 18 75 3c d7 da 4f 3d a3 36 34 be
       0.06659886 0.014959412 0.05074581 -0.17598967
000240 af 32 8e 3e 0f 30 40 be a5 4d 1c bc 53 d9 fc 3c
       0.27773044 -0.18768333 -0.009539996 0.030865347
000250 00 e7 73 3e 9f 1b 8d 3d b9 3f ee 3d 31 5b 86 3e
       0.23818588 0.06890034 0.11633248 0.2624145
000260 67 66 6c bd 7a 0a 85 be 04 09 96 3e 59 25 3a 3e
       -0.057714846 -0.25984555 0.29303753 0.1817831
000270 e2 e7 67 3e 01 ac a0 bd 1d 98 4b bb 0b e7 85 3c
       0.2264705 -0.07845307 -0.0031066008 0.016345521
000280 75 2b dc bd 24 cc 26 be cd c4 e9 bd ca 39 57 be
       -0.10750476 -0.16288811 -0.1141449 -0.21018139
000290 66 3f f4 bd 19 a5 8b be c5 9f af bd aa f3 8a 3d
       -0.11926155 -0.27274397 -0.085753955 0.067847565
0002a0 79 2c ea 3c 38 89 43 bd 9f 89 97 bd 86 a4 ab 3d
       0.02858566 -0.047738284 -0.07399296 0.0838099
0002b0 94 b9 09 3c 55 49 3b be ab 64 b0 bc 69 a5 10 3e
       0.008406062 -0.18289693 -0.021532377 0.14125599
0002c0 28 f9 fc bc 63 6e 66 bc 33 1b da 3d 7f 49 fe 3d
       -0.030880526 -0.014064404 0.10649719 0.12416362
0002d0 fb 7a 17 be 04 a5 f9 bd 0f d7 06 3e 98 78 06 bd
       -0.14793007 -0.12189677 0.13167976 -0.03282985
0002e0 c3 ba b7 3e c7 de b4 3d e5 84 93 3d 46 cc 08 3e
       0.35884675 0.08831554 0.07203082 0.13359174
0002f0 6f ec e8 be 1d 98 45 be 97 1a a8 3d 4d ae 34 be
       -0.45492885 -0.19296308 0.082081966 -0.17644615
000300 a4 04 8f be 0c 3a 37 3e 1a 71 48 bc 00 39 93 bb
       -0.27933228 0.17893237 -0.012233997 -0.004492879
000310 c9 af 43 be ba 14 7d be f0 d5 39 3e d6 17 b2 3c
       -0.19110025 -0.24714938 0.18148017 0.021739881
000320 a7 6f dd 3c f8 6c bb 3c 1d 8d 1b 3d e8 8d 1e 3e
       0.027030779 0.022879109 0.037976373 0.1548382
000330 a6 e9 8c 3e 8b 08 a2 3d aa 27 87 3e 3a 69 9a 3d
       0.2752201 0.07911786 0.2639745 0.075396016
000340 49 ef f9 bc fc 1c 10 3e 41 ec 6e 3e b4 08 c9 bd
       -0.030509608 0.14073557 0.23332311 -0.09816113
000350 7b d2 5a bc 37 51 51 3d 8e 43 9f bd c3 a4 7b 3e
       -0.0133558465 0.051102843 -0.07776557 0.2457457
000360 46 df 5a bb f1 da fe 3d 32 ec 1c bd cb 4d 5e bd
       -0.0033397241 0.124441035 -0.03831119 -0.054273408
000370 31 0c 61 be 49 2a f6 bc f3 1f d1 3d 87 56 0a be
       -0.21977307 -0.03004946 0.10211172 -0.1350957
000380 3e 9f 2b bd 69 3f d7 bd b0 b1 93 be 18 7f 92 be
       -0.041899912 -0.105101414 -0.28846502 -0.2861259
000390 a2 48 e0 3d a5 8f 40 be 30 a0 78 3d e3 04 e3 bb
       0.109513536 -0.18804796 0.06069964 -0.006928073
0003a0 ff 66 23 3e 41 fc a8 3e 88 36 93 bd 61 f1 ea 3d
       0.15957259 0.33004954 -0.071881354 0.114718206
0003b0 cd 3a 9b 3e 13 a0 6e 3e 8b f6 0b 3e 3d aa 55 bd
       0.303183 0.23303251 0.13668267 -0.052164305
0003c0 ae 2d 79 bc a2 3c 1d bd 8e e4 32 3e a8 48 1a bc
       -0.015208645 -0.038387902 0.17469999 -0.009416737
0003d0 5f 78 ee bd ad 20 f4 3c 93 a4 04 3e b4 a7 9d 3e
       -0.11644053 0.029800737 0.12953405 0.3079201
0003e0 04 f3 9b 3e 4c 9a 7d 3e 85 95 9a 3c f3 a7 a1 bd
       0.30458844 0.24765891 0.018870125 -0.07893362
0003f0 7b 23 d5 bd 80 a2 ee bd f6 5c b3 bd 5e 18 36 3e
       -0.10407158 -0.11652088 -0.08757965 0.17782733

fc2.bias f4 [128]
000000 e6 80 9b bd de 4b 73 bd a8 65 0a 3d 5c bd 49 3d
       -0.07592945 -0.059398524 0.033788353 0.049252853
000010 c1 4c fe 3d 6d fb f0 bd 34 94 94 3d 5c 30 00 be
       0.124169834 -0.11766706 0.0725483 -0.12518448
000020 46 35 0c bd ac dc c7 bd b8 dc d6 3c cd ba 9e 3e
       -0.034230493 -0.09758887 0.026228294 0.31001893
000030 3b 55 58 3e 81 d4 25 3d dd 2e 0c bc 2d 78 5c 3d
       0.21126263 0.040485863 -0.008556095 0.053825546
000040 7c 67 fa bd 92 1f 2f bd 17 6b da bb cb 39 51 3e
       -0.12226769 -0.042754717 -0.006665598 0.20432203
000050 f6 b9 1e 3d aa 30 11 bc 79 91 8c 3d dd 79 09 bd
       0.038751565 -0.0088617 0.06863684 -0.033563484
000060 f9 61 42 3d 08 e6 a1 3b 91 57 b9 bc 8f 8f 3e 39
       0.047456715 0.004940752 -0.022624763 0.00018173292
000070 ac 97 54 bd 28 bb 15 3a a4 2f f0 bc 23 ab 15 bd
       -0.051902458 0.00057117874 -0.029319592 -0.03654016
000080 03 d9 8f 3d 4b f7 0a 3c 46 cd da 3d 8a 19 a2 3d
       0.070238136 0.008481811 0.10683684 0.079150274
000090 95 40 02 be ca 64 8a bd 60 c6 15 3e 9e 73 7e 3c
       -0.12719949 -0.06757505 0.14626455 0.015530495
0000a0 c0 40 b1 3d 8a 53 0b 3c 43 ef c8 3a 38 70 cc bd
       0.08654928 0.008503804 0.0015330095 -0.099823415
0000b0 53 88 c6 3c 6d de 7a bd 1a 4f 8f bc 14 6e 65 bd
       0.024234926 -0.061247278 -0.017493773 -0.05601318
0000c0 84 74 8e 3d 20 2a b0 bd e5 b9 b3 bd 51 4f 64 bd
       0.06955817 -0.08601785 -0.08775691 -0.055739705
0000d0 d1 67 43 bd 14 0b 38 3d d3 50 b7 bb 61 95 38 ba
       -0.04770643 0.04493244 -0.005594352 -0.0007041302
0000e0 20 e5 08 be da d7 37 bd 8e 23 52 3d 0e fc a9 bc
       -0.13368654 -0.044883586 0.05130344 -0.020750072
0000f0 9f 7c 04 3c 7f b7 83 3d 53 22 ac 3c e8 50 1a bc
       0.008086353 0.064314835 0.02101246 -0.009418704
000100 2b 6e ba bd e2 0e 2d 3d 62 ae 8c 3d a0 dd 0d 3e
       -0.09103044 0.04225052 0.068691984 0.13854074
000110 f1 8e 3b 3c f0 70 b4 3c 19 e1 ad 3c a7 26 30 bd
       0.011447654 0.022026509 0.021225499 -0.04300561
000120 6d 9d 36 3e be ad 0f 3e c3 e4 4f 3c c6 5e 1c 3d
       0.1783349 0.14031121 0.012688818 0.03817632
000130 74 c8 ad bb a1 d9 6b 3b 1a de 4e 3b 0d 6d d2 3b
       -0.005303437 0.0035987871 0.0031565488 0.0064216913
000140 ca a4 94 3d 94 40 3c 3e f2 c1 aa bd 0b dd 17 3e
       0.072579935 0.1838401 -0.083377734 0.14830415
000150 fc ea 92 3c ad 8e 09 bd c8 29 14 3e bf 31 d1 bd
       0.017934315 -0.03358333 0.14469063 -0.102145664
000160 d7 33 5f 3d 67 ba 2d 3e ca c2 1e 3e f5 9d 24 bd
       0.054492798 0.16965638 0.15503994 -0.040189702
000170 db 5f e1 bd 99 c4 da 39 9f af e7 3d dc 33 ca 3d
       -0.11004611 0.00041726677 0.11312794 0.09873173
000180 00 1d 50 3d f3 2f fb 3c ab 7e c3 3c 80 28 a2 bd
       0.050808907 0.030662512 0.023864111 -0.07917881
000190 b4 25 e2 3d 8d eb 4a 3d f4 4d 9c 3e ab 16 ad be
       0.110423476 0.049541045 0.30528224 -0.33806357
0001a0 ee 71 e1 3c 5f ee 12 3c 74 42 1a 3e 9b 10 1c 3d
       0.027520146 0.008967965 0.15064412 0.038101774
0001b0 30 5f 02 3e 35 cb e2 bc 1d c0 88 3d c9 ca 82 3b
       0.12731624 -0.027684787 0.06677268 0.003991459
0001c0 6c f0 c9 bc 9b 9b c3 3c 0d e0 54 bd 14 15 2a bd
       -0.024650775 0.02387791 -0.051971484 -0.041524008
0001d0 54 ed 3f bd 1a 7e d5 3d c0 b5 28 bb fc e6 86 3c
       -0.046857193 0.104244426 -0.0025743097 0.016467564
0001e0 91 5d da 3d 05 4c 42 3d 3c 0b c1 3d 9e 2b 89 3d
       0.106623776 0.04743578 0.09425971 0.066977724
0001f0 b0 63 73 bd 92 91 e7 bd 45 a3 3a be 82 78 27 3d
       -0.05942124 -0.11307062 -0.18226345 0.04088641

fc3.weight f4 [2, 128]
000000 ee af 31 bd d4 9c cb 3e 63 bc 68 be 77 cd 95 be
       -0.04338067 0.39768088 -0.22728114 -0.2925832
000010 3c f3 6a 3b 9e c6 2f be d2 09 b5 be c3 90 33 bf
       0.0035850545 -0.1716561 -0.35359055 -0.70142764
000020 bf 10 11 be 42 0b 45 3e 03 f5 95 bd 6f 66 92 b9
       -0.14166544 0.19242576 -0.07322123 -0.0002792361
000030 11 92 27 bc a7 79 f0 be 71 0e 7d 3d f0 5f 62 3b
       -0.010227696 -0.46967813 0.06178135 0.0034542046
000040 7c 24 fd 3e a7 f0 3a 3e 51 b2 a5 3e f2 17 b2 bb
       0.49441898 0.18255864 0.32362607 -0.0054349834
000050 5f a4 68 3e c6 db 9b be 8f 34 2f bf 88 42 57 be
       0.22718953 -0.3044111 -0.68439573 -0.21021473
000060 70 07 60 bc 59 a0 fb 3e 55 9d 15 3d be 8f 45 3e
       -0.013673648 0.49145773 0.036526997 0.19293115
000070 c7 fd 5f 3e 14 d1 0d 3f 0b 8c 7d be d3 de b9 be
       0.21874152 0.5539715 -0.24760453 -0.36302814
000080 14 30 de bd c2 02 bb be 65 d1 a7 3e 9c 52 19 bf
       -0.10849014 -0.36525542 0.32776943 -0.59891677
000090 0f 05 e2 bd f0 2e c4 3e 5e ca 5c bd b1 f7 12 3f
       -0.11036121 0.3831706 -0.05390393 0.574092
0000a0 54 d9 4f 3e 2b 91 0a 3e f7 ff 3c 3e e2 fe 24 be
       0.20297748 0.1353194 0.18457018 -0.16112855
0000b0 8f d7 a3 3d 95 bd 99 bd 38 24 fc 3e 91 98 ee bc
       0.08000099 -0.07506863 0.49246383 -0.029125484
0000c0 6a 30 54 3e 8e 72 b2 3e d0 74 53 3e d6 91 92 be
       0.20721593 0.34853023 0.20650029 -0.2862689
0000d0 e5 bb 1f 3e 37 68 e5 bd cc 84 a0 be 21 47 e4 be
       0.1559902 -0.11201518 -0.31351316 -0.44585517
0000e0 58 77 90 bd d0 e2 de 3e c4 80 b4 3e 2b ea 75 be
       -0.07054013 0.4353242 0.3525449 -0.24015109
0000f0 17 28 ad bc a9 0a e6 3e fa 4f 42 3e ae 20 4c 3e
       -0.02113728 0.44930008 0.18975821 0.19934341
000100 a8 f3 07 bf 47 2a 74 3e a4 00 bd 3e 22 70 ca be
       -0.53106165 0.23844253 0.3691455 -0.39538676
000110 a6 39 02 3e 06 8c 3e 3e 80 f8 26 bf f5 1d d2 3e
       0.12717304 0.18608102 -0.6522293 0.4103848
000120 30 ea cc bc bb 94 b5 be ba 89 95 bd 69 27 15 bf
       -0.025014013 -0.35465035 -0.0730166 -0.5826326
000130 24 7a b4 bd fc 72 16 bf 05 d3 58 be 0a d7 88 3e
       -0.08812359 -0.587692 -0.21174248 0.26726562
000140 f5 8e 52 be 8d f2 43 3e bd 75 81 3e 22 9a 68 3e
       -0.20562346 0.19135495 0.2528514 0.22715047
000150 e2 99 00 3e 98 3c 51 3d 29 e8 57 3e 37 a4 10 bd
       0.12558702 0.051083177 0.21084656 -0.035312857
000160 f9 f6 ee 3e 50 17 a3 bd e9 6d 56 3e e0 22 72 be
       0.466728 -0.07963431 0.20940365 -0.23646116
000170 eb 52 84 bd 91 c8 9c 3e 3e 5f 01 3c 2e 1f f8 3e
       -0.06461128 0.3062177 0.007896243 0.48461288
000180 86 07 c1 3c 04 0c d2 bd 9d af ae 3d c5 2e 94 be
       0.023563158 -0.10256198 0.08529589 -0.28941932
000190 cf 65 84 bd c1 62 9e 3d f2 78 02 3c ed e0 fa bd
       -0.06464731 0.077336796 0.007963406 -0.122499324
0001a0 8c 2f f3 3c 60 0c d6 3e e8 df 84 3c f9 a2 cd be
       0.029685758 0.41806316 0.016220048 -0.401634
0001b0 e8 cf b2 bd d9 cb 23 3d 17 b0 e6 bd ce dd c8 3e
       -0.08731061 0.039989326 -0.11264055 0.39231724
0001c0 f7 68 65 3e ad ac 35 be 36 0d c0 be 22 ec df bd
       0.22403322 -0.17741652 -0.3751008 -0.10933711
0001d0 ce 68 e5 bd 64 c8 ed bc 67 c9 26 3e 1c 87 5a 3e
       -0.112016305 -0.029026218 0.16287766 0.21340603
0001e0 8d fe 9b 3e ba f0 10 bf 98 cf a5 b9 f9 4f f1 be
       0.30467644 -0.5661732 -0.00031625922 -0.47131327
0001f0 ea 19 19 bf 2d 7d 94 3e e2 74 a5 be cf bf 57 3e
       -0.59805167 0.29001752 -0.32315737 0.21069263
000200 ba e8 b4 3e 61 18 c9 be 0f 6e 93 3d 8d 77 e1 bd
       0.35333806 -0.39276412 0.071987264 -0.110091306
000210 d0 97 9e 3e 63 f2 15 3f 5d 10 cd bd 07 fd cd bd
       0.309752 0.5857298 -0.10012887 -0.10058027
000220 e6 1d 8a 3e 95 a5 78 3e 38 6d c6 3e b7 4a 88 be
       0.26975936 0.24281915 0.38755202 -0.26619503
000230 84 15 13 be 8b be a6 bd 89 69 66 3e 8f 0d 0c 3f
       -0.14363676 -0.08141812 0.22501196 0.5470819
000240 91 15 bc be a8 0c 8b 3e 2f 80 bc be 3c b7 0b be
       -0.36735204 0.27158093 -0.36816546 -0.13644117
000250 c8 ff eb bd 48 c6 c1 bd ec 70 a3 3c 78 22 0e 3f
       -0.11523396 -0.09461647 0.019951306 0.55521345
000260 58 24 91 3e 43 d8 6f be a4 d4 a2 3e 4b 11 4d 3e
       0.2834804 -0.23422341 0.31802857 0.20026128
000270 5d 1b b0 be 86 36 8c be bd 2c 43 3d 21 d8 46 be
       -0.34395877 -0.27385348 0.047650088 -0.19418384
000280 52 09 6b bd 6d 1a 3c 3a bf 9d 30 be 3c 93 35 be
       -0.057381935 0.00071755686 -0.17247675 -0.17731947
000290 87 b3 c1 3e ea e9 1e 3e ff 99 ce 3e a7 77 b5 bc
       0.3783228 0.15518919 0.40351865 -0.022151781
0002a0 48 2d 2c 3e 0d e2 64 3d e3 07 e8 be ab c8 fb 3e
       0.16814148 0.05587964 -0.45318517 0.49176535
0002b0 43 5e be 3e e9 68 fc 3e e1 0f 53 be 2e 17 be 3e
       0.3718129 0.4929879 -0.20611526 0.3712706
0002c0 52 12 64 3e 58 a4 3b bc 5b da ad 3d 22 a3 c6 bc
       0.22272614 -0.011452757 0.084889136 -0.02424771
0002d0 cc da 93 3e ef 95 95 3e 0a e9 95 be 84 62 5e 3c
       0.28877866 0.29215953 -0.29279357 0.013573293
0002e0 28 1f e1 3e 67 22 4c 3b 4b 6d 87 be 5a aa 9a be
       0.43969083 0.0031148435 -0.2645057 -0.30208093
0002f0 68 c5 cf 3e 5a 9a 84 be 42 b7 41 3e 53 c2 7e 3e
       0.40580297 -0.2589901 0.18917564 0.24878816
000300 b7 10 a0 3d da ba 11 3d 99 0c 53 bd b8 9a 80 be
       0.07815688 0.035578586 -0.051525686 -0.2511804
000310 da e4 33 3e 5c df 2d 3d bf bd 0d be 11 c2 1e be
       0.17567769 0.04244934 -0.13841914 -0.15503718
000320 3a f7 12 be 68 74 04 be 00 a3 56 be 7c ac 1b be
       -0.14352122 -0.1293503 -0.20960617 -0.15202516
000330 cd 34 b7 3e d9 7f 58 bd 2c 87 b2 be e2 30 cc 3d
       0.3578247 -0.0528563 -0.34868753 0.09970261
000340 4f 98 b4 3d bf 14 95 bd bf c0 18 3e 34 42 61 be
       0.08818113 -0.07279348 0.14917277 -0.2199791
000350 d6 ff c8 3e 07 8f fe 3e fc 2a 42 be e1 cb c5 3e
       0.39257687 0.49718496 -0.1896171 0.3863211
000360 4c b0 95 bd 97 85 39 be b1 da a0 be 79 b1 3d 3d
       -0.073090166 -0.18117367 -0.31416848 0.04631183
000370 65 cd f2 3e 63 51 35 be 08 67 2c be a0 84 c0 be
       0.4742233 -0.17706828 -0.16836178 -0.37601185
000380 b3 da 4e 3e c2 71 dd 3e d1 0b b9 3e c3 d5 87 bd
       0.20200615 0.43250853 0.36141828 -0.06632569
000390 9d 47 a3 3e aa b3 a5 3e b0 fb 71 be 84 35 25 3f
       0.31890574 0.32363635 -0.23631167 0.64534783
0003a0 13 05 d6 3e 15 c1 34 be 57 07 24 be b4 b1 24 3e
       0.41800746 -0.1765178 -0.16018425 0.16083413
0003b0 00 d9 b3 3e 19 14 c0 3e 0e 7d 69 bd 27 4d 90 be
       0.35126495 0.37515333 -0.057004027 -0.28183863
0003c0 e3 4b 58 be f7 9b 7b 3e 3b c1 ef bc f9 4d f2 3e
       -0.21122698 0.24571215 -0.029266944 0.47325113
0003d0 20 be 11 3f 07 18 2b be 55 8e 56 be a3 c3 95 3e
       0.5693073 -0.16708384 -0.20952733 0.2925082
0003e0 9d 0f 7b be bf ac 3c 3d e6 82 c5 3e cc 9e 78 be
       -0.24517675 0.04606318 0.3857643 -0.24279326
0003f0 5d be e9 3a fe 38 9a 3d bc 95 25 3e c2 8d 2d bf
       0.0017833222 0.07530402 0.161704 -0.6779443

fc3.bias f4 [2]
000000 cd ef 8a bd b1 00 19 bd
       -0.067840196 -0.037354175

bn1.weight f4 [128]
000000 e8 d8 82 3e d3 da 1d 3f 1f c3 74 3f 43 65 5f 3f
       0.2555611 0.61662024 0.9561023 0.8726389
000010 ef 76 4c 3f 11 df 85 3f 18 13 73 3f 1c 2f cf 3e
       0.7986898 1.04587 0.9495101 0.4046563
000020 b8 14 6e 3f bf 91 ac 3e 85 92 eb 3e 2a 70 c7 3e
       0.93000364 0.33704945 0.46010223 0.38952762
000030 4f 5d 57 3f 6d eb 98 3f c7 3d 8f 3f c3 93 aa 3e
       0.8412675 1.1946846 1.1190728 0.33315858
000040 a2 e3 4c 3f 6a 2e 7e 3f 54 98 8a 3f c6 20 c2 3e
       0.8003484 0.9928957 1.0827737 0.3791563
000050 2f 94 8e 3f 8c 8d 62 3f a6 60 1b 3f 76 aa e2 3e
       1.1138972 0.88497233 0.6069435 0.44270676
000060 de d7 34 3f f6 b8 2c 3f ad 1d 84 3f ff 38 48 3f
       0.7064189 0.6746973 1.0321556 0.7821197
000070 9e 2b df 3e de e1 3a 3f eb 8b dc 3e a2 a9 63 3f
       0.43587965 0.73000896 0.430755 0.88930714
000080 36 f3 50 3f bd af ca 3e 68 70 48 3f 46 1c 90 3f
       0.8162111 0.39587203 0.7829652 1.1258628
000090 11 1e 5b 3f 77 57 36 3f e8 20 d6 3e 96 4d 7d 3f
       0.8559275 0.7122721 0.4182198 0.9894651
0000a0 04 2f c5 3e 59 53 42 3f 21 45 40 3f 54 fd 1c 3f
       0.38512433 0.7590843 0.7510548 0.6132405
0000b0 97 70 3a 3f b4 0d f0 3e 8c 77 c9 3e 5e 20 4a 3f
       0.7282805 0.46885455 0.3934902 0.7895564
0000c0 cb db 96 3f 41 86 74 3f e6 97 35 3f aa d5 a0 3f
       1.1785825 0.95517355 0.70934904 1.2565205
0000d0 ef b6 6d 3f a3 96 ed 3e ce 84 94 3f 5f c4 57 3f
       0.9285726 0.4640399 1.1603029 0.84284014
0000e0 8d fe e0 3e 7b 43 6f 3f cf 06 07 3f 2c 65 0c 3f
       0.43944207 0.9346234 0.52744764 0.54841876
0000f0 e6 71 90 3f d7 1b 77 3f 1f 47 24 3f 01 7d 89 3f
       1.1284759 0.96526855 0.6417102 1.0741273
000100 93 10 ea 3e 39 5e f7 3e 23 b6 f2 3e 57 7b 19 3f
       0.4571577 0.48314074 0.47404584 0.59953827
000110 4b d4 85 3f 29 4a 3c 3f 3a 4a 79 3f 9b 1a ee 3e
       1.0455412 0.7355066 0.97378886 0.46504673
000120 6c 81 cf 3e 20 00 ec 3e 2d e3 e4 3e fe fd 6c 3f
       0.4052843 0.46093845 0.4470457 0.9257506
000130 2c 18 23 3f 21 34 9d 3f d9 8f 1d 3f 0c a4 47 3f
       0.6370876 1.2281533 0.6154762 0.7798469
000140 59 bc 1b 3f d1 48 3e 3f 0f e9 7d 3e 7a 4c 86 3f
       0.6083427 0.7432986 0.24795936 1.0492089
000150 49 e7 f6 3e a6 7d 16 3f 89 29 f5 3e 1e 23 3f 3f
       0.48223332 0.58785474 0.4788325 0.7466296
000160 f5 c3 4e 3f fd 63 66 3f d9 35 06 3f bc b6 c8 3e
       0.80767757 0.8999632 0.52425915 0.39201915
000170 a1 be 4c 3f ad 2d 12 3f 2d 06 12 3f af 5e f8 3e
       0.79978377 0.57100946 0.57040673 0.48509738
000180 7f a5 28 3f a2 25 9d be de a1 76 3f e2 62 e0 3e
       0.65877527 -0.30692774 0.9634074 0.43825442
000190 e0 e0 47 3f f2 7e 5b 3f a6 9e 3a 3f 13 39 80 3f
       0.78077507 0.8574058 0.7289833 1.0017418
0001a0 5f 5b 2f 3f af f2 b2 3e b0 49 da 3e 1d 03 84 3f
       0.68498796 0.34950778 0.42634344 1.031345
0001b0 1f f4 5a 3e 86 81 4f 3f 2d 64 7a 3e e5 ba 58 3f
       0.21382187 0.8105701 0.24452277 0.8466018
0001c0 ff c4 52 3f 44 ec 73 3f 5e 3f 29 3f 78 22 42 3f
       0.8233184 0.9528239 0.66112316 0.75833845
0001d0 f0 1a 2d 3f 2f fb 4e 3f bd e1 18 3f 0c e0 45 3f
       0.6761923 0.80852026 0.5971945 0.77294993
0001e0 44 e8 3f 3f 38 bf 49 3f 5a d1 85 3f c2 be 6f 3f
       0.74963784 0.788074 1.0454514 0.9365045
0001f0 ed 14 9b 3f 58 ca 2b 3f f5 8b 8b 3f bd 84 90 3f
       1.2115761 0.6710563 1.0902086 1.1290509

bn1.bias f4 [128]
000000 01 57 ac 3d b2 3b 16 be d1 17 7d 3b a7 87 2d 3d
       0.08415032 -0.1467121 0.0038618932 0.042365696
000010 94 1e c5 bc 58 58 82 be bc 56 be bd da 5f 77 bd
       -0.024062432 -0.25458026 -0.09293887 -0.060394146
000020 12 47 2a be 62 21 53 3e 26 0a 03 3e 4b 09 b8 bd
       -0.16628674 0.20618203 0.1279684 -0.089861475
000030 c8 f0 11 be 84 4c b4 3d 03 69 16 3e 9b 61 88 bd
       -0.14252007 0.08803657 0.14688496 -0.06659242
000040 80 6f 70 be 4f c7 0e 3e d8 23 d3 3c 02 7c 08 be
       -0.23480034 0.13943218 0.025773928 -0.13328555
000050 74 be 4b be 5e fc 92 bc 9e e0 99 3e 40 03 fb bd
       -0.19896871 -0.017942604 0.30054182 -0.12256479
000060 0a 3b 54 3e ef ef da ba 75 50 d3 bd 6f eb 0a 3c
       0.20725647 -0.0016703586 -0.1031808 0.008478983
000070 20 2d 3c bc 1f 65 9f bc cf ad 5b 3e 26 da 6b bd
       -0.011485368 -0.019457398 0.21453021 -0.05758109
000080 76 bf 70 bd 25 cb d8 3d 3f 29 91 3c af e7 44 be
       -0.05877634 0.10585622 0.017719863 -0.19229005
000090 7a 56 ac 3c c6 61 4e 3e cd cd 70 be 22 c6 10 be
       0.021037329 0.20154485 -0.23516007 -0.14138082
0000a0 27 5a ba b9 99 20 cf 3d 3c 21 70 be d1 c4 e8 bd
       -0.00035543853 0.101136394 -0.23450178 -0.11365665
0000b0 98 0d 91 bd 8e 7b ec b9 f5 1f 0b 3e 51 c9 0a be
       -0.07082671 -0.00045105483 0.1358641 -0.13553359
0000c0 d4 c4 a7 3d e9 0b bf bd ed 44 f4 bc 8f e4 1d be
       0.08191839 -0.093284436 -0.029818023 -0.1541922
0000d0 ec fc 77 3d 22 c2 a3 3d f7 f8 a6 bd 30 0b 80 be
       0.06054394 0.07996012 -0.08152955 -0.25008535
0000e0 ea 13 53 be 49 6f 5f bd 37 84 c5 3c f7 83 45 be
       -0.20613065 -0.05454949 0.024110897 -0.19288622
0000f0 32 53 09 3d d0 c6 2e bd 2a dd 0e bd b2 1a 0f 3d
       0.033526607 -0.04267007 -0.034878887 0.034937568
000100 19 35 0e 3e 58 19 46 be d3 c7 dc 3d c0 a2 38 3c
       0.13887443 -0.19345605 0.10780301 0.011269271
000110 a0 4a c5 bc 40 62 54 3e a0 f1 0f be 56 6a 2c 3d
       -0.024083436 0.20740604 -0.14057016 0.042093597
000120 bd 47 6f 3c 79 08 82 be e6 ed ee bc e9 1b dd bd
       0.014604506 -0.2539709 -0.029166173 -0.10796339
000130 b0 83 8c bd 92 d5 32 bd 9a d7 6d bd 4d ab f9 bd
       -0.06861055 -0.043660708 -0.05806694 -0.12190876
000140 1f 42 c2 bc 06 da 38 be 8c d6 09 be b1 35 1c 3e
       -0.02371317 -0.1805192 -0.1346075 0.15254857
000150 96 b6 c1 bc 59 64 53 bc 24 a4 4d be 8c bf 6e 3e
       -0.023646634 -0.012902343 -0.20082146 0.23315257
000160 33 b1 4a bd 4d 81 e8 3c d0 21 99 3d 80 14 5c 3e
       -0.049485397 0.028381968 0.07477152 0.21492195
000170 17 f5 26 be e1 8b 68 be 08 f5 22 be db a4 94 3b
       -0.16304432 -0.2270961 -0.15913785 0.004536254
000180 f2 c6 ce bd 58 11 e2 3d d4 83 6d 3d 78 c3 c1 3d
       -0.100965396 0.11038464 0.05798705 0.09461111
000190 88 74 9c bb 54 ea 41 be 90 cd 6e bd 9a a6 41 3d
       -0.004774634 -0.18937045 -0.05830151 0.047278024
0001a0 d0 6b 48 be 8f 3b 23 bd 4e d0 66 be 43 f0 10 be
       -0.19572377 -0.03985172 -0.225404 -0.14154153
0001b0 27 d0 22 be ef 94 30 be ce 29 bd bd a3 2d d8 bd
       -0.15899716 -0.17244314 -0.09236489 -0.105555795
0001c0 91 07 bb bd 70 6f 5a 3c db 1e 7d bd 96 a3 1b 3c
       -0.091323026 0.013332233 -0.061797004 0.009499451
0001d0 10 44 4d be 56 91 b3 bd 91 de 3a 3e ff c6 00 be
       -0.20045495 -0.08767955 0.18248965 -0.12575911
0001e0 be 1a b3 bd 3d 4e fc bd ce ea 2f bc b3 9f d7 bd
       -0.08745335 -0.1231961 -0.010737134 -0.10528507
0001f0 d2 4b 81 be 41 69 09 be 67 c8 52 3d 4a 84 a8 bd
       -0.2525316 -0.13419057 0.05146065 -0.08228357

bn1.running_mean f4 [128]
000000 06 2e 3d 3d ac c2 b1 3e 05 e4 7b 3e fd 09 e7 3e
       0.04618647 0.34718835 0.24598701 0.45124808
000010 a7 04 ac 3d 93 ea cb 3e b7 37 3a 3f 0e 6e cc 3f
       0.08399325 0.39827403 0.72741264 1.5971086
000020 72 f9 9e 3d 9e 9e a3 3e 18 02 5d 3f bb 4b 23 40
       0.07762422 0.31956953 0.8633132 2.5514972
000030 40 17 16 40 58 2d 02 3f 18 4a eb 3e d3 b6 a2 3e
       2.345169 0.5085044 0.45954967 0.3178011
000040 46 7e 51 3e 9a c4 15 3e 1f 22 36 3e 96 b9 23 40
       0.20458326 0.14625779 0.17786454 2.5582023
000050 c9 a2 d5 3d 3f 83 81 3f 31 a0 a5 3f 99 12 00 40
       0.104314394 1.0118178 1.2939512 2.001135
000060 85 6d 3f 40 ab c7 b3 3f ea 64 56 3f e5 54 0c 40
       2.9910595 1.4045309 0.8374773 2.1926816
000070 34 83 19 3f e2 3c 14 40 3e b3 fe 3d ab ae d9 3e
       0.59965825 2.316216 0.124365315 0.42516074
000080 19 37 08 40 f6 f8 3d 3f 6a 39 a6 3f e1 15 b3 3f
       2.128363 0.7420801 1.2986271 1.3991052
000090 a4 c6 36 3e ef d1 7e 3c 04 a3 fc 3d 58 15 8b 3d
       0.17849213 0.015552982 0.1233578 0.0679118
0000a0 cf 60 6b 40 3d 81 ca 3e fc 6d a2 3e ba 98 3a 3f
       3.6777837 0.39551726 0.31724536 0.7288929
0000b0 56 25 03 40 a6 25 1a 3e 0c 16 26 3d 24 20 47 3f
       2.0491538 0.15053424 0.04054837 0.7778342
0000c0 35 07 ed 3f 0a c5 ea 3f 34 52 12 40 91 8d cf 3e
       1.8517824 1.8341382 2.2862673 0.40537694
0000d0 7d fe 16 40 0e 4e 53 3e 4f ad 79 3f 7f 64 c3 3f
       2.3592827 0.20635244 0.9753007 1.5265044
0000e0 a1 3e 1b 3f 5d b4 16 3f bb 87 4c 3f a2 7d d5 3e
       0.6064244 0.5886896 0.7989461 0.41697413
0000f0 8e 36 c0 3e 81 13 2e 3f eb 49 4a 40 54 33 db 3f
       0.37541622 0.6799851 3.1607616 1.7125039
000100 82 9e 82 3f 7e 8f be 3e 9b 1e d4 3d 31 ec a6 3f
       1.0204623 0.3721885 0.103574 1.304083
000110 68 6d b0 3e 2e 57 8d 3c 93 3c f2 3f 27 38 bf 3e
       0.3445847 0.017253485 1.8924736 0.37347528
000120 b4 11 0d 3f e0 62 46 3f e1 d0 ca 3f 92 15 5f 3f
       0.5510514 0.7749462 1.5844995 0.8714229
000130 04 00 00 00 cd 16 34 3e 95 90 78 3f de b4 d0 3f
       6e-45 0.17586823 0.97095615 1.6305196
000140 62 d9 14 3e af aa 35 3d 04 00 00 00 a9 12 b6 3f
       0.1453605 0.04435223 6e-45 1.4224445
000150 2a 96 db 3f 90 6d 80 3f 00 04 21 3e cb d4 94 3d
       1.7155201 1.0033436 0.15724182 0.072671495
000160 a3 0b 02 3f 8a 59 a8 3d ef b7 93 3e 67 40 f3 3f
       0.50799006 0.08220203 0.28851268 1.9004029
000170 4c 0d 22 3f d2 a6 d6 3e 5b e6 2e 3e 42 52 d3 3e
       0.6330154 0.4192415 0.17080061 0.41273695
000180 fc 95 3a 40 06 96 65 3f a0 69 89 3d 04 00 00 00
       2.9154043 0.8968204 0.067095995 6e-45
000190 77 83 2d 40 b7 cf 8d 3f 2d fb 97 3f 87 7d ef 3f
       2.711149 1.1079015 1.1873528 1.8710183
0001a0 7d 87 23 3f d9 1b 48 40 25 82 9b 3e 38 30 81 3f
       0.63878614 3.1266997 0.3037273 1.009284
0001b0 04 00 00 00 ad 85 d2 3f ee 12 5b 40 f7 08 a0 3e
       6e-45 1.6447045 3.4230304 0.3125684
0001c0 1a 0a 7b 3f 83 e6 4d 40 72 72 50 3f d5 2c 45 40
       0.9806229 3.2171943 0.8142463 3.0808613
0001d0 04 00 00 00 c3 ef 80 3f 87 81 9c 3e 03 b3 69 3e
       6e-45 1.007317 0.30567572 0.22822194
0001e0 f4 fa c2 3f 04 00 00 00 8c 10 e2 3e 46 4d 11 40
       1.5232835 6e-45 0.4415325 2.2703414
0001f0 6a d7 71 3f 46 23 eb 3f fb 9f cb 3f 5f 40 f9 3d
       0.9446932 1.837014 1.5908197 0.12170481

bn1.running_var f4 [128]
000000 c2 72 32 3d 71 de 05 3f 3b 95 67 3e 66 00 5c 3f
       0.043566473 0.52292544 0.2261552 0.8593811
000010 50 6c 11 3e 38 ad 0e 3f e0 62 31 40 4e c0 7a 40
       0.14201474 0.5573306 2.7716599 3.9179873
000020 33 3e d2 3d 7b 0b 1e 3f bc 4f 12 40 89 6f 50 41
       0.1026577 0.6173627 2.2861166 13.02723
000030 49 42 41 41 e9 6c a7 3f 55 6c 83 3f 16 21 8b 3f
       12.078683 1.3080112 1.0267435 1.0869472
000040 d0 34 73 3e 8b 33 6b 3e 74 fc 52 3e 72 78 00 41
       0.23750615 0.22968881 0.20604116 8.029406
000050 96 67 ba 3d d9 20 39 40 9f 36 20 40 4c e2 83 40
       0.09101789 2.8926299 2.5033338 4.121374
000060 2e 7a 85 41 15 e1 8b 40 6c 1c 7e 3f ac 8c b9 40
       16.684658 4.371226 0.9926212 5.798422
000070 c7 1a d6 3f 16 b1 b2 40 bb b4 57 3e 14 e2 6d 3f
       1.6726922 5.584117 0.21065037 0.9292309
000080 d6 aa a2 40 f2 5d f4 3f bc 16 56 40 88 b5 a1 40
       5.083354 1.909117 3.3451376 5.0534096
000090 58 76 71 3e b5 5a d9 3c 47 03 b3 3d 59 75 36 3d
       0.23580301 0.02653251 0.087408595 0.044545505
0000a0 c5 cf 57 40 3b da 3e 3f c0 3f 03 3f f0 f3 f1 3f
       3.3720562 0.74551743 0.5126915 1.8902569
0000b0 71 b5 c6 40 b9 78 11 3e c8 c7 73 3d 30 d1 de 3f
       6.2096486 0.14206208 0.059516698 1.7407589
0000c0 3c c0 42 40 41 2c 50 40 b2 30 09 41 4f d6 53 3f
       3.042983 3.252701 8.5743885 0.82748884
0000d0 6b 06 8e 40 dc 1b f9 3e 83 c2 85 3f ca b6 9d 40
       4.4382834 0.48654068 1.0449985 4.928563
0000e0 39 fd f9 3f 15 45 43 3f e2 1a 0e 40 a0 c6 7f 3f
       1.9530402 0.76277286 2.2203908 0.9991245
0000f0 a7 66 22 3f 1d fa ff 3f a6 a6 99 40 5b 5b 82 40
       0.63437885 1.9998204 4.801593 4.073652
000100 b9 e4 55 40 a7 7e 75 3f 4c f3 e3 3d 1c d6 75 40
       3.3420851 0.9589638 0.111303896 3.8411932
000110 a5 e3 05 3f 89 96 eb 3c b7 a5 d4 40 cf 69 41 3f
       0.52300483 0.028758304 6.645229 0.75552076
000120 04 2d ad 3f e7 c1 b6 3f 2f 14 b8 40 c4 63 b1 3f
       1.3529363 1.4277924 5.752464 1.3858571
000130 04 00 00 00 10 29 fd 3d e7 62 bb 3f d9 30 af 40
       6e-45 0.12361348 1.4639558 5.474713
000140 9f 38 40 3e e8 d3 29 3d 04 00 00 00 09 f1 96 40
       0.18771599 0.041461855 6e-45 4.716923
000150 c9 c9 8e 40 c0 71 09 40 06 f9 81 3e 27 1b c3 3d
       4.462132 2.1475677 0.25385302 0.09526663
000160 ea d5 29 3f c1 9d f0 3d 5b f0 13 3f 38 fe e6 40
       0.6634203 0.11748839 0.5778863 7.2185326
000170 10 56 a9 3f af 93 4a 3f 8f f9 60 3e 8d b2 75 3f
       1.3229389 0.791316 0.21970199 0.9597557
000180 a4 84 dd 3f dc 50 29 40 3c 7f eb 3d 04 00 00 00
       1.7306104 2.6455603 0.114988774 6e-45
000190 1d 5d ca 40 6b 9b 54 40 32 c6 18 40 60 57 6b 40
       6.3238664 3.321986 2.387097 3.677208
0001a0 53 a4 dd 3f 0b 11 f7 40 cd d9 01 3f 48 ed d0 3f
       1.7315773 7.7208304 0.5072296 1.6322412
0001b0 04 00 00 00 e8 a9 01 40 09 29 fc 40 fb 04 33 3f
       6e-45 2.0259953 7.880009 0.69929475
0001c0 4f 53 28 40 f5 81 69 40 1e 74 3e 40 c2 76 42 40
       2.6300848 3.648557 2.9758372 3.0384984
0001d0 04 00 00 00 56 1a f1 3f 90 5b 2a 3f 66 33 88 3e
       6e-45 1.8836162 0.66545963 0.26601714
0001e0 91 74 00 40 04 00 00 00 4c 43 ab 3f eb e4 34 40
       2.0071146 6e-45 1.3379912 2.826472
0001f0 5d 9c 96 3f bb 04 7b 40 d5 61 b6 40 a7 04 35 3e
       1.1766468 3.9221637 5.6994424 0.17677556
