3. Multi-Agent Reinforcement Learning/collaboration-competition/agent_0_critic_checkpoint.pth (torch_old, 83992 bytes, 9 tensors)

fcs1.weight f4 [128, 24]
0	0xbc89dc6f	-0.016828744
1	0x3de8d16f	0.11368071
2	0xbaf3ba2a	-0.001859491
3	0x3cea9706	0.028636467
4	0xbe44c24d	-0.19214745
5	0xbd8675e8	-0.065654576
6	0x3c900753	0.017581617
7	0xbd9e56ed	-0.077314235
8	0x3dbb3a88	0.09142023
9	0x3d8c62cd	0.06854782
10	0x3d8671eb	0.06564697
11	0xbd400397	-0.046878424
12	0xbdbcc9ed	-0.09218202
13	0x3d737048	0.05943325
14	0x3d9c6195	0.076358
15	0xbd6167a7	-0.05503049
16	0x3e0a84c4	0.13527209
17	0x3dabf27b	0.08395859
18	0x3c67784f	0.014127805
19	0x3cadd79d	0.021220976
20	0x3d958606	0.073009536
21	0xbdb0c2de	-0.08630918
22	0x3c4bd79d	0.012441543
23	0x3bdf1022	0.006807343
24	0xbc84688f	-0.016163139
25	0xbde5bab8	-0.112172544
26	0x3d25360f	0.040334757
27	0xbc8ae048	-0.016952649
28	0x3e43dce7	0.19127236
29	0x3dd6f320	0.10495591
30	0xbd26a347	-0.040683057
31	0x3ca65da4	0.020308323
32	0x3bd25d57	0.0064198184
33	0x3d046e15	0.032331545
34	0x3d4e6ce2	0.050396807
35	0x3d6b8143	0.05749632
36	0x3d37f083	0.044907104
37	0x3d822340	0.0635438
38	0xbd5d9b38	-0.054103106
39	0xbd919895	-0.07109181
40	0x3d2bd374	0.041949704
41	0x3cd64057	0.026153727
42	0xbc29fbd9	-0.010374987
43	0x3c45e57c	0.012078639
44	0xbe8564cd	-0.26053467
45	0xbdf6a87c	-0.120438546
46	0x3c14b569	0.009076455
47	0xbca8a46f	-0.02058622
48	0x3ca1511b	0.019691994
49	0x3de6c755	0.11268488
50	0x3d655857	0.05599245
51	0x3b492849	0.0030694178
52	0xbc381c08	-0.011237152
53	0xbe346783	-0.17617612
54	0xbd1a73e3	-0.037708174
55	0x3e0043fa	0.12525931
56	0xbc0bb317	-0.008526585
57	0x3d98cfc3	0.074615024
58	0xbbd0bb8c	-0.0063700136
59	0x3dc9feec	0.098630756
60	0xbb2ce779	-0.0026383086
61	0xbe540a8e	-0.20707151
62	0x3d72d7d0	0.059287846
63	0xbc923bdd	-0.01785081
64	0x3e100204	0.14063269
65	0x3dc43e81	0.09582234
66	0x3d9c54ed	0.07633386
67	0xbdf85348	-0.1212526
68	0xbde417f7	-0.111373834
69	0xbe84bc2f	-0.25924823
70	0xbd7b2c63	-0.061321627
71	0xbdf4963c	-0.119427174
72	0x3d223ddf	0.039609786
73	0x3df86fee	0.12130724
74	0xbd0e310d	-0.034714747
75	0xbd8f9968	-0.07011682
76	0xbe14a046	-0.14514264
77	0xbdacc2e3	-0.08435609
78	0x3cc2d615	0.023783723
79	0x3bd6201c	0.0065345895
80	0x3c99cb7f	0.018773792
81	0x3e09d0dd	0.13458581
82	0xbc4cc5a9	-0.012498298
83	0xbd8ec661	-0.069714315
84	0xbd465cdc	-0.0484284
85	0xbe36fded	-0.17870302
86	0xbcc7277f	-0.024310825
87	0xbda8093b	-0.082048856
88	0x3d4aa0e8	0.04946986
89	0x3c7d513d	0.015461263
90	0x3d5b6972	0.053567357
91	0xbdb8a13f	-0.0901513
92	0xbe3942c8	-0.18091881
93	0xbe94dfd1	-0.29077008
94	0xbd15ab38	-0.03654024
95	0xbd171dd2	-0.036893673
96	0x3d3fd472	0.046833463
97	0x3cf5a420	0.029985487
98	0x3c9118c2	0.017712
99	0x3dd98575	0.10621158
100	0x3b61dccb	0.0034463878
101	0x3e3a59b1	0.18198277
102	0x3df84e13	0.121242665
103	0x3e13e2ea	0.1444203
104	0xbcf21e22	-0.029555384
105	0xbd325bce	-0.043544583
106	0x3d1f350b	0.038868945
107	0xbd922973	-0.07136812
108	0x3d0207ce	0.031745724
109	0x3da1c6b6	0.07899229
110	0xbb014cac	-0.0019729538
111	0x3cbe432a	0.023225386
112	0x3adb1c95	0.0016716892
113	0xbcb787a4	-0.022403546
114	0x3c0b0d14	0.008487005
115	0xbded6470	-0.115914226
116	0xbe148252	-0.14502838
117	0xbcc754bd	-0.024332399
118	0x3d9c82db	0.07642146
119	0x3cb96a6c	0.022633754
120	0x3db667b8	0.089065015
121	0x3d06d7fc	0.032920823
122	0x3d8996fe	0.067182526
123	0xbd1119ec	-0.03542511
124	0xbcf102d4	-0.029420294
125	0x3ced80fc	0.028992169
126	0xbd8fccf8	-0.070215166
127	0x3ba4ec84	0.0050330777
128	0x3dc9d72d	0.09855495
129	0x3d000a6e	0.031259947
130	0xbd0fe37b	-0.03512905
131	0xbc70220e	-0.014656557
132	0xbcde9bd4	-0.027173914
133	0x3e278316	0.16358599
134	0x3d1ad695	0.037802298
135	0xbd2842ca	-0.04107932
136	0x3db83b72	0.08995713
137	0x3d8d5328	0.069006264
138	0xbd8d58fe	-0.069017395
139	0x3de7fa89	0.11327083
140	0xbe155d9b	-0.14586489
141	0x3eb89c77	0.36056873
142	0x3db06ed6	0.0861489
143	0x3de82577	0.11335271
144	0xbde318d5	-0.11088721
145	0x3c03752b	0.0080235405
146	0x3d0bcff6	0.034133874
147	0x3d661593	0.05617292
148	0x39c5331a	0.00037612842
149	0x3d91be29	0.07116348
150	0xbd39a932	-0.045327373
151	0x3d01aa1d	0.031656373
152	0xbb83fac0	-0.0040276945
153	0x3e197a27	0.14988004
154	0xbd7e3398	-0.062060922
155	0x3cc5606a	0.024093825
156	0x3dfae883	0.12251379
157	0xbc3df227	-0.011593378
158	0x3cec6163	0.028855031
159	0x3db179ad	0.08665786
160	0x3d87c415	0.066291966
161	0x3e24d883	0.16098218
162	0xbd60f20a	-0.054918326
163	0xbcc3d73f	-0.023906348
164	0x3e799b29	0.24375595
165	0xbe17c210	-0.14820123
166	0x3c095772	0.008382665
167	0x3d84cfc2	0.06484939
168	0xbdd05522	-0.10172488
169	0x3c000a0b	0.007814894
170	0xbdcacbce	-0.09902154
171	0xbdab76f4	-0.08372298
172	0x3d2dfd6e	0.042478018
173	0xbd8cd4b5	-0.06876508
174	0x3b542c42	0.0032375013
175	0xbddae44a	-0.10688074
176	0xbd05ded7	-0.03268322
177	0xbcd4b882	-0.025966886
178	0xbc28c50f	-0.010300889
179	0xbce55e68	-0.027999118
180	0xbd3552cc	-0.044268414
181	0xbb7d3103	-0.003863395
182	0x3cbb6eec	0.02288004
183	0xbc4b9620	-0.012425929
184	0x3bab8d93	0.005235383
185	0xbda6fcbb	-0.08153673
186	0x3d0f952a	0.035054363
187	0xbe18eafc	-0.1493339
188	0x3af978bc	0.0019033174
189	0xbe8121e0	-0.25221157
190	0xba86e35b	-0.0010291146
191	0xbe444bec	-0.19169587
192	0x3ccda62d	0.025103653
193	0x3d261ab6	0.040552817
194	0xbdb5150d	-0.08841906
195	0xbd4f5a2c	-0.050623104
196	0x3d45c691	0.04828507
197	0x3de7b469	0.113137074
198	0x3d079692	0.03310258
199	0x3c8c7846	0.017147195
200	0xbd88ad1e	-0.066736445
201	0x3dfdde55	0.12395922
202	0xbdc8829c	-0.09790537
203	0xbc73a91c	-0.014871862
204	0x3d92a8db	0.07161113
205	0x3de7c56e	0.113169536
206	0xbdbab9fe	-0.091175064
207	0xbb64dfc1	-0.0034923407
208	0xbb97e63b	-0.0046356
209	0x3cd60b51	0.026128443
210	0xbcc0aa30	-0.023518652
211	0x3e135868	0.14389193
212	0x3e0aeb7d	0.13566394
213	0x3e030ee3	0.12798648
214	0xbcd5d682	-0.026103262
215	0x3e4906be	0.19631478
216	0x3d1cd276	0.03828665
217	0x3e3bffbc	0.18359274
218	0x3d409404	0.04701616
219	0x3c7333cc	0.014843892
220	0x3beb037d	0.0071720467
221	0x3dc97a5d	0.09837792
222	0xbd5669e2	-0.05234707
223	0xbce2fa34	-0.027707197
224	0x3e15fd61	0.14647438
225	0x3e25e617	0.16201054
226	0x3d00fe81	0.031492714
227	0x3c919178	0.01776956
228	0xbdd65745	-0.10465864
229	0xbe175b31	-0.1478088
230	0xbcc8d92c	-0.024517618
231	0x3c0d02f6	0.008606663
232	0x3d91023a	0.07080503
233	0x3d1b38e5	0.037896056
234	0x3d845256	0.06461017
235	0xbcbb8a2e	-0.022893038
236	0xbe1957e1	-0.1497493
237	0xbe94be8f	-0.29051635
238	0xbd6aec87	-0.057354476
239	0x3da2c1ce	0.079471216
240	0xbc3d3e2c	-0.011550467
241	0xbe0119c4	-0.12607485
242	0xbd570ab0	-0.052500427
243	0x3bd31113	0.0064412444
244	0xbeced8d1	-0.40399793
245	0xbe02c50d	-0.12770481
246	0x3d568552	0.052373238
247	0xbcc18cde	-0.023626741
248	0xbd785759	-0.060630176
249	0x3d60b978	0.054864377
250	0xbcfd6965	-0.030934045
251	0x3da8c3ee	0.082404956
252	0xbf14abff	-0.58074945
253	0x3cc37128	0.023857668
254	0x3ce2b5a1	0.027674498
255	0xbdb648d8	-0.089006126

fcs1.bias f4 [128]
0	0xbca535df	-0.02016729
1	0x3da09d35	0.07842485
2	0xbcfdaef2	-0.03096721
3	0xbe7ffeb8	-0.24999511
4	0x3d278b86	0.040904544
5	0xbe7d2ae5	-0.24723394
6	0xbe29a943	-0.16568474
7	0xbe0b8c18	-0.1362766
8	0xbe064dd3	-0.13115625
9	0x3e0d5598	0.13802183
10	0xbdb29cb7	-0.08721297
11	0xbe7af9b7	-0.24509321
12	0xbe2b9f64	-0.16760021
13	0xbdcca68f	-0.09992706
14	0xbd9954ab	-0.07486852
15	0x3e88e9a6	0.2674076
16	0xbe0a786a	-0.13522497
17	0x3dcbe6b4	0.099561125
18	0xbdb30403	-0.087409995
19	0xbeb35938	-0.35029006
20	0xbdfbac8a	-0.122887686
21	0xbe2b4db6	-0.16728863
22	0xbe4f18b9	-0.20224275
23	0x3d87798e	0.066149816
24	0x3e47eb9e	0.19523475
25	0xbe2ce2ad	-0.16883345
26	0x3e83922c	0.25697458
27	0xbea8ddf8	-0.3298185
28	0xbe2d1426	-0.16902217
29	0xbcd3a0ac	-0.02583345
30	0xbe9c8f03	-0.3057786
31	0xbe90c84c	-0.28277814
32	0xbd0e2194	-0.03469999
33	0x3cb8cc20	0.022558272
34	0xbe3f2756	-0.18667349
35	0xbda7146c	-0.08158192
36	0xbdfc2aa1	-0.12312818
37	0xbe0032cc	-0.12519377
38	0x3e3c2d22	0.18376592
39	0xbd1c2624	-0.03812231
40	0x3e028891	0.12747408
41	0xbdc07fe5	-0.09399394
42	0xbd60751c	-0.054799184
43	0x3e4209f0	0.18949103
44	0xbe624056	-0.22094855
45	0x3d0ebc2d	0.034847427
46	0x3d397cef	0.04528516
47	0x3c994256	0.01870839
48	0x3df66c6e	0.120324
49	0x3e77e888	0.24209797
50	0xbc60dc14	-0.013724346
51	0xbf0f23cc	-0.55913997
52	0x3b09aa4b	0.0021006044
53	0xbdabdb52	-0.083914414
54	0x3e00d082	0.1257954
55	0xbdf91122	-0.12161471
56	0x3dcc0017	0.09960955
57	0x3d3cd6d9	0.046103332
58	0xbe32d13f	-0.17462634
59	0xbe5e2d84	-0.2169705
60	0x3dd79fa3	0.10528495
61	0xbe03514c	-0.12823981
62	0xbd0d9dac	-0.034574196
63	0xbe18b26d	-0.14911814
64	0xbe5ede6f	-0.21764539
65	0xbebaa5d7	-0.3645465
66	0xbdec2f66	-0.11532478
67	0xbde59547	-0.11210113
68	0x3d4aca86	0.049509548
69	0xbdd133b0	-0.10214937
70	0x3e3bacf5	0.18327697
71	0xbdcdb0e8	-0.10043508
72	0xbc1c10cc	-0.009525489
73	0xbdaeb472	-0.08530511
74	0xbe7409fc	-0.23831934
75	0x3d93bcb7	0.07213729
76	0x3de496c6	0.1116157
77	0xbd8f5ab3	-0.069997214
78	0xbe6295bf	-0.22127436
79	0xbda5a12b	-0.08087381
80	0x3c26d75a	0.01018318
81	0xbd296097	-0.04135188
82	0xbe86d7b7	-0.26336452
83	0x3ea639e6	0.32466048
84	0xbe73389a	-0.2375206
85	0xbda86ab1	-0.08223475
86	0x3da0a7a5	0.07844476
87	0x3e27b462	0.16377404
88	0x3d153e37	0.036436286
89	0xbe8e10e0	-0.2774725
90	0xbe5eae23	-0.21746115
91	0xbe421f5f	-0.1895728
92	0xbda45b1e	-0.08025192
93	0xbe1b9992	-0.15195301
94	0x3bb38d8e	0.005479521
95	0xbe5ff3e4	-0.2187038
96	0x3de8cb52	0.11366905
97	0xbe8ed48e	-0.2789654
98	0xbdbe9de6	-0.093074605
99	0x3dd0bdb9	0.10192437
100	0xbd8f31ed	-0.069919445
101	0xbec47d81	-0.38377002
102	0x3d2a876c	0.041633055
103	0x3d0dec16	0.034648977
104	0x3ddb1d30	0.106989264
105	0xbd85807d	-0.06518648
106	0x3d078628	0.033086926
107	0xbd3902e2	-0.045168765
108	0x3cb6a99b	0.022297671
109	0xbe61f667	-0.22066651
110	0xbd3773ea	-0.04478828
111	0xbcda89a6	-0.026676964
112	0x3d635649	0.05550221
113	0x3e56ad5b	0.20964567
114	0xbd3b5b2e	-0.045741253
115	0xbdcade93	-0.09905734
116	0xbdf02ba8	-0.11727077
117	0xbba5b519	-0.005056989
118	0xbdc3cfab	-0.09561094
119	0xbb6b139c	-0.0035869842
120	0x3e065bab	0.13120906
121	0xbd6b0147	-0.057374265
122	0xbe16f8a1	-0.14743282
123	0x3e264e03	0.16240697
124	0x3d331504	0.043721214
125	0xbcee91bb	-0.029122224
126	0xbe01d137	-0.12677465
127	0xbdc8f7e4	-0.098129064

fc2.weight f4 [128, 130]
0	0x3cbd9b46	0.02314533
1	0x3d67972c	0.056540653
2	0xbd7738f6	-0.060357057
3	0x3d3b7438	0.04576513
4	0x3d06d53f	0.03291821
5	0xbd1b0fb5	-0.037856776
6	0x3bf7d179	0.007562813
7	0x3e03638a	0.1283094
8	0xbaed5eb8	-0.0018109893
9	0xbe99a96d	-0.30012074
10	0xbd4c7d9d	-0.04992448
11	0xbd872b35	-0.06600038
12	0xbbe0381f	-0.0068426277
13	0x3d0c6aa6	0.034281395
14	0x3d8e7d0e	0.06957446
15	0xbdb328cd	-0.087480165
16	0x3c90228a	0.017594595
17	0xbe127fa3	-0.14306502
18	0xbd006c99	-0.031353567
19	0xbccf416c	-0.02529975
20	0xbc5d7496	-0.013516566
21	0xbd4a0a78	-0.04932639
22	0x3d13f6c9	0.036124025
23	0x3d626471	0.05527157
24	0xbd63ff91	-0.05566365
25	0x3bb56e63	0.0055368408
26	0xbda423d4	-0.08014646
27	0x3d89148d	0.06693373
28	0x3d2724c2	0.04080654
29	0x3cec1ee3	0.028823322
30	0x3ceb1ecc	0.028701209
31	0x3dab357c	0.08359811
32	0xbdc573ab	-0.096412025
33	0xbd0ef4aa	-0.0349013
34	0xbca5b2ca	-0.020226855
35	0xbc872446	-0.016496789
36	0x3a02b998	0.0004986762
37	0xbd353159	-0.044236515
38	0x3d778037	0.06042501
39	0x3d8e2e6e	0.069424495
40	0xbdb6d74f	-0.089277856
41	0xbc7fd018	-0.015613578
42	0x3caaf8f5	0.020870665
43	0xbd436093	-0.047699522
44	0x3aa73675	0.0012757318
45	0xba986002	-0.0011625292
46	0x3b8408be	0.0040293625
47	0x3b9ae73c	0.0047272723
48	0xbe273b3e	-0.16331193
49	0x3bad3608	0.005285982
50	0x3d14f355	0.036364872
51	0xbdb1e7ee	-0.08686815
52	0x3d55ea37	0.052225318
53	0x3db6030c	0.088873
54	0x3be0ae52	0.006856718
55	0xbd4584d3	-0.048222374
56	0xbd073423	-0.033008706
57	0xbe03d670	-0.1287477
58	0xbcc8d99c	-0.024517827
59	0x3c5bfa89	0.013426431
60	0xbc3a244a	-0.011361191
61	0x3cdad254	0.02671162
62	0x3c960fee	0.018318143
63	0x3db68fbb	0.08914133
64	0xbb6ece12	-0.0036438745
65	0xbc71637e	-0.014733193
66	0xbc2dbd99	-0.010604286
67	0x3d282cef	0.041058477
68	0xbda61ac8	-0.08110577
69	0xbe304dc3	-0.17217164
70	0xbd1a2a9d	-0.037638295
71	0xbdfd7ade	-0.12376951
72	0xbbd5364b	-0.0065067164
73	0x3db1b347	0.086767726
74	0x3e0bf4bb	0.13667576
75	0xbbd664b5	-0.006542767
76	0xbcadcd51	-0.021216067
77	0x3cbf16bc	0.02332627
78	0xbc8cb9e8	-0.01717849
79	0xbc9fc582	-0.019503359
80	0x3cdb01ff	0.02673435
81	0x3ca50f73	0.020148968
82	0xbd8a0016	-0.06738298
83	0xbd78cffc	-0.060745224
84	0x3cf84528	0.030306414
85	0x3e10b880	0.14132881
86	0xbcd8bf57	-0.026458425
87	0x3dd0270a	0.10163696
88	0xbd0a2c27	-0.033733513
89	0x3d1c432e	0.038150005
90	0xbd63c9fd	-0.055612553
91	0x3e08665f	0.13320301
92	0x3b384a8c	0.0028120605
93	0x3d408b75	0.047007997
94	0xbda86720	-0.082227945
95	0xbd9f92e4	-0.07791689
96	0x3c0f0385	0.008728866
97	0xbbbbfc85	-0.00573689
98	0x3dca3baf	0.09874665
99	0x3d3978e5	0.04528131
100	0xbc80d922	-0.015728537
101	0xbdaf18fd	-0.08549688
102	0xbc721756	-0.0147760715
103	0x3d70a1d6	0.05874809
104	0xbdc00742	-0.09376384
105	0xbc74d270	-0.01494275
106	0xbbd1ea45	-0.006406101
107	0xbd87a362	-0.0662296
108	0xbc97bb8a	-0.018522043
109	0x3d293e8f	0.041319426
110	0x3c8cfb5c	0.017209701
111	0xbd5ec7c7	-0.05438974
112	0xbef82ece	-0.4847321
113	0xbcfc8eeb	-0.030829867
114	0xbce47aec	-0.027890645
115	0x3d1d0818	0.038337797
116	0x3cf6ed02	0.030142311
117	0x3d2e7124	0.042588368
118	0xbc80b0df	-0.015709339
119	0x3baabc9a	0.0052104713
120	0x3c6c3c62	0.014418693
121	0x3cdc0946	0.02685989
122	0xbd8f23f7	-0.069892816
123	0xbe1121b4	-0.14173013
124	0x3d193e21	0.037412766
125	0x3c911bc1	0.01771343
126	0xbe09f324	-0.13471657
127	0x3dbeef7f	0.09323024
128	0x3e495da3	0.19664626
129	0x3cf560fb	0.02995347
130	0x3c2b077d	0.010438797
131	0x3c7a982d	0.015295071
132	0x3da274fd	0.0793247
133	0xbda8a59e	-0.08234714
134	0xbdf0d07c	-0.11758515
135	0x3bcec319	0.0063098785
136	0xbd5ce611	-0.053930346
137	0x3c80df46	0.015731465
138	0x3d296a0c	0.0413609
139	0xbc488a88	-0.01224006
140	0x3d6f6222	0.058443196
141	0x3d56d3b4	0.05244799
142	0x3c96bc46	0.018400323
143	0xbd85cbd1	-0.065330155
144	0x3db15361	0.086584814
145	0xbcef7460	-0.029230297
146	0x3cad43fe	0.021150585
147	0xbc0894aa	-0.0083362255
148	0xbda246af	-0.07923638
149	0xbdc721fb	-0.09723278
150	0x3c70073c	0.014650162
151	0xbc81164f	-0.015757708
152	0xbcf0f24c	-0.029412411
153	0x3d5d97d7	0.054099884
154	0x3c140c07	0.009036071
155	0x3d972ffd	0.073822
156	0x3c1e3dbc	0.009658273
157	0xbdda98c6	-0.106736705
158	0x3cfdbd97	0.030974193
159	0xbd04e737	-0.032447066
160	0xbdef019e	-0.1167023
161	0xbe92ff5a	-0.28710443
162	0x3c3c59b8	0.011496
163	0xbdee08ac	-0.11622748
164	0x3d6b2738	0.05741045
165	0x3dc4c3c4	0.09607652
166	0x3d939520	0.07206178
167	0x3dd8ee60	0.105923414
168	0xbd9ed7bc	-0.07755992
169	0xbc869644	-0.016429074
170	0xbde541e8	-0.11194211
171	0xbd519f9c	-0.051177606
172	0xbe31e7e2	-0.17373613
173	0xbdd7642e	-0.10517155
174	0xbc561ad1	-0.013067917
175	0x3d5d77b0	0.05406922
176	0x3b84b016	0.0040493114
177	0xbda8f10e	-0.082491025
178	0xbbed6f3c	-0.007245926
179	0xbd89213d	-0.06695793
180	0xbd91fd24	-0.07128361
181	0x3db4cbe7	0.08827954
182	0xbe0b2848	-0.13589585
183	0x3b8f58b1	0.0043745865
184	0x3d106204	0.035249725
185	0xbd82d5f4	-0.063884646
186	0xbd8c7a8e	-0.06859313
187	0xbd38e227	-0.04513755
188	0xbd82ea77	-0.06392377
189	0xbcf79b36	-0.030225378
190	0xbc03930c	-0.008030664
191	0xbd8e0270	-0.06934059
192	0xbb0d3e63	-0.0021552078
193	0xbdcb6557	-0.099314384
194	0x3d921384	0.071326286
195	0xbdc01fff	-0.09381103
196	0xbda990e6	-0.0827959
197	0xbd4c225e	-0.049837463
198	0xbd8ce703	-0.068799995
199	0xbdaeb285	-0.08530144
200	0xbdd4a2d0	-0.103826165
201	0xbd868e11	-0.06570066
202	0xbdcf4e04	-0.10122302
203	0xba066133	-0.0005126178
204	0xbd6bea6d	-0.057596613
205	0xbd9fb890	-0.077988744
206	0x3ccdd742	0.025127057
207	0x3cfe1976	0.031018
208	0xbd4ba744	-0.049720064
209	0x3d9513ce	0.07279168
210	0xbd95fa4d	-0.07323132
211	0xbe29a42c	-0.16566533
212	0xbe7a0b5a	-0.24418393
213	0x3cb85949	0.022503512
214	0xbdb1270d	-0.086500265
215	0xbd47bd44	-0.048764482
216	0x399ce476	0.00029924855
217	0xbde06eba	-0.109586194
218	0xbdf700f2	-0.12060727
219	0xbd33414f	-0.043763455
220	0xbcbd86e9	-0.02313562
221	0x3b7a935f	0.0038234813
222	0xbdca77ce	-0.09886132
223	0xbd34584d	-0.044029523
224	0xbda76df4	-0.08175269
225	0xbd16b7bb	-0.036796313
226	0xbdbe63a3	-0.09296348
227	0xbdb8c1a9	-0.09021313
228	0xbadf7998	-0.0017049788
229	0xbd964c96	-0.07338826
230	0xbb057556	-0.0020364127
231	0xbe8f479b	-0.27984318
232	0x3b26f3bc	0.0025474867
233	0x3c952faf	0.018211214
234	0x3be2612e	0.0069085574
235	0xbdd9320a	-0.10605247
236	0x3a9c3f92	0.0011920801
237	0xbda5c725	-0.080946244
238	0xbd370a81	-0.04468775
239	0x3d5eb99e	0.054376237
240	0x3d4f021b	0.050539117
241	0x3b60d22c	0.003430496
242	0xbd22e4d6	-0.039769016
243	0xbd09b472	-0.03361935
244	0xbd4de4ea	-0.050267138
245	0xbd845791	-0.064620145
246	0x3d4ac93d	0.049508322
247	0x3d95f09c	0.07321283
248	0xbd9b05c9	-0.07569463
249	0x3c09f0e6	0.008419251
250	0x3d6bcfbb	0.057571154
251	0xbd826891	-0.06367601
252	0xbe010898	-0.12600935
253	0xbd446996	-0.047952257
254	0xbdb292f4	-0.08719435
255	0x3da32cc9	0.079675265

fc2.bias f4 [128]
0	0xbde05c4c	-0.10955104
1	0xbbaddbac	-0.005305728
2	0xbda8af3f	-0.082365505
3	0xbdf809db	-0.12111255
4	0xbd5c070b	-0.053717654
5	0xbca5f3a5	-0.02025778
6	0xbdee8128	-0.11645728
7	0xbde4ca94	-0.11171451
8	0xbe023ead	-0.12719221
9	0xbe026b0c	-0.12736148
10	0xbb85d86a	-0.0040846365
11	0xbdcc1c1e	-0.099663004
12	0xbcb5ed6c	-0.022207938
13	0xbdca240a	-0.09870155
14	0x3d3e5ecf	0.046477135
15	0xbe028a90	-0.1274817
16	0x3a578626	0.0008221589
17	0xbe102ffc	-0.14080805
18	0xbdf0b15f	-0.11752581
19	0x3c99b870	0.018764704
20	0xbdc0ef37	-0.094206266
21	0xbe52b474	-0.2057665
22	0xbe08f717	-0.13375507
23	0xbdf8a246	-0.12140326
24	0xbda7121c	-0.08157751
25	0xbe0ce354	-0.13758594
26	0xbdc7b753	-0.09751763
27	0xbdb53cc3	-0.0884948
28	0xbe41890b	-0.18899934
29	0xbe3b982d	-0.18319769
30	0xbd18eeab	-0.037336987
31	0xbddff88f	-0.10936081
32	0xbe0683c2	-0.13136199
33	0xbdfe5105	-0.12417797
34	0xbda8f4c6	-0.08249812
35	0xbc895472	-0.0167639
36	0xbcbd78c0	-0.023128867
37	0xbd240490	-0.040043414
38	0xbda080cc	-0.07837066
39	0xbd021511	-0.03175837
40	0xbe145241	-0.14484502
41	0xbd347691	-0.044058386
42	0xbe2e4261	-0.17017509
43	0xbe23a2bd	-0.15980048
44	0xbe0ad556	-0.13557944
45	0xbd847432	-0.06467475
46	0xbb838d5e	-0.004014655
47	0xbdfe32b3	-0.12412014
48	0xbd227540	-0.0396626
49	0xbdbbbb32	-0.09166564
50	0xbd4065cf	-0.046972092
51	0xbe19eadf	-0.15031002
52	0xbcc38143	-0.023865348
53	0xbe25880f	-0.16165183
54	0xbca85cf0	-0.020552129
55	0xbd88d31b	-0.0668089
56	0xbd13c669	-0.03607789
57	0xbe23cbad	-0.15995665
58	0x3b08e8de	0.0020890753
59	0xbe41afd2	-0.18914726
60	0xbe1a2686	-0.15053758
61	0xbdb28fc9	-0.08718831
62	0xbe106888	-0.14102376
63	0xbe3b4cbb	-0.18290989
64	0xbd9862ef	-0.07440745
65	0xbd4e65b1	-0.05038995
66	0xbdb93d64	-0.090449125
67	0xbd89bfba	-0.06726022
68	0xbd67804d	-0.05651884
69	0xbdeab1be	-0.11459683
70	0xbd3e483b	-0.046455603
71	0xbe2294b5	-0.1587704
72	0xbe05b21b	-0.13056223
73	0xbd570a62	-0.052500136
74	0xbd4b4013	-0.049621653
75	0xbd917487	-0.07102304
76	0xbde92ced	-0.11385522
77	0xbdaf1350	-0.085486054
78	0xbdc8d37a	-0.09805961
79	0xbe0911f9	-0.13385762
80	0xbd602011	-0.05471808
81	0xbe422113	-0.1895793
82	0xbd7b934e	-0.061419778
83	0xbdc3420a	-0.0953408
84	0xbda05181	-0.07828046
85	0xbdf1663f	-0.1178708
86	0xbdbac73b	-0.091200314
87	0xbd7accba	-0.0612304
88	0xbe1b7d5f	-0.15184544
89	0xbdec1307	-0.11527067
90	0xbd4cd213	-0.05000503
91	0xbdd8466d	-0.10560308
92	0xbd9f6ec7	-0.07784801
93	0xbd2080fc	-0.03918551
94	0xbe05bf66	-0.13061294
95	0xbe167376	-0.14692482
96	0xbcd7649c	-0.026293091
97	0xbe0902e7	-0.13380013
98	0xbdf9976b	-0.12187084
99	0xbe08db18	-0.13364828
100	0xbdf01bb5	-0.11724035
101	0xbdcbe2a1	-0.099553354
102	0xbe389e3e	-0.18029115
103	0xbda2f8be	-0.079576
104	0xbd27bc49	-0.040951047
105	0xbda28b0d	-0.07936678
106	0xbdae16bf	-0.08500432
107	0xbccefb7d	-0.025266403
108	0xbd59b996	-0.053155504
109	0xbdcff91c	-0.10154936
110	0xbe01041d	-0.12599225
111	0x3ca420a3	0.020035094
112	0x3b92ee45	0.0044839703
113	0xbe17cbe5	-0.14823873
114	0xbdeba225	-0.11505536
115	0xbe1fb770	-0.1559732
116	0xbd556155	-0.052094776
117	0xbc6a9a5c	-0.014319029
118	0xbdb95bf9	-0.090507455
119	0xbe1adf96	-0.15124354
120	0x3cbc8b1f	0.023015557
121	0xbe0d49ca	-0.1379768
122	0x3cd57fbc	0.026061885
123	0xbcf1fe40	-0.029540181
124	0xbcca9c65	-0.024732778
125	0xbd93cd10	-0.07216847
126	0xbd1b8cd6	-0.03797611
127	0xbd469c7e	-0.048489086

fc3.weight f4 [1, 128]
0	0xbdafd072	-0.0858468
1	0x3c97839b	0.018495372
2	0xbd597f59	-0.053099964
3	0xbdb387c9	-0.08766133
4	0x3d4f5ac4	0.05062367
5	0xbd2dd72c	-0.042441532
6	0xbcc8d46f	-0.024515359
7	0xbcbcf91e	-0.023068007
8	0xbcf87d63	-0.030333227
9	0x3cb13928	0.0216337
10	0xbd20f453	-0.039295506
11	0xbd38d110	-0.045121253
12	0xbcd392b9	-0.025826799
13	0x3d3e3b2d	0.046443153
14	0xbcbe4135	-0.023224453
15	0x3cb4810f	0.022034196
16	0x3c8eba72	0.017422888
17	0x3c650c8a	0.01398004
18	0xbd47ed78	-0.048810452
19	0xbc5058ed	-0.012716514
20	0x3c9ee2b1	0.019395204
21	0x3d793cbf	0.060848948
22	0xbd61250f	-0.054966982
23	0x3ce2759e	0.027643975
24	0x3cd61747	0.026134146
25	0x3df9a61b	0.12189885
26	0xbd865a1f	-0.06560158
27	0x3c877e6b	0.016539773
28	0xbdfdeb4b	-0.12398394
29	0xbdf7e57f	-0.1210432
30	0xbcf74b72	-0.030187342
31	0x3e7c7ba3	0.24656539
32	0xbcf3d340	-0.029763818
33	0xbd160ef6	-0.03663536
34	0xbc9f7364	-0.019464202
35	0x3ccb5b00	0.024823666
36	0x3d58ff02	0.05297757
37	0x3c84f28e	0.01622894
38	0xbd5e8062	-0.054321654
39	0xbc4cfaf2	-0.012511002
40	0x3d0ef537	0.034901824
41	0x3cdbd80d	0.02683642
42	0xbd81e5d9	-0.06342668
43	0x3dd6fdda	0.10497637
44	0x3d9138b3	0.07090893
45	0xbc904034	-0.01760874
46	0xbcc11ceb	-0.02357336
47	0x3cc819bf	0.02442634
48	0xbd1d2dd9	-0.0383738
49	0x3ca9bcba	0.020719875
50	0xbc489ed4	-0.012244899
51	0xbdf63f61	-0.12023807
52	0x3d3846cd	0.044989396
53	0x3de26b53	0.11055627
54	0xbcb6f11a	-0.022331763
55	0x3d317bfe	0.04333114
56	0x3d5729c0	0.05253005
57	0x3cb6c096	0.022308629
58	0x3c9b9367	0.018991185
59	0x3e413d8b	0.18871133
60	0xbc9c6d0f	-0.019094972
61	0xbda178ce	-0.0788437
62	0xbd7594b6	-0.059956275
63	0xbdbecfb0	-0.09316957
64	0xbd77c6a7	-0.060492184
65	0x3d04c6fd	0.032416333
66	0x3ce5bec8	0.028045073
67	0xbdccd096	-0.10000722
68	0xbd1faac0	-0.0389812
69	0xbd08a8b1	-0.033364
70	0xbda3c699	-0.07996864
71	0xbce68689	-0.028140323
72	0xbd938fcd	-0.07205162
73	0x3cde68ac	0.02714952
74	0xbcc53fda	-0.024078298
75	0x3d93a891	0.07209886
76	0xbd4b2f55	-0.049605686
77	0x3cd565b2	0.026049469
78	0xbd78d4af	-0.060749706
79	0xbdb3af0d	-0.08773623
80	0x3c70284c	0.014658045
81	0xbe55a515	-0.20863755
82	0x3d939e1c	0.07207891
83	0x3cc02003	0.023452764
84	0x3cb9af9c	0.022666745
85	0xbd04f527	-0.032460358
86	0xbdace9e8	-0.084430516
87	0xbd89c410	-0.06726849
88	0x3d39641d	0.04526149
89	0x3cf91f1f	0.030410348
90	0x3d0824d7	0.03323826
91	0x3dfe5ad4	0.12419668
92	0xbcba3817	-0.022731824
93	0xbc6f4d50	-0.014605835
94	0x3db460ed	0.088075496
95	0x3ccb2263	0.02479667
96	0x3ce3e666	0.027819823
97	0x3ce60bed	0.028081859
98	0x3d0b3d52	0.033994026
99	0xbc82bef5	-0.015960196
100	0x3ccea56a	0.02522536
101	0x3d27437a	0.040835835
102	0xbe06ca9c	-0.13163227
103	0x3cc889d4	0.024479784
104	0xbcd89cae	-0.026441898
105	0xbc7a79cf	-0.0152878305
106	0x3d090b28	0.033457905
107	0x3d21d9c6	0.039514326
108	0xbd231397	-0.039813604
109	0x3c957301	0.018243315
110	0xbd1adc90	-0.037808
111	0x3d03f575	0.032216508
112	0xbcaa7cdf	-0.020811496
113	0xbcf37cac	-0.029722534
114	0xbc937bda	-0.018003393
115	0xbd5791bc	-0.052629218
116	0x3d07c140	0.033143282
117	0xbc8dc47d	-0.017305607
118	0xbce07653	-0.027400171
119	0x3e711d22	0.2354627
120	0x3cf60de3	0.030035919
121	0xbcd79d21	-0.026320042
122	0xbcb06803	-0.021533972
123	0xbceab518	-0.028650805
124	0x3cd96a39	0.026539909
125	0xbc522132	-0.012825297
126	0xbd3520a9	-0.0442206
127	0x3cdd3603	0.027003294

bn1.weight f4 [128]
0	0x3eb0bb24	0.34517777
1	0x3f833712	1.0251181
2	0x3ec89b50	0.39180994
3	0x3e77ce7b	0.2419986
4	0x3e830ca0	0.2559557
5	0x3f4e9422	0.8069478
6	0x3f0273f7	0.509582
7	0x3e00d282	0.12580302
8	0x3f0590b0	0.521739
9	0x3f45e4e4	0.77302384
10	0x3f018b97	0.5060362
11	0x3f22b790	0.63561344
12	0x3ed2fa39	0.4120653
13	0x3f3c022b	0.7344081
14	0x3caeeb04	0.021352299
15	0x3f25dfc9	0.64794594
16	0x3ecc2c4b	0.39877543
17	0x3ecb3150	0.3968606
18	0x3e97d437	0.29654095
19	0x3f538f63	0.82640666
20	0x3f2c4a97	0.67301315
21	0x3f0a64ec	0.54060245
22	0x3f1e4119	0.6181808
23	0x3e029acd	0.12754364
24	0x3e495015	0.19659455
25	0x3f0fd7d2	0.5618869
26	0x3efd42a6	0.4946491
27	0x3e0d4955	0.13797505
28	0x3eec991d	0.46210566
29	0x3e2a2648	0.16616166
30	0x3ee35505	0.44400802
31	0x3ef4b612	0.4779516
32	0x3f8170ce	1.011255
33	0x3eb613d8	0.35562015
34	0x3f25d07e	0.6477126
35	0x3e6ff830	0.2343452
36	0x3ef55769	0.4791825
37	0x3e45ac5a	0.19304028
38	0x3ef30367	0.47463533
39	0x3f0bd082	0.5461503
40	0x3ebced91	0.369
41	0x3e850669	0.25981453
42	0x3f1962ee	0.5991658
43	0x3f05b7b8	0.5223346
44	0x3d05c8f9	0.032662366
45	0x3eddba6d	0.43306294
46	0x3f02fc60	0.51166344
47	0x3f036b4b	0.5133559
48	0x3df60bc2	0.120139614
49	0x3f3437bd	0.7039755
50	0x3f07c97d	0.5304182
51	0x3ea28f7d	0.31750098
52	0x3e4f9166	0.20270309
53	0x3f7db94b	0.9911086
54	0x3f0ed0e0	0.5578747
55	0x3f24dae6	0.6439651
56	0x3e6c95fc	0.2310409
57	0x3e3f49c6	0.18680486
58	0x3e55f06e	0.20892498
59	0x3f1b98e4	0.6078017
60	0x3d87f5b2	0.066386595
61	0x3e3035db	0.17208044
62	0x3ec9d7b2	0.39422375
63	0x3eb168ff	0.34650418
64	0x3ee829dd	0.4534444
65	0x3ed40a7f	0.41414258
66	0x3e8cef3c	0.2752627
67	0x3d49b47c	0.04924439
68	0x3ddb0558	0.106943786
69	0x3dc1d129	0.09463722
70	0x3ed987b9	0.4248636
71	0x3f3c05e4	0.7344649
72	0x3f4cff8b	0.8007743
73	0x3e940434	0.28909457
74	0x3cd0f807	0.025508894
75	0xbc8d8aaf	-0.017278044
76	0x3ec78b5d	0.38973513
77	0x3ebb9d85	0.36643615
78	0x3f00b72b	0.5027949
79	0x3ebe5033	0.37170562
80	0x3ef02888	0.46905923
81	0x3e8a1a30	0.26973104
82	0x3e945b20	0.28975773
83	0x3eb0bc12	0.34518486
84	0x3e88960e	0.26676983
85	0x3f6dc884	0.9288409
86	0x3eb4cb1d	0.35311213
87	0x3ed183f2	0.4092098
88	0x3f39d93b	0.7259709
89	0x3e7fc002	0.24975589
90	0x3f032e5b	0.5124261
91	0xbd5550f0	-0.05207914
92	0x3e827216	0.25477666
93	0x3ee0cc3c	0.43905818
94	0x3ebd4947	0.3696997
95	0x3e7b8cce	0.24565431
96	0x3e8e0fd1	0.27746442
97	0x3e9d475b	0.30718502
98	0x3ea9e8f3	0.3318554
99	0x3e11a150	0.14221692
100	0x3e948f92	0.29015785
101	0x3f08d256	0.5344595
102	0x3eeb0e6c	0.4590944
103	0x3eae4da0	0.34043598
104	0x3eca8524	0.39554703
105	0x3e02ef07	0.12786494
106	0x3f09500a	0.53637755
107	0x3f0284e1	0.5098401
108	0x3e97b98b	0.29633746
109	0x3eb3ff48	0.35155702
110	0x3edf7431	0.43643335
111	0x3e9c8eb6	0.3057763
112	0x3f53b4d5	0.826978
113	0x3f1229a9	0.5709482
114	0x3e51a24a	0.20472065
115	0x3f5b10e2	0.85572636
116	0x3f190d42	0.59785855
117	0x3ecd30b5	0.40076223
118	0x3f7dbeaa	0.99119055
119	0x3f1d301e	0.61401546
120	0x3f0b8420	0.5449848
121	0x3e6e9de9	0.23302425
122	0x3f4389c3	0.7638208
123	0x3e969002	0.29406744
124	0x3f80068d	1.0001999
125	0x3e82dfc4	0.25561345
126	0x3eb0044d	0.3437828
127	0x3f04af37	0.51829857

bn1.bias f4 [128]
0	0xbd149319	-0.036273096
1	0x3d612524	0.05496706
2	0x3e021cef	0.1270635
3	0xbc601b75	-0.013678421
4	0x3d0a0b0c	0.03370194
5	0x3e3b83dd	0.1831202
6	0x3b07f82f	0.0020747294
7	0xbd84099e	-0.06447147
8	0x3e2a268c	0.16616267
9	0x3e130f75	0.14361365
10	0xbcdab981	-0.026699783
11	0x3e332f37	0.1749848
12	0x3dad2d2a	0.0845588
13	0xbc1059cb	-0.008810471
14	0xbe2e77b7	-0.17037855
15	0x3dd3a69a	0.10334511
16	0x3d8670f8	0.06564516
17	0x3e2671e4	0.16254383
18	0x3d116e80	0.03550577
19	0x3d33d34a	0.043902673
20	0xbc75f3a5	-0.015011703
21	0x3cc1ecd7	0.023672504
22	0x3dc25b3b	0.09490057
23	0xbb12ca03	-0.002239824
24	0x3d8ce6c2	0.06879951
25	0x3c301f04	0.010749582
26	0x3d95e5c7	0.07319217
27	0xbd7a00b5	-0.06103583
28	0xbd2f5d1b	-0.0428134
29	0xbe223c7a	-0.15843382
30	0x3d2bf77e	0.041984074
31	0x3d676c02	0.05649949
32	0x3dd7b7e3	0.105331205
33	0x3e3ff327	0.18745099
34	0x3e894dca	0.2681716
35	0x3d1108c7	0.03540876
36	0xbd43281c	-0.047645673
37	0x3de7e15a	0.11322279
38	0x3c839caa	0.016065914
39	0x3e0e3448	0.13887131
40	0x3e32ddd6	0.17467436
41	0xbbb67cbd	-0.005569069
42	0x3d9b1c20	0.07573724
43	0x3d240fe8	0.040054232
44	0xbbf17de7	-0.007369745
45	0x3e64896a	0.22318044
46	0xbd2e0a4e	-0.042490296
47	0xbe0ad608	-0.13558209
48	0x3e37fbb3	0.1796711
49	0x3da59728	0.080854714
50	0x3d1cb175	0.038255174
51	0xbd05c0cc	-0.03265457
52	0xbe0b0506	-0.13576135
53	0x3b8a10d4	0.004213432
54	0xbc17a633	-0.009255934
55	0x3e5ef9ab	0.21774928
56	0x3de1321c	0.10995886
57	0x3e7938bf	0.24338053
58	0xbb430107	-0.002975525
59	0x3c081e24	0.008307967
60	0x3e3656a4	0.17806488
61	0x3cad892f	0.021183578
62	0xbd2c72ac	-0.042101547
63	0x3df621a3	0.120181344
64	0xbd27b75b	-0.040946346
65	0x3daa1313	0.08304419
66	0xbe106cdb	-0.14104025
67	0xbd3f190b	-0.046654742
68	0xbbc866c1	-0.006115765
69	0x3e9c7c1e	0.30563444
70	0xbbe719bd	-0.007052629
71	0x3e346366	0.17616042
72	0xbc91e1d4	-0.017807879
73	0xbe10f883	-0.141573
74	0xbe72b0ab	-0.23700206
75	0xbe031696	-0.12801585
76	0xbe054d49	-0.13017763
77	0x3ddee65a	0.1088378
78	0x3d4fa71c	0.050696477
79	0x3d62aee3	0.055342566
80	0x3e0521f7	0.13001238
81	0x3b9f1195	0.004854391
82	0x3e0c18c9	0.1368133
83	0xbe4d0f1d	-0.20025297
84	0x3d652b5a	0.055949546
85	0xbc1da281	-0.0096212635
86	0x3c5127c4	0.0127658285
87	0xbd192838	-0.03739187
88	0x3e8c328f	0.27382323
89	0xbd5e0523	-0.054204118
90	0x3e3d37bc	0.18478292
91	0xbe3e0c89	-0.1855947
92	0xbd74262b	-0.059606712
93	0x3c67e60f	0.014153971
94	0x3df6701d	0.12033103
95	0x3e716ed6	0.23577437
96	0xbc8441a8	-0.016144589
97	0x3dc70e7c	0.097195596
98	0x3dd765a2	0.10517432
99	0xbab475ff	-0.0013768076
100	0x3e23292d	0.15933676
101	0x3e461c24	0.19346672
102	0xbdbe733f	-0.09299325
103	0xbde447c4	-0.11146501
104	0x3d745616	0.05965241
105	0xbccaf01f	-0.024772702
106	0x3e0075b7	0.12544905
107	0x3d5f21e0	0.054475665
108	0x3c883867	0.016628457
109	0x3de0a8b2	0.10969676
110	0x3bb60d13	0.005555758
111	0x3d141e2a	0.03616158
112	0x3e3f6ec6	0.186946
113	0x3ce815b1	0.028330656
114	0x3d1765b7	0.036962237
115	0xbaf1de76	-0.0018453139
116	0x3d667ae3	0.056269538
117	0x3e439f76	0.19103798
118	0x3e1a73c5	0.15083225
119	0xbe140fbc	-0.14459127
120	0x3daf0f3c	0.085478276
121	0x3db7257c	0.089426965
122	0x3dca4da0	0.09878087
123	0x3e872da1	0.26402
124	0x3dc335af	0.09531724
125	0x3d843261	0.064549215
126	0x3db80a20	0.08986306
127	0x3e17f1db	0.14838354

bn1.running_mean f4 [128]
0	0x3f761bbd	0.96136075
1	0x3e583a69	0.21116032
2	0x3e398d6d	0.18120356
3	0x3e501948	0.20322144
4	0x4013c930	2.3091545
5	0x3f078c73	0.52948684
6	0x3f4de0fd	0.8042143
7	0x3f68e69d	0.9097689
8	0x4019c3ca	2.402575
9	0x3d4ee3d3	0.05051024
10	0x4009025a	2.1407685
11	0x3f578277	0.8418345
12	0x3f50b850	0.8153124
13	0x3e59bc5b	0.21263258
14	0x3ed866ae	0.42265838
15	0x3ef4a8d7	0.47785065
16	0x3e353263	0.17695002
17	0x3fe3986f	1.7780894
18	0x40061179	2.0948164
19	0x3f6bd12e	0.9211606
20	0x401104cc	2.2659178
21	0x3fdddba0	1.7332649
22	0x3f5462b4	0.8296311
23	0x3fb4acc7	1.4115227
24	0x3eb8d2ae	0.36098236
25	0x3f669d71	0.90083987
26	0x3efc0857	0.49225113
27	0x3fa7dc4a	1.3114102
28	0x3f0bcee6	0.54612577
29	0x3f29f01c	0.66382
30	0x3f48c5d9	0.7842689
31	0x3e65061f	0.22365616
32	0x3e96ffd4	0.29492056
33	0x3fb32893	1.3996757
34	0x3fa14406	1.2598884
35	0x3e856a89	0.26057842
36	0x3fb53892	1.4157889
37	0x3fea951c	1.8326755
38	0x3eeef25f	0.4666929
39	0x3f5091ef	0.81472677
40	0x3ef96c54	0.4871546
41	0x3e6ae30d	0.22938175
42	0x3f2fc08e	0.6865319
43	0x3f2365ec	0.63827395
44	0x4071bd28	3.7771702
45	0x3fd73732	1.6813719
46	0x3fa47204	1.2847295
47	0x3fcbe567	1.5929383
48	0x4033de6e	2.810451
49	0x3f62b084	0.8855059
50	0x400ff0b3	2.249066
51	0x40a87fa4	5.265581
52	0x40062129	2.095774
53	0x4041ffee	3.0312457
54	0x3f8d7503	1.1051334
55	0x3f08084e	0.5313767
56	0x3fa24413	1.2677025
57	0x3f42ab16	0.76042306
58	0x3f73a888	0.95179033
59	0x40099a12	2.1500287
60	0x3f79199c	0.973047
61	0x3fe5665a	1.792186
62	0x3f49e0a1	0.7885838
63	0x401ec0fc	2.4805288
64	0x3fda1ca8	1.7039995
65	0x3fae0b2c	1.3597159
66	0x3f099f4e	0.53758705
67	0x3f88e912	1.0696127
68	0x4022d5c0	2.5442963
69	0x40315df0	2.7713585
70	0x3f3ea2b7	0.74467033
71	0x3db89956	0.090136215
72	0x3f4d12e9	0.8010698
73	0x3f94687c	1.1594386
74	0x00000004	6e-45
75	0x3ff41b95	1.9070917
76	0x3fdcdfc4	1.7255788
77	0x3d81b7fc	0.0633392
78	0x401034f9	2.2532332
79	0x40135b02	2.3024297
80	0x3e1e5928	0.15463698
81	0x3e18d88b	0.14926355
82	0x40883e2f	4.257591
83	0x403fba2c	2.995738
84	0x3ebc1408	0.36734033
85	0x405881bb	3.3829181
86	0x3f44fc7c	0.7694776
87	0x3fad0225	1.351628
88	0x3e74951b	0.23885004
89	0x3e1b2ee9	0.15154614
90	0x3f86bfe4	1.052731
91	0x3ea1c463	0.31595144
92	0x3fb1b31f	1.3882788
93	0x3ffb09f9	1.9612418
94	0x3f275bbd	0.65374357
95	0x3f96ce8c	1.1781783
96	0x3fb797c4	1.434319
97	0x3d50fa55	0.051019985
98	0x3f097dcc	0.53707576
99	0x3f2c5f7c	0.673332
100	0x3f2af630	0.667819
101	0x3d2a74ef	0.041615423
102	0x400eeca2	2.233193
103	0x3e3728ee	0.17886707
104	0x40105870	2.2553978
105	0x3ec5110e	0.38489574
106	0x3fb1196a	1.3835881
107	0x40816c98	4.044506
108	0x3fca10ac	1.5786338
109	0x4026a3ec	2.603755
110	0x400d7398	2.2101803
111	0x3fcb1e38	1.5868597
112	0x3da39041	0.079864986
113	0x4027b0cd	2.620166
114	0x3f1e5d33	0.6186096
115	0x3fcda091	1.6064626
116	0x4011dce8	2.279108
117	0x3f820870	1.0158825
118	0x3f24131e	0.6409167
119	0x3ff73c92	1.931536
120	0x4024a967	2.5728395
121	0x3e92feee	0.2871012
122	0x3fb20327	1.3907212
123	0x3fd5376f	1.6657542
124	0x406bca97	3.68424
125	0x3eff8578	0.49906516
126	0x404f6de9	3.2410834
127	0x3f89a414	1.0753198

bn1.running_var f4 [128]
0	0x40463d5d	3.0974953
1	0x3d765ed1	0.060149018
2	0x3eae55a9	0.3404973
3	0x3ee28aee	0.4424662
4	0x40e6bb78	7.2103844
5	0x3f42bd21	0.7606984
6	0x3fb398a9	1.4030963
7	0x4009cd7e	2.1531672
8	0x40e4b17b	7.146665
9	0x3da2912c	0.079378456
10	0x41020358	8.125816
11	0x3f98e538	1.1944952
12	0x400d324a	2.2061944
13	0x3d983890	0.074326634
14	0x3fb1e026	1.389653
15	0x3f9c808b	1.2226728
16	0x3e7b4d7d	0.24541278
17	0x40e6a33b	7.2074256
18	0x40eabbac	7.335409
19	0x3fbf6187	1.4951638
20	0x402b041d	2.672126
21	0x408b0226	4.3440123
22	0x3fedcd99	1.8578368
23	0x40b8164c	5.752722
24	0x3f468704	0.7754977
25	0x4084b8aa	4.147542
26	0x3f9b8538	1.215003
27	0x404bd1e5	3.184686
28	0x3f8feddb	1.1244463
29	0x3fddd408	1.7330332
30	0x3f104064	0.5634825
31	0x3ec03659	0.37541464
32	0x3ddc94f5	0.10770599
33	0x4097307a	4.7246675
34	0x40339e08	2.8065205
35	0x3eda344c	0.42618024
36	0x409fe8cb	4.997167
37	0x406d62b4	3.7091494
38	0x3f4dc29c	0.80375075
39	0x4003c459	2.058859
40	0x3f5eabff	0.86981195
41	0x3ee95dd5	0.455794
42	0x3f513c56	0.8173269
43	0x3fe9bdbb	1.8261026
44	0x40d2ea0f	6.5910716
45	0x40618c62	3.5241933
46	0x40885094	4.259836
47	0x411a5401	9.645509
48	0x41539c12	13.225603
49	0x3fce6945	1.6125876
50	0x4115261c	9.321804
51	0x404f391a	3.2378602
52	0x40fac8b2	7.836999
53	0x415d7b94	13.84267
54	0x4044681d	3.0688546
55	0x3f738164	0.9511931
56	0x40096675	2.1468785
57	0x3f7588d3	0.959119
58	0x4028db19	2.6383727
59	0x40a8e56e	5.2780066
60	0x40183867	2.3784425
61	0x40683403	3.6281745
62	0x3fa3c90b	1.2795728
63	0x41184c63	9.518649
64	0x4094c944	4.6495686
65	0x4079ebf7	3.9050272
66	0x3f869557	1.0514325
67	0x406cafbb	3.6982257
68	0x40b63a70	5.6946335
69	0x40ebf7aa	7.3739824
70	0x40032764	2.0492792
71	0x3db0b57e	0.08628367
72	0x3f839a39	1.028144
73	0x407f94a2	3.9934468
74	0x00000004	6e-45
75	0x40e849ad	7.2589936
76	0x40b7e3f9	5.7465787
77	0x3dc92650	0.09821761
78	0x3febfce1	1.8436548
79	0x4044e215	3.076299
80	0x3d8cc677	0.06873792
81	0x3eb0b295	0.34511247
82	0x41caf8c8	25.371475
83	0x407a6ebc	3.9130087
84	0x3f393dfa	0.72360194
85	0x418cab0c	17.583519
86	0x400ef9b6	2.2339911
87	0x40cdf6b4	6.436365
88	0x3f11450d	0.5674599
89	0x3eb26de7	0.34849474
90	0x3f99a430	1.2003231
91	0x3f658fbd	0.8967245
92	0x40a06e12	5.0134363
93	0x40960686	4.6882963
94	0x3ffa074f	1.953348
95	0x3f8ed07c	1.1157374
96	0x40c6eb64	6.216234
97	0x3d6944a1	0.056950215
98	0x3fc2fe01	1.5233766
99	0x4002b57a	2.0423265
100	0x3efd9913	0.4953085
101	0x3d2e2616	0.04251679
102	0x40b11134	5.53335
103	0x3e88c566	0.26713103
104	0x41010791	8.064347
105	0x3f3d139c	0.73858047
106	0x40622f30	3.53413
107	0x417c5453	15.770587
108	0x4034373c	2.8158712
109	0x415eeb51	13.93245
110	0x40f341cd	7.6017823
111	0x40e03556	7.0065107
112	0x3e03638a	0.1283094
113	0x40f2ecce	7.591407
114	0x3ff3a9d7	1.9036206
115	0x4079d7a0	3.9037857
116	0x414891cd	12.535596
117	0x402817ac	2.6264448
118	0x3f2d6576	0.6773294
119	0x410f1a33	8.943896
120	0x40a05e9a	5.011548
121	0x3ece6acb	0.40315852
122	0x3f1fc8ff	0.6241607
123	0x40719668	3.774805
124	0x4192f859	18.371264
125	0x3f790230	0.9726896
126	0x40988b6f	4.7670207
127	0x40027970	2.038662
