3. Multi-Agent Reinforcement Learning/collaboration-competition/agent_0_actor_checkpoint.pth (torch_old, 83482 bytes, 10 tensors)

fc1.weight f4 [128, 24]
000000 4b 46 59 3e 1a 74 57 3d b4 0c b9 3a 4c 6f 85 bc
       0.21218221 0.052600957 0.0014118166 -0.016288422
000010 a7 63 02 3d 0b 94 d7 bd 54 f1 d3 bc 5d eb 3b 3d
       0.031833317 -0.10526284 -0.02587191 0.045878757
000020 0d f2 4f 3e c5 9e 2c 3d 55 be 5f bb 80 26 a1 3d
       0.20307179 0.042143602 -0.0034140546 0.078686714
000030 7a 7a 24 bc 66 ad 19 be 8a 3b 72 bc eb b6 64 3d
       -0.010038966 -0.15007553 -0.014784703 0.055838507
000040 14 f1 29 3e 13 4a 5d 3d 07 c7 c7 3c 42 89 c4 3c
       0.1659587 0.05402572 0.024386896 0.02399123
000050 7f 8c 30 bd f1 3c 93 bc d3 f4 3e bd b6 74 b8 bd
       -0.043102738 -0.017973395 -0.0466202 -0.09006636
000060 c2 a4 ec 3d 26 15 47 3d 5f ac 78 bc 7f f2 99 3d
       0.115548626 0.048604153 -0.015177815 0.075169556
000070 70 dd b3 bd 54 f1 02 3c b2 a9 85 bb af 2d 0a 3e
       -0.0878247 0.007992107 -0.004079067 0.1349399
000080 86 f4 ae 3d 1e b1 00 3e 1b 02 41 bd 2c 45 87 3e
       0.08542733 0.12567565 -0.04712115 0.2641996
000090 10 97 d5 bd 1e 9a f0 bb c3 ca 2a 3d ea 67 41 3e
       -0.104292035 -0.007342591 0.041697275 0.18887296
0000a0 1f b5 50 3d b7 09 00 3e 47 cd 09 bc d1 41 75 3e
       0.05095398 0.12503706 -0.008410758 0.23950888
0000b0 60 ef dc bb 15 38 16 be d9 df 3a bd 77 70 6e 3e
       -0.006742403 -0.14669831 -0.045623634 0.2328509
0000c0 7c 89 1f ba 42 a9 11 be 0b 5b 35 bd ce a9 21 3e
       -0.00060858554 -0.14224723 -0.04427628 0.15787432
0000d0 c3 5e 0e 3e 85 5f a6 3c 11 ef d5 3d ce 10 14 3e
       0.13903336 0.02030922 0.10445989 0.14459535
0000e0 9b 06 c3 bd 2b 90 f7 bd f8 02 80 3d dd 2d c1 bd
       -0.09522744 -0.12088045 0.06250566 -0.09432576
0000f0 e5 d0 e3 3c b9 5c 80 be 71 8d 3d ba a3 e4 9f bc
       0.02780957 -0.25070742 -0.0007230854 -0.019518202
000100 37 6a b8 bd 9a 70 f1 bd 36 28 8c bd 95 98 35 3c
       -0.09004634 -0.11789055 -0.06843607 0.011083742
000110 f1 0c 82 bd 81 3b 70 be be 3b 4b 3d 64 c1 23 3e
       -0.063501246 -0.23460199 0.04961752 0.15991741
000120 4b 27 87 3b ba 04 f8 3d 30 c0 7a bd f5 67 89 3d
       0.004124557 0.121102765 -0.06121844 0.06709281
000130 05 1b ee bd 57 20 6e bd 41 0f 1d 3d 69 a6 87 39
       -0.11626247 -0.05813631 0.038344625 0.00025873192
000140 43 3d ec 3c e6 18 33 3e d7 60 5e 3c 7b 14 07 be
       0.028837806 0.17489967 0.013572893 -0.13191406
000150 90 a6 33 3d ce 2e eb bd a8 65 1c 3d 51 69 85 bb
       0.04386002 -0.11483537 0.038182884 -0.0040713926
000160 5b e7 81 3d 5e ce 8f 3e 4e fe 80 bd 02 55 38 3c
       0.06342956 0.28087133 -0.06298505 0.011250736
000170 ef bd be 3d 10 c3 64 be 2b 23 58 bd f5 7e 82 3b
       0.09313571 -0.22340035 -0.052767914 0.0039824196
000180 54 7f 27 bd 38 3c f0 3d 66 8f 4f bd 40 7f 69 bd
       -0.040892914 0.11730236 -0.050673865 -0.05700612
000190 b1 d4 93 bd 2e 50 bb bd 9b e8 14 3d b0 34 17 3d
       -0.07218302 -0.091461524 0.036354642 0.03691548
0001a0 dc 81 cd bd 12 cb 05 3e 66 1f 43 bc 65 77 d8 bd
       -0.10034534 0.13065746 -0.011909341 -0.10569648
0001b0 13 c4 55 bb 05 9e 48 be 0c 74 36 bd b1 db b1 bd
       -0.003261809 -0.1959153 -0.044544265 -0.08684481
0001c0 87 4b 4e 3d a8 a9 f4 3c 0a af 34 bd 4b c3 35 be
       0.050364997 0.029866055 -0.044112243 -0.1775028
0001d0 92 81 64 3b bc 96 8d be ac 14 2e bd 55 8b 4f be
       0.003486727 -0.27654064 -0.042500183 -0.20267995
0001e0 27 93 a4 3d 23 1c b1 3d cb 4c e1 bc 84 af f2 3d
       0.080358796 0.08647945 -0.027502438 0.11849883
0001f0 a5 9c a9 bc 21 f3 0f be 3b 68 d8 3b 22 27 69 bd
       -0.020704577 -0.1405759 0.006604222 -0.056922086
000200 7b c2 24 3e b9 02 6e 3c e7 ed 24 3d 19 18 05 bd
       0.16089813 0.014527016 0.040265944 -0.032493684
000210 2a 15 59 bd e9 be c5 bd 97 85 86 bd d6 a1 09 3d
       -0.0529987 -0.09655554 -0.06568449 0.033601604
000220 c3 29 31 3e 5e be f4 3d 3f 07 47 ba b7 39 58 bd
       0.17301087 0.11950372 -0.00075923273 -0.052789416
000230 9c 9b 39 3d 00 06 96 bc a5 00 12 bc 23 e8 c5 bc
       0.045314416 -0.018313408 -0.0089112865 -0.024158543
000240 4d 06 02 3e 7f e2 fc 3d 1c ce da 3a 34 9a 1f 3c
       0.12697716 0.12347888 0.0016693505 0.009741355
000250 9a 20 13 bd 29 6e 16 bd ba cd 50 bc 63 88 ed 3c
       -0.035919763 -0.03672615 -0.012744362 0.028995698
000260 8b 97 f5 3d 80 7b 55 3e cb c4 b2 bc 12 8c 32 3d
       0.11991795 0.20847893 -0.021822354 0.043590613
000270 1f 2a bf bc ed ad 3c bd af f1 7c 3c ae c6 f7 3a
       -0.023335515 -0.046064306 0.015438481 0.0018903816
000280 6a a9 f1 3d 24 55 40 3e b7 83 80 3d 78 59 80 3c
       0.11799891 0.18782479 0.062751226 0.015667662
000290 a3 8b 34 3d 6d 1e c7 bd 70 d5 86 bd df d7 68 bd
       0.04407848 -0.097226 -0.06583679 -0.056846496
0002a0 02 24 25 bc 62 ec 3d bd 6a 30 0b 3c c3 04 0d be
       -0.010079386 -0.04636801 0.0084954295 -0.13771348
0002b0 83 23 b1 3d 0a 2f a8 bd e3 fe c5 bc 73 8e 82 bd
       0.086493514 -0.08212097 -0.024169391 -0.06374826
0002c0 3c 06 f6 3d 6f 39 15 bd 08 56 c3 bd 1b bb c1 bc
       0.12012908 -0.036431726 -0.095378935 -0.02364879
0002d0 57 7a 59 bd f5 45 3b be 70 a2 db 3c 81 30 bd bd
       -0.053095188 -0.18288405 0.026810855 -0.09237767
0002e0 88 6e 95 3b cd e0 c2 bd ed bf be 3c a2 27 74 3d
       0.0045602955 -0.095155336 0.023284877 0.05960811
0002f0 d9 bb 21 be d5 83 96 3c f1 dd be bd 74 41 dc 3d
       -0.15794314 0.01837341 -0.09319676 0.10754672
000300 6a 69 5e 3c be 63 c0 3e f7 ea ac bc 97 71 b1 bd
       0.013574937 0.37576097 -0.021108134 -0.08664244
000310 8a 0f 81 bd 0f 1b 22 be 93 f6 9d bc 0f ef 0d bd
       -0.06301792 -0.15830635 -0.019282615 -0.034651812
000320 14 70 17 ba cb 6b 83 3e d8 f5 dd bd bb 27 a8 bd
       -0.0005776894 0.25668177 -0.108379066 -0.08210703
000330 b4 5a 11 3d 60 94 4f bd 56 f4 01 bd c5 64 bd bd
       0.035486892 -0.05067861 -0.031727158 -0.09247736
000340 d4 70 e3 3d e0 10 5c 3e 3b 75 10 3c e2 5c 8d 3d
       0.11105505 0.21490812 0.008817012 0.069024816
000350 51 c8 a0 bc cf 09 12 be c4 81 66 bb 2f 32 dc bb
       -0.019626768 -0.14261554 -0.0035172561 -0.0067198495
000360 bf 20 f8 bc 5c df 00 bd de be cf bd 37 62 4e bb
       -0.030289052 -0.031463012 -0.10143827 -0.0031491646
000370 5a af 35 be a7 c4 3b bd 1d 5a 45 bd a2 4f f3 3b
       -0.17742673 -0.04584184 -0.04818164 0.0074252645
000380 02 7c 1d 3d 59 27 2e be 35 0d ea bc d4 a3 8c bd
       0.03844834 -0.17007197 -0.02857075 -0.06867185
000390 f5 4c 50 bd bb ad 01 3e 36 ed 1d 3c 96 12 07 be
       -0.050854642 0.12663929 0.009639075 -0.13190684
0003a0 b2 6e 97 3c 01 3e b5 bd 7c dd 8f bd 13 02 93 3d
       0.0184854 -0.08849717 -0.07024667 0.0717813
0003b0 43 55 2c be 04 13 31 3e b8 71 c7 3c cb 28 21 3c
       -0.168294 0.1729241 0.024346218 0.009836386
0003c0 82 a5 81 3c e3 e1 a2 3d 47 bf a6 bd af 5d 59 be
       0.01582599 0.07953241 -0.08141952 -0.21227144
0003d0 ab 65 2e 3c 25 07 8a bc fb 00 6a 3d ed bf a5 bd
       0.010644357 -0.01684911 0.05712984 -0.080932476
0003e0 ce 50 cf 3d 64 01 11 3e bf e4 a2 3c 80 fb 22 be
       0.10122834 0.14160687 0.019884465 -0.15916252
0003f0 d2 a2 67 3c fd 32 66 bd 2f 29 77 3d de 85 ac bd
       0.0141379405 -0.05620097 0.06034201 -0.08423971

fc1.bias f4 [128]
000000 d8 31 1e be 0c 3e cb 3d ec 92 84 bd af ab 98 be
       -0.15448701 0.09923944 -0.064733356 -0.29818484
000010 75 35 9b 3d 64 b2 32 3d d9 fe 72 be 00 fa 53 be
       0.075785555 0.043627158 -0.23730029 -0.20700836
000020 f4 20 7a be 44 5b f6 bb 6b 90 eb bd 10 0e 4a be
       -0.24426633 -0.007518204 -0.11502155 -0.19731927
000030 4f 15 96 be 8c 05 98 bd 39 79 98 3d e6 1d a6 bd
       -0.29313132 -0.07422933 0.074449964 -0.081111714
000040 3b 2f b2 bd ca 10 c5 3d b5 18 15 be df 6f 91 be
       -0.08700415 0.09622343 -0.14560206 -0.28405663
000050 ac 7a 15 be 39 f3 5e be 29 dc a3 be 07 2a fa 3b
       -0.14597577 -0.2177247 -0.32003906 0.0076344046
000060 6d 9c aa bc 51 15 b6 be 32 59 67 bd 27 9e f1 be
       -0.020826543 -0.35563138 -0.056481548 -0.47190973
000070 28 2e 8b be e1 0e c5 be e8 4d 13 be 04 d9 94 be
       -0.27183652 -0.38487914 -0.14385188 -0.2907182
000080 da 91 ce bd f6 fe 3c be d6 a5 4a be f9 80 27 be
       -0.10086413 -0.18456635 -0.19789824 -0.16357793
000090 31 0f b9 be 94 12 c8 bd 6d 4a 34 3d 07 f5 ae bd
       -0.36144403 -0.097691685 0.04401629 -0.08542829
0000a0 80 d1 3a bd d9 e1 a9 be dc ea fa bd 55 fe aa 3d
       -0.04560995 -0.3318012 -0.12251827 0.08349291
0000b0 82 af 9b be 12 f1 46 be f9 ae ec bd 9c e7 81 bd
       -0.3040734 -0.19427899 -0.11556811 -0.06343004
0000c0 b4 ad e9 bd b1 f9 6a bc d2 8a 3b 3d eb 2d 88 be
       -0.11410084 -0.014341758 0.045786686 -0.26597533
0000d0 49 b1 ef be d2 61 42 3e 0e a3 bd 3d 7f 7d 1c be
       -0.46814945 0.18982628 0.09259616 -0.15282248
0000e0 59 fe 28 3e 62 d9 fa bb b8 95 b9 bd 76 1c 4e be
       0.16503276 -0.0076553086 -0.0906176 -0.20128044
0000f0 d5 94 c4 3d e7 b1 65 be dc 4e 12 be 18 d4 a8 be
       0.095987 -0.22431146 -0.14287895 -0.32974315
000100 26 74 88 be 64 63 71 be 4c 0d 9b be 77 b5 97 bd
       -0.26651114 -0.23573071 -0.30283582 -0.074076585
000110 d5 46 b3 3d 0b a4 b7 bc c5 11 86 bc 50 24 ef bd
       0.087537445 -0.022417089 -0.016365895 -0.11676848
000120 d6 6d 4f 3d 62 27 34 be 0f 3b 6f be 7c dd 83 bc
       0.050641857 -0.17593148 -0.23362373 -0.016096823
000130 5e 29 11 3e db d8 28 be 09 a1 e5 3d 87 e7 b2 bb
       0.14175937 -0.16488974 0.11212356 -0.005459729
000140 ee 53 97 3d fc 5f 05 be 90 92 ef be 6b b3 32 bd
       0.07389055 -0.13024896 -0.46791506 -0.043628138
000150 3e 41 e1 bd c2 21 8c bd f5 a5 b1 bd 98 56 13 3e
       -0.10998772 -0.06842376 -0.08674232 0.14388502
000160 a9 ac 14 be 6d cf 9a be 62 8c 89 be 45 09 be bd
       -0.1451899 -0.30236378 -0.26864916 -0.09279112
000170 bb 56 50 be 7c fc 6e be b4 88 2e bd 2c 74 50 bd
       -0.20345585 -0.23338503 -0.04261084 -0.05089204
000180 f5 8a d2 bc 89 3c 8a be ea fd be be 15 45 68 3c
       -0.025701026 -0.2699931 -0.37303096 0.014176627
000190 d9 40 a2 3d 37 ad a6 be bb a0 62 be 0c 9b 1b be
       0.07922525 -0.32554027 -0.22131626 -0.15195864
0001a0 7f 14 0d 3e 74 ff 35 be 97 19 65 3b 47 46 1b 3c
       0.1377735 -0.17773229 0.003495788 0.009477205
0001b0 d6 2c 11 3e 76 44 7f be e6 df 3d be 52 40 37 be
       0.1417726 -0.2492846 -0.18542442 -0.1789563
0001c0 05 f4 05 be ca fe 10 3e ff 1b ac bc 98 63 03 be
       -0.13081367 0.14159694 -0.021009443 -0.12830961
0001d0 19 9f ae be f0 cb 10 bc bf be 2a bd 0e 58 b5 bd
       -0.34105757 -0.008837685 -0.041685816 -0.08854686
0001e0 fd 4b e2 3a 09 cb 93 be b1 5a da bc fb cf a6 3e
       0.0017265078 -0.2886584 -0.026654573 0.32580552
0001f0 44 70 e3 bd ec 1a 22 be 1f 29 65 3d 1e b3 01 be
       -0.11105397 -0.15830582 0.05594742 -0.12665984

fc2.weight f4 [128, 128]
000000 d4 50 7e bd e2 94 08 3e 7a e4 e7 bd b6 a5 a1 3d
       -0.062088802 0.13338044 -0.11322875 0.07892935
000010 8b f6 c7 3d 27 8c 8d 3d eb 03 ad 3d 9e 2c 8f 3d
       0.09763821 0.069114976 0.08448013 0.06990932
000020 17 65 7d 3d 1d 07 5e be 8c b0 4e 3e fa c3 9e be
       0.061863985 -0.21682401 0.20184535 -0.31008893
000030 67 0a 20 be d7 0e 5e be d9 77 5a 3c 66 65 04 be
       -0.15628968 -0.21685348 0.013334238 -0.12929305
000040 fb bf d1 bd c2 73 c8 3c 08 2e 14 bd 66 45 c4 bd
       -0.102416955 0.02446926 -0.03617671 -0.09583549
000050 fa a3 1d bd bf f2 5e 3d a7 73 40 bd d4 e3 88 bc
       -0.03848646 0.05443072 -0.046985295 -0.0167102
000060 89 7f 8d be 34 08 6a 3e 5f 74 5c be a4 4c c9 bd
       -0.27636364 0.22854692 -0.21528767 -0.09829071
000070 4d 65 6d 3d 60 30 37 be ab 40 4f be 51 0d 10 3b
       0.057957936 -0.17889547 -0.20239513 0.0021980593
000080 c3 5e 5e bd f5 2b ac bd d3 11 4a be 4c b2 a8 3c
       -0.05428959 -0.08406822 -0.19733362 0.020592831
000090 de aa 50 be f1 af ec bd 96 eb 97 3d 69 b9 04 3e
       -0.2037768 -0.11556996 0.07417981 0.12961353
0000a0 e5 a8 82 bd 44 11 85 3b d3 95 2e bd 87 05 6b 3d
       -0.0637987 0.004060896 -0.042623352 0.05737832
0000b0 68 65 4b bc 38 d4 f9 bd a0 fb 6f 3c 0e c3 85 3d
       -0.012414314 -0.12198681 0.014647394 0.06531344
0000c0 1a 58 48 3d 83 b0 5b 3d 9e 7c 24 3d a7 f8 b2 bb
       0.048912145 0.05363513 0.040157907 -0.0054617706
0000d0 08 fc 82 bd f5 6a 0e be 81 ca d2 3b f8 1b 0c 3e
       -0.063957274 -0.13907988 0.0064328318 0.13682544
0000e0 e1 b6 16 3e 98 8c 43 be 08 be de 3d b1 c2 0b 3e
       0.147182 -0.19096601 0.10876089 0.13648488
0000f0 63 e5 6b bc 79 0f 81 bd 82 94 b6 bd d7 9d 7b bc
       -0.014397952 -0.06301779 -0.08915044 -0.015357456
000100 e4 a9 06 be 40 df 7e bc dd 67 63 be ed 26 12 bd
       -0.13150746 -0.015556157 -0.2220759 -0.035681654
000110 1e d4 be bd 33 d7 1b 3e 51 d3 20 be b3 f8 d1 3d
       -0.09317802 0.1521881 -0.15705611 0.10252514
000120 df b9 87 3c 1f c3 e9 bd 02 51 f5 3c 2d d1 66 be
       0.016568122 -0.114141695 0.029945854 -0.22540732
000130 6b 98 3f 3e 5b ed b2 3d b0 70 02 be f5 35 ee be
       0.18710487 0.08736678 -0.127383 -0.4652554
000140 03 db 10 be 33 4f da bb 67 89 08 be 01 a7 56 3d
       -0.14146046 -0.0066622733 -0.13333665 0.05240536
000150 11 0f 81 bc d0 dc c2 bd 35 23 8a be 65 83 d1 3b
       -0.015754255 -0.09514773 -0.26979986 0.0063938373
000160 c8 92 51 3d bd 7f 69 3c 12 92 cb bd 3f 3e 0a 3d
       0.051165372 0.014251647 -0.0993997 0.03375077
000170 ec 7a 71 bd 3f cf 3a be 29 70 41 be 7f c5 a8 bd
       -0.058955118 -0.1824312 -0.18890442 -0.082407944
000180 1a 94 60 be b7 46 9a be fd df a5 be 09 cd 00 be
       -0.21931496 -0.30132076 -0.32397452 -0.12578215
000190 e0 33 91 be 54 53 c3 3c 9a 10 b6 bd f9 d0 4e be
       -0.2835989 0.023843445 -0.08889885 -0.20196904
0001a0 a3 04 97 bb f4 44 a5 bd 53 67 04 3d d6 d8 0e bd
       -0.004608707 -0.080697924 0.0323251 -0.03487476
0001b0 16 a1 11 be 6a 79 a3 3b e1 4b 8f 3c 0a a2 79 3d
       -0.14221606 0.004988839 0.017492237 0.060945548
0001c0 ae b1 a8 bd 53 75 2a 3c 1a 1b 10 3e 06 39 c0 bc
       -0.08237015 0.010403949 0.14072838 -0.02346469
0001d0 0d 38 3a 3e 74 0e 7a 3d cb b0 15 3e 64 f7 58 bb
       0.18185444 0.06104894 0.14618222 -0.003310644
0001e0 04 73 72 3d 23 ba 97 bb a8 40 fb bd f7 2d b9 3d
       0.05919172 -0.0046303435 -0.122681916 0.0904197
0001f0 e0 4e ae 3d da 21 72 bd 36 cd a6 ba 48 1f e7 3c
       0.08511138 -0.059114315 -0.0012725953 0.028213158
000200 07 53 06 3e 45 8e b4 be f7 17 01 3e 70 92 7e 3e
       0.1311761 -0.35264793 0.12606798 0.24860549
000210 e8 39 60 be f3 34 a5 bd 03 b4 fb 3d 89 35 53 3e
       -0.2189709 -0.0806674 0.12290194 0.20625891
000220 14 fe 56 3d c7 6b 92 3d de f2 cd 3b b8 a9 81 bd
       0.0524884 0.07149463 0.0062850555 -0.063311994
000230 cb b5 f6 bc 85 4f b3 3d 70 ad f1 3c 73 7c 18 3d
       -0.030115983 0.087554015 0.029501647 0.03722806
000240 60 34 a8 bd 01 57 6c 3d e9 a2 d4 bd 35 fa ea 3d
       -0.08213115 0.05770016 -0.10382635 0.114735045
000250 0e 47 27 3c 98 8e 03 3e f2 8d 17 bc 8f f1 4b 3e
       0.010209812 0.12847364 -0.009250151 0.19916366
000260 72 2d ee 3d 64 35 a6 bd 9a 8e b2 3d ab 23 2b 3e
       0.11629762 -0.08115652 0.08718605 0.16712825
000270 ef 8c 03 3e 6b fe 74 3e 26 04 40 be 07 53 13 bb
       0.1284673 0.23925178 -0.18751583 -0.0022479908
000280 9f 6f 01 3b 66 73 f6 3d d3 c0 81 3b cf 48 2b 3d
       0.001975037 0.12033729 0.003959754 0.041817483
000290 6f da ea bd a6 8a 15 3e c7 39 e5 3d ba 6b 81 3d
       -0.11467444 0.14603671 0.11192661 0.06319375
0002a0 cd 18 9a 3d 7d 2e 55 bd 03 8f b3 bd 7f 42 22 be
       0.075242616 -0.052046288 -0.08767512 -0.15845679
0002b0 fb 0d 2b 3a 6f c2 9a bd ce b4 8d 3d 41 c6 4a be
       0.00065252156 -0.075566165 0.069192514 -0.1980219
0002c0 32 7e 94 bd 90 2d 3b bd 3a a0 22 3e f1 85 c9 bb
       -0.07250632 -0.04569775 0.15881434 -0.0061500003
0002d0 49 36 05 3e 30 55 cb bd 57 90 b2 bd 68 2d c0 3d
       0.1300899 -0.099283576 -0.08718937 0.093836606
0002e0 85 c7 54 bd d8 49 d4 3d 83 ab 83 3d 5c 47 b0 bb
       -0.05194809 0.10365647 0.06429198 -0.0053796005
0002f0 12 f9 b8 3c 60 dc 83 3e ed 21 bf 3e 43 f6 35 3e
       0.022579703 0.2575407 0.3733057 0.17769723
000300 84 94 ac 3c cc f3 79 bc a6 91 b7 bd 5d f7 4e bb
       0.021066912 -0.01525588 -0.08963327 -0.0031580545
000310 13 ce b9 3d eb 1c 18 be 3f e7 81 bd 3b f8 31 be
       0.09072509 -0.14854781 -0.06342935 -0.17379849
000320 e2 a4 ee 3d 27 cc 8a 3c 31 0f d1 bd b1 fa 65 be
       0.11652543 0.01694305 -0.10207976 -0.22458912
000330 fc c2 8c bd 71 51 1b 3d 45 ae 93 3d 7f 1d 1b 3e
       -0.06873128 0.037919465 0.07210974 0.1514797
000340 a6 87 42 be 15 20 f3 bd 15 52 59 3d 71 f9 9c 3c
       -0.18997058 -0.118713535 0.053056795 0.019161912
000350 7c 9b f5 3d 72 ce b5 bb d5 5c 3d 3e 28 30 3e be
       0.11992547 -0.005548292 0.18492444 -0.18573058
000360 36 01 15 3e f7 34 86 3d 26 90 7c bd fe e6 8d 3d
       0.14551243 0.06553071 -0.06166091 0.06928824
000370 5c 6b 21 3e 4b bb 64 3d a3 01 2d bd 8b 48 75 bd
       0.1576361 0.05584268 -0.04223789 -0.059883635
000380 d0 1f 50 3e 08 f1 b6 3d 73 cd ff 3d df 37 23 bd
       0.20324636 0.08932692 0.12490358 -0.039848205
000390 e4 a1 82 3d 2d 4b 63 3e 92 a4 bd bc 22 87 98 bd
       0.063785344 0.22196646 -0.023149762 -0.074476495
0003a0 66 a7 37 3d 56 be 9b 3d fa 24 5f bd 7d 4f 26 3d
       0.044837378 0.07604663 -0.054478623 0.04060315
0003b0 e1 48 23 3e 06 68 2c 3e 32 e5 f4 bb c3 f0 91 3d
       0.1594577 0.16836557 -0.0074736113 0.07126
0003c0 fe 69 a5 bd f2 81 5b bd 04 f3 39 3e dc cb 26 3e
       -0.08076857 -0.053590722 0.1815911 0.16288704
0003d0 6f 10 02 3e 6e 65 dd bd 33 6e 32 bd a2 ef 03 be
       0.12701581 -0.10810362 -0.043562125 -0.12884381
0003e0 5d 8d a0 bd 4c a6 af 3c 5e 30 8f 3d 07 aa 03 3e
       -0.07839463 0.021441601 0.06991647 0.12857829
0003f0 01 52 b7 3e ad 45 cc bd 43 85 21 3e 48 4b 6b 3d
       0.35804752 -0.09974227 0.15773492 0.05744484

fc2.bias f4 [128]
000000 62 4f 4c bc 22 e1 04 3e 56 f9 0c 3e 4f c0 9f 3d
       -0.012470098 0.12976506 0.13766989 0.07800352
000010 0f 46 e6 bb a2 0d 21 3e 11 24 e9 3d 54 14 4b 3e
       -0.0070273946 0.15727857 0.11383832 0.19831973
000020 bc 6c a9 3d 59 e9 96 bd b6 e4 6c be 5a a7 10 ba
       0.082726926 -0.07368726 -0.23134121 -0.00055181014
000030 dd d1 2d 3c 96 5d 14 bc 18 a1 94 bd 52 3b b5 3d
       0.010609117 -0.009055516 -0.07257289 0.08849205
000040 a2 d9 41 bc 3c 08 fc bd 0d d7 4c 3e fb a1 cd 3d
       -0.011831673 -0.12306258 0.2000391 0.10040661
000050 a0 0f eb bc 4e 67 1e bc 7b fe 03 bd fb 7a 45 3c
       -0.028693974 -0.009668184 -0.032225113 0.012053247
000060 43 a0 9b 3d 88 f3 02 3d a7 d0 8a 3d 94 f5 47 3e
       0.07598927 0.03197053 0.067780785 0.19527274
000070 9a 03 c1 bd fa 05 7e 3c 8a 02 da 3d 26 04 7e 3d
       -0.09424515 0.015504355 0.106450155 0.062015675
000080 35 fc ac bd c2 ae f7 3b 5b 16 9d 3c 80 bf ce bd
       -0.08446542 0.0075586746 0.019175699 -0.100951195
000090 30 0c de bd 0c 59 9d ba 56 a6 02 be 59 d9 0e 3e
       -0.10842168 -0.0012004687 -0.12758765 0.13950099
0000a0 91 c6 0b 3e e6 29 4d bd 4a bd 33 ba 4c 30 2e 3d
       0.13649966 -0.050088786 -0.00068565144 0.04252653
0000b0 04 bd dd bb 79 29 1f 3e be 03 fa bc c5 ac 9b 3c
       -0.006766917 0.15543164 -0.030519363 0.019003281
0000c0 92 1b a1 bd aa ba 25 3b e2 77 28 3d d6 d1 a8 3c
       -0.07866587 0.0025288262 0.041129954 0.02060787
0000d0 de ea 03 3e eb 02 f0 bd f6 88 93 3d de 75 a7 3d
       0.12882563 -0.117193066 0.072038576 0.08176778
0000e0 31 db 0a be c5 e7 93 3d 53 1b 07 3d 5d d1 72 bb
       -0.13560177 0.07221941 0.032985043 -0.003705106
0000f0 ca d9 44 bd 7d 5e 2e 3e 2f 99 b3 bc bf a0 c7 bd
       -0.048059262 0.17028232 -0.02192363 -0.09747457
000100 f2 98 00 3c 9e 01 0c be 32 ac cc bd 5e b8 c5 3d
       0.007848965 -0.13672492 -0.09993781 0.09654306
000110 f5 30 33 be 36 c0 0b be 21 77 e5 bc 13 c7 5f bd
       -0.17499144 -0.13647541 -0.028010907 -0.05463321
000120 df b3 23 3d 0d 6d dd bd db 59 93 bc 71 b0 d1 bc
       0.03996646 -0.108118154 -0.017987182 -0.02559683
000130 4d 70 2b 3e f6 dd ce bd af 18 b6 bd 5a 65 db bc
       0.16742058 -0.101009294 -0.08891427 -0.026781727
000140 ef e8 aa bc ea 15 56 3d 9c d8 bc 3c 56 82 dd 3d
       -0.020863025 0.052266993 0.023052506 0.10815875
000150 a9 67 aa 3d 83 c5 d3 bd cf 02 0e 3e 58 47 4d bd
       0.08320553 -0.10340407 0.13868259 -0.050116867
000160 78 5a 2e 3e 8b f7 03 3b bd 12 58 3d 92 70 9f bb
       0.17026699 0.002013656 0.052752245 -0.0048657143
000170 7b 0c ae 3d ad c5 a2 bb ae a4 10 bd 83 f1 d6 bc
       0.08498474 -0.0049674124 -0.0353133 -0.026238209
000180 8f 34 1b be 0c 84 17 3e 14 c3 d7 bd bf dc 8b 3d
       -0.15156768 0.14796466 -0.10535255 0.06829213
000190 ad 54 10 bd 31 07 33 bd e7 a5 d6 bd 12 00 d6 3d
       -0.035237003 -0.04370803 -0.10480862 0.10449232
0001a0 56 9e 49 bd c9 ea d6 3d b8 4b 8a 3e 98 b0 01 3e
       -0.049223267 0.104940005 0.27010894 0.12665021
0001b0 78 27 c6 3c ea b6 a3 bd 6b 07 0d 3d 72 be 83 3b
       0.024188742 -0.079938725 0.034430902 0.0040205056
0001c0 a2 c8 c5 bd cc 36 ae 3b 2d a0 e8 bc 93 9a b3 3d
       -0.09657408 0.005316591 -0.02839669 0.08769717
0001d0 83 40 08 3c 0e b4 1f bd 61 00 b4 bd c2 a1 80 3d
       0.008316162 -0.038990073 -0.08789135 0.06280853
0001e0 dd 85 59 bd 32 29 5f 3d f9 1d ff bd b2 67 a4 3d
       -0.053106178 0.054482646 -0.12456889 0.08027591
0001f0 a8 d5 5e 3d 6b aa 51 bd 98 4d 42 3c e8 dc 24 3d
       0.054402977 -0.051187914 0.01185932 0.040249735

fc3.weight f4 [2, 128]
000000 4c b5 d7 3d 02 f9 17 be ef d4 19 be c7 e9 e1 3d
       0.105326265 -0.14841083 -0.15022634 0.110309176
000010 a6 45 8a 3e b0 c3 b8 3d f1 12 91 3c 03 45 97 3e
       0.27006263 0.090216994 0.017709227 0.2954484
000020 7e d2 0a 3e 49 31 c2 be 19 43 02 be 33 70 d6 be
       0.13556859 -0.37928227 -0.12720908 -0.41882476
000030 4a 8c 4e 3c 9f 62 4e 3e e6 37 97 be 78 fd 4f 3a
       0.01260669 0.20154808 -0.29534835 0.0007934193
000040 33 3c 51 be 59 64 14 bf d9 c0 20 be 86 8b b8 be
       -0.2043312 -0.5796562 -0.15698566 -0.36043948
000050 40 be b9 be d9 29 3b be 72 66 85 bd 06 75 6b be
       -0.36277962 -0.18277682 -0.065136805 -0.2299386
000060 2f c7 39 be 26 dc 92 3e 79 8c 8b 3b 6f fc fa bd
       -0.18142389 0.28683585 0.004258689 -0.12255179
000070 9a 3f 04 bd a5 10 0b 3d 59 2e 12 3e 2c e3 1c bd
       -0.032287218 0.03395142 0.14275493 -0.038302585
000080 a1 c6 ef 3d 19 a9 7e be 2d 74 8a be 27 a3 c8 be
       0.11707807 -0.24869193 -0.2704176 -0.39186975
000090 a1 c3 55 be b3 fe e9 be b4 ee 98 bd 54 25 4d 3c
       -0.20875408 -0.45702133 -0.07467404 0.012521107
0000a0 a8 b9 66 3e af 97 b5 be 52 04 c4 bc 34 f1 85 be
       0.2253176 -0.35467288 -0.023927841 -0.26160586
0000b0 52 50 87 be 4b 55 9d 3e da dd 31 3e 5d 94 b2 3d
       -0.26428467 0.30729136 0.17369786 0.08719704
0000c0 0a 2f 68 3e 92 35 b5 be 64 6d 62 3b 02 69 2d 3d
       0.22674194 -0.35392433 0.0034550065 0.04233647
0000d0 17 3b e2 bd a2 eb 31 3e d3 57 30 be 16 21 83 be
       -0.11046427 0.17375043 -0.17221002 -0.2561118
0000e0 6d 5f 25 be 6e 61 f1 3d 34 0a 24 be 09 4f e9 3d
       -0.16149683 0.11786161 -0.16019517 0.11392028
0000f0 5f 56 3b 3e e5 f5 32 bc 73 89 8b ba 5f 2c 43 3e
       0.18294667 -0.010922884 -0.0010645821 0.19059895
000100 42 cd 23 be bf fd 2c 3c 3a 32 4f 3b 9e 3f 05 be
       -0.15996268 0.010558545 0.003161563 -0.1301255
000110 5d ea bd 3e 5e 6e c8 3e 46 6e 2e 3d 54 c1 4c 3e
       0.37092867 0.39146703 0.042585634 0.19995624
000120 b8 8a b8 bd 45 67 20 bd 80 25 45 3e 12 63 3e 3e
       -0.090108335 -0.039160985 0.19252586 0.1859248
000130 93 ae 76 3e f7 c2 a2 be c3 4a ee be c6 43 92 3e
       0.24090032 -0.3178937 -0.46541414 0.28567332
000140 63 7a 4e be f2 f1 38 be 54 92 80 3e 6c 21 ab 3c
       -0.20163874 -0.18061045 0.2511164 0.02088996
000150 ca 46 69 3d c1 b8 05 be c1 1c 26 bc 61 b8 d5 be
       0.056952275 -0.1305876 -0.010138691 -0.41742232
000160 d0 44 ac bd 09 6d 47 be 8d e0 d3 be 77 11 a4 be
       -0.084115624 -0.19475187 -0.41382256 -0.32044575
000170 ee 02 4f be 64 23 bc 3c c5 5c 82 be 1b 9b 20 3d
       -0.20215961 0.022966094 -0.25461403 0.03921042
000180 7a be c3 3e f4 10 b6 3e 99 2b b2 3e a5 56 5c be
       0.3823126 0.3555981 0.34798887 -0.21517427
000190 d5 7f cd bc 02 ff a2 be b4 11 8e 3e 7a a7 c0 3c
       -0.02508537 -0.3183518 0.2774788 0.023517359
0001a0 2c 2e 4e 3e ea f0 7f be f1 77 0b 3d 4f 78 92 3e
       0.201348 -0.24994245 0.034049932 0.28607413
0001b0 aa f0 cf bd 05 ad 08 3e fd ff 93 3d 10 af d9 bd
       -0.10153325 0.13347252 0.0722656 -0.10629094
0001c0 51 7b 1f bf e1 c0 fc 3d 54 60 06 be cc 53 87 bd
       -0.6229754 0.12341476 -0.13122684 -0.0660778
0001d0 e2 23 5c be 01 d3 7a be c6 81 d8 3e 93 dc c4 be
       -0.21498063 -0.24494554 0.4228651 -0.38449535
0001e0 af 92 20 3e ef 7e e2 bc d0 32 12 3e 44 e3 08 3d
       0.15680955 -0.027648417 0.14277196 0.033419862
0001f0 87 84 95 3d 40 32 37 3e 16 ae 1c 3e 3c 72 76 bc
       0.07300668 0.17890263 0.15300784 -0.015041884
000200 6f 9d af be b4 d9 87 be 03 32 b4 3e c0 1b a0 3e
       -0.342998 -0.26533282 0.35194406 0.31271172
000210 d6 3b 2b 3d f7 9b ce 3e 2c 81 d7 be 31 97 79 3e
       0.04180511 0.40353367 -0.42090738 0.24374081
000220 b9 10 4b 3e 20 06 76 3d f6 ac 1a 3f 2e 86 d1 bd
       0.19830598 0.060064435 0.6042017 -0.10230671
000230 ed db bc 3e f7 7a 06 bd 92 db c5 3d ed 96 0b bf
       0.3688654 -0.032832112 0.0966102 -0.5452717
000240 15 cf 37 3d 31 9b 30 be 8e ec b1 be d9 9d c2 3c
       0.044875223 -0.17246701 -0.3475079 0.023756908
000250 ed cc 92 3d 11 f1 26 be 12 52 b8 be 74 16 22 be
       0.07167993 -0.16302897 -0.36000115 -0.15828878
000260 52 d5 cb 3d 2b 6a ae bc 9b f0 8e 3e 30 33 cc be
       0.09952797 -0.02129086 0.27917942 -0.39882803
000270 8c 42 29 bf 9d a1 bf 3e a2 8f 94 3e 96 05 d7 3e
       -0.6611717 0.3742799 0.29015833 0.4199645
000280 b1 f9 cb 3e cc 0c 0b be 37 1f 32 be 7f e3 06 3e
       0.39838937 -0.135791 -0.1739472 0.1317272
000290 e1 54 f9 be 10 1c e5 bd 45 e5 b0 3e 97 16 aa 3e
       -0.4869757 -0.11186993 0.3454992 0.3322036
0002a0 ee aa ba 3d 7a 85 5c be 5d 11 cb be 2c 7b 27 be
       0.091146335 -0.21535292 -0.39661685 -0.1635558
0002b0 c7 31 e5 be e4 50 05 3e 74 fa 36 3d 18 62 78 3e
       -0.4476454 0.13019139 0.044672444 0.2425617
0002c0 3b ac f7 be 57 e0 1c bf 8e 31 b4 be b1 00 90 3e
       -0.4837359 -0.61279815 -0.35194057 0.28125528
0002d0 5d 19 5e be 72 09 92 be 1b ae 9f bd 3c 85 64 be
       -0.21689363 -0.2852283 -0.0779688 -0.2231645
0002e0 51 df ce 3e ce e9 a5 3e db a6 9a 3e 3a f4 03 bf
       0.40404752 0.3240494 0.30205426 -0.51544535
0002f0 e6 cf a0 3e 10 73 b2 3e 3d e9 c6 3e c8 f2 8c bd
       0.31408614 0.3485341 0.38849822 -0.06882244
000300 f7 66 ac bc 57 03 0c bf f1 9c 6c bf 2b 78 32 3e
       -0.021045191 -0.54692596 -0.92426974 0.17428653
000310 8f 06 98 be f3 96 71 3d 19 d5 be 3e 86 07 9f be
       -0.29692504 0.058981847 0.37271956 -0.31060427
000320 e6 0c a7 be 27 eb e6 3e f4 81 a7 bd 81 5d 23 be
       -0.32627028 0.45101282 -0.081790835 -0.15953638
000330 3c 08 2f 3e 6c b7 20 3e 1d a1 b4 bc 6c da e5 3d
       0.17092985 0.1569497 -0.022049481 0.11223301
000340 9a ac 63 be 5a cd 77 be b4 8c 9e be cd 4b b8 3e
       -0.22233811 -0.24199429 -0.30966723 0.3599533
000350 79 a1 8a 3e ce 0d 57 3e e6 34 8b 3e 90 3f 82 be
       0.2707632 0.2100136 0.27188796 -0.2543912
000360 20 35 1f 3e 34 93 99 3c 93 a4 9d be ec 25 a7 bd
       0.1554761 0.01874695 -0.30789623 -0.0816153
000370 da 8b f5 bd 16 a2 b2 3e da a2 24 be 57 89 38 be
       -0.11989565 0.34889287 -0.16077748 -0.18021141
000380 c4 65 19 3d 44 ed 96 bd d4 46 d0 bc f3 19 cb 3d
       0.037450567 -0.073694736 -0.025424398 0.09917059
000390 f1 05 19 3f d2 13 29 be 38 70 4b be 34 1a 83 3e
       0.5977469 -0.16511467 -0.19867027 0.2560593
0003a0 8a 63 14 bf e4 e4 d0 bd 12 24 26 bf d5 89 47 3e
       -0.57964385 -0.101999074 -0.6489879 0.19486172
0003b0 29 e0 3d bf 51 fd 04 bb e9 37 be 3e ed ab 91 3e
       -0.74170166 -0.002029259 0.3715203 0.2845148
0003c0 fd 52 a7 bc 82 27 f9 be f4 ab 8c 3d 6e 34 81 3e
       -0.020425314 -0.48662955 0.06868735 0.25235313
0003d0 78 7a 0c be c9 0f 21 be d8 4c 78 3b c4 2c 16 bd
       -0.13718593 -0.15728678 0.00378876 -0.036663786
0003e0 d7 c5 5d be 8e a6 a3 3e b7 e6 04 bf ad 35 8c 3e
       -0.21657501 0.3196301 -0.5191454 0.273847
0003f0 04 2c 46 3e cb b1 d5 3d 76 2b 2d be ce d6 ab 3e
       0.19352728 0.10434302 -0.1691111 0.3356232

fc3.bias f4 [2]
000000 fd 53 6f 3d 25 d8 6e bc
       0.058429707 -0.0145779

bn1.weight f4 [128]
000000 51 86 97 3e ba b1 da 3e a8 29 87 3f fe b3 1d 3f
       0.29594663 0.4271372 1.0559587 0.6160277
000010 bf 40 00 3f 74 88 8d 3f 8d bd 82 3f 2e ff 82 3f
       0.50098795 1.1057267 1.0214096 1.0234125
000020 cf d6 a7 3e 55 93 57 3f 90 a4 20 3f 48 b7 85 3f
       0.32781073 0.84209186 0.627511 1.0446558
000030 3f 60 8a 3f ae c7 fe 3e 89 c8 09 3f e5 6f a3 3e
       1.0810622 0.4976172 0.5382162 0.31921306
000040 ff c9 91 3f 3b 6e 67 3f e9 17 87 3f a4 7a 56 3f
       1.1389769 0.90402573 1.0554172 0.83780885
000050 84 5f 65 3f 67 cb 8b 3f d6 8d 85 3f 29 11 ea 3e
       0.8959887 1.0921448 1.043391 0.45716217
000060 81 b5 10 3f 43 ca 38 3f d2 ac 65 3f cb 5f 08 3f
       0.56526953 0.72183627 0.8971683 0.5327117
000070 0f 2d d4 be 6c 49 99 3f 57 7a 65 3f 24 ac 76 3f
       -0.41440627 1.1975532 0.896398 0.96356416
000080 4c 71 92 3f 8d 44 10 3f ec e4 93 3f d4 0f 91 3f
       1.1440825 0.563546 1.1554236 1.1332955
000090 b4 a4 0d 3f 98 eb e8 3e 10 f5 8f 3f b7 7c 8a 3f
       0.5532944 0.45492244 1.1246662 1.081931
0000a0 51 75 86 3f 27 6c d0 3f f3 54 4a 3f 51 0b 8e 3f
       1.0504552 1.6283005 0.7903587 1.1097203
0000b0 91 0b 6f 3f 38 eb 81 3f 85 6d 9a 3f bb fa 12 3f
       0.93377024 1.0149908 1.2064673 0.57413834
0000c0 19 da 0d 3f d7 3d 65 3f 6a 25 87 3f 48 87 9d 3f
       0.55410916 0.89547485 1.0558293 1.230691
0000d0 db c8 94 3f 7a aa 35 3f d3 4e 42 3f 66 5c 01 3f
       1.1623796 0.7096325 0.75901526 0.50531614
0000e0 1e 5d 1e 3f 18 9f 78 3f 45 05 33 3f 31 fd 01 3f
       0.61860836 0.9711776 0.69929916 0.50776964
0000f0 98 9f 80 3f 9f 2b e1 3e ac ce f2 3e e9 14 e7 3e
       1.0048704 0.43978593 0.47423303 0.4513314
000100 d5 fa 46 3f 4a ba 5e 3f 9e 05 42 3f e2 ea 78 3f
       0.7772649 0.87003005 0.7578982 0.972334
000110 10 c1 42 3f ec e2 88 3e 04 56 c9 3e f7 8d 99 3f
       0.7607584 0.26735628 0.39323437 1.1996449
000120 83 a8 76 3f 1b 4e 5d 3f 93 ed 4f 3f 91 a1 f0 3e
       0.9635088 0.86447304 0.81221884 0.46998265
000130 62 50 0b 3f af c9 1f 3f 9a 77 a8 3e 24 3b b9 3f
       0.5441953 0.6241712 0.3290375 1.4471173
000140 01 0c 81 3f 83 b8 42 3f 36 39 83 3f 50 72 64 3f
       1.0081788 0.7606279 1.0251834 0.8923693
000150 14 7b 9c 3f c1 40 4a 3f ba 78 1c 3f 55 da f7 3e
       1.222506 0.79005057 0.61121714 0.48408762
000160 db a2 a3 3f cc 7d 15 3f a7 6e 6e 3f 71 d0 12 3f
       1.2784075 0.58395076 0.9313759 0.57349306
000170 ff 66 9b 3f 33 35 5d 3f ba 8c 5f 3f 10 7f 71 3f
       1.2140807 0.864093 0.87324107 0.94334507
000180 b5 b4 8c 3f 61 5c a2 3e 08 85 8c 3f f5 db 7e 3f
       1.0992647 0.31711105 1.0978098 0.9955438
000190 e7 e2 82 3f 89 4c 51 3f af b5 58 3f 08 6b ef 3e
       1.0225495 0.8175741 0.8465223 0.46761346
0001a0 e1 bf 31 3f 8f 5b 1f 3f 76 5c 98 3e b9 d9 8d 3f
       0.6943341 0.6224908 0.29758042 1.1082069
0001b0 95 b3 fb 3e 18 d7 95 3f f1 78 83 3f ac 02 88 3f
       0.49160448 1.1706266 1.0271283 1.0625815
0001c0 fa 70 91 3f 61 b9 39 3f 1a 13 64 3f 02 92 06 3f
       1.1362603 0.7254849 0.89091647 0.5256654
0001d0 be 78 08 3f 3f 13 79 3f 0d f0 8a 3f 8b c4 cf 3e
       0.5330924 0.9729499 1.0854508 0.40579638
0001e0 10 18 8c 3f a8 16 39 3f ea 15 71 3f e7 dc 28 3f
       1.0944843 0.72300196 0.94174063 0.6596207
0001f0 cb e3 15 3f 9f b4 df 3e 54 83 50 3f a2 1f 37 3f
       0.5855071 0.4369249 0.8145039 0.7153264

bn1.bias f4 [128]
000000 ec 3a 38 be 0e f9 a8 bd 05 b5 83 3d d7 95 a0 bd
       -0.17991227 -0.082506284 0.06431011 -0.0784108
000010 0c e5 90 3c fc e5 65 3e a1 33 c9 bd 2b 13 ed bd
       0.017687343 0.22451013 -0.098243006 -0.115759216
000020 22 72 a5 3d 6d ee 25 bd 69 1c a9 bc 74 71 73 bd
       0.0807841 -0.040510584 -0.02064343 -0.05943437
000030 03 c1 05 3c 61 43 04 3e a1 6f 0f bc 50 d6 be 3d
       0.008163693 0.12916328 -0.008754642 0.093182206
000040 13 98 8f 3e 68 c9 f8 bd d7 05 34 bd d0 d5 27 bd
       0.2804571 -0.1214779 -0.04395088 -0.040975392
000050 e3 0a 6c 3b 3b cb 8a bd 6c 7b be bb ff c9 ad bd
       0.0036017231 -0.067770444 -0.005813053 -0.08485793
000060 0b 5d 8c 3d fe 32 ec 3d 2a 81 73 3d f8 59 eb bd
       0.06853684 0.115331635 0.059449352 -0.114917696
000070 57 b5 ec 3d b6 d6 33 bd 97 5a 51 3d fe 32 60 bd
       0.11558025 -0.043905936 0.051111784 -0.05473613
000080 58 24 84 bc 4f f7 b7 bd b4 9a 05 3e 40 1a a8 bc
       -0.016130611 -0.08982717 0.13047296 -0.02052033
000090 e0 bf d7 bd dd 37 01 be ad f0 97 bd 85 23 1b 3a
       -0.10534644 -0.12618966 -0.07418952 0.00059180736
0000a0 19 6c 11 be 42 76 ae bd 2b d7 65 3d 4a c1 72 bd
       -0.14201392 -0.0851865 0.056113403 -0.059266366
0000b0 e3 16 4a 3d f7 41 e6 bb f3 a1 4e bd 51 83 95 3d
       0.049338233 -0.0070269066 -0.050447416 0.07300437
0000c0 7c 87 9c 3c bb ad 9d bc 9d 12 6d 3c 1c 3c 7b 3c
       0.019107573 -0.01924788 0.01446977 0.015334155
0000d0 80 56 ae bc 8a 47 26 bc dc 41 67 3d f6 36 ab bd
       -0.02128148 -0.010148892 0.056459293 -0.08360092
0000e0 12 8f 8d bd c8 8c 58 bd 84 6e 78 bc 60 63 85 3d
       -0.06912054 -0.052868634 -0.015163068 0.06513095
0000f0 7f 5c 8c bc 67 f5 c7 3a 57 f2 19 3d ff 0e c2 bc
       -0.01713395 0.0015255631 0.03758463 -0.023688791
000100 ab 9e ec 3d 90 8b 54 3d e4 e0 3e 3e 86 d7 21 3d
       0.11553701 0.05189091 0.18640476 0.03951218
000110 ae 91 97 3b 47 f4 e9 bd 8d 83 9f bc a3 57 f9 3c
       0.0046255207 -0.11423545 -0.019471908 0.030437296
000120 a3 03 db bd 2a aa a1 3c da 0a 18 bd 1f e1 37 be
       -0.10694053 0.01973446 -0.037119724 -0.1795697
000130 e3 f6 2e bc 84 5b 57 3d 61 c6 ae 3d 8f 42 82 3d
       -0.01067898 0.05257751 0.085339315 0.06360351
000140 26 50 28 3b 0e df fc bd 11 c3 98 3d a1 de 33 bd
       0.0025682538 -0.12347232 0.07459081 -0.043913487
000150 bf c4 cf bd 3b a9 dc 3c 4b 23 dc 3d 69 13 03 be
       -0.10144948 0.026936164 0.10748919 -0.12800373
000160 aa be e0 bc b1 11 7c bc 3f 8e 8c bd 79 c5 a8 bc
       -0.027434666 -0.015385077 -0.06863069 -0.020601975
000170 c3 01 44 3c 35 e7 72 3d 5a 80 cc bc 5c 2d 6a 3d
       0.011963311 0.059302527 -0.024963547 0.057172164
000180 5a bb 84 3c 15 69 5a 3b 2c 87 ee 3c f0 ef 7d 3c
       0.016202617 0.0033326794 0.02911719 0.0154991
000190 de 52 ca bc 84 1a 10 3c ba a6 db 3c 54 77 18 bc
       -0.024697717 0.008795384 0.0268129 -0.009305794
0001a0 1c 54 67 bd af 58 d2 bd 59 20 c2 3d e7 20 3e 3b
       -0.056476697 -0.10270821 0.09478826 0.002901131
0001b0 7b 46 1f 3d 9c 23 1e 3b 57 b4 24 bd 01 84 1c bc
       0.038885575 0.0024130112 -0.040211048 -0.009552957
0001c0 80 3a 5c 3d a1 ef 4f ba 67 81 e5 bc 06 cc 6e bd
       0.053766727 -0.0007932131 -0.028015805 -0.05830004
0001d0 b7 a9 ce b9 c3 b0 ac 3d fa 95 e1 bd 9a 5a 55 bd
       -0.0003941783 0.08432152 -0.11014934 -0.052088358
0001e0 8f c2 d1 bd e9 d5 9f bc 77 79 99 3c ec cc 46 bc
       -0.10242187 -0.01951118 0.018734677 -0.012133818
0001f0 cf 04 f6 3c f9 3f 0a be a5 1e d1 bd 09 5f 20 3d
       0.03003159 -0.13500966 -0.10210923 0.039153133

bn1.running_mean f4 [128]
000000 04 00 00 00 52 06 14 3f 56 d2 7d 3f 55 28 32 3e
       6e-45 0.57822144 0.9914907 0.17398198
000010 8c 74 03 3f 04 00 00 00 04 00 00 00 ce b3 77 3e
       0.5134971 6e-45 6e-45 0.24189684
000020 2c bb 0d 3e 3f 13 d4 3f 8a 70 37 3f 18 55 83 3e
       0.13840932 1.6568373 0.71656096 0.2565086
000030 e0 c3 1b 3f 60 98 89 3f 12 bc b5 3e 2f 44 ca 3d
       0.60845757 1.0749626 0.3549505 0.09876286
000040 b4 c7 c6 3e 86 a3 4a 3e 88 90 c4 3e 8a 46 b4 3f
       0.38824236 0.19788942 0.3839152 1.4084027
000050 08 dc c7 3f 57 b7 e3 3f 35 4a 93 3d 95 af 72 3f
       1.5614023 1.7790326 0.07191888 0.94799167
000060 8b 3a 91 3e 04 00 00 00 4d 49 9c 3e 68 c4 5d 3e
       0.28364977 6e-45 0.30524674 0.21656954
000070 26 e5 26 3f 16 ad 84 3f b2 44 4d 3f 07 cf 19 3f
       0.651934 1.0365322 0.80182946 0.60081524
000080 a9 97 9a 3f 5c 8a 78 3d 12 7a 27 3e c5 9b 8d 3f
       1.2077533 0.060678825 0.1635516 1.1063162
000090 f7 b2 8f 3f 1d 27 f9 3b b0 bc 31 3f ac a6 48 3f
       1.1226491 0.0076035396 0.6942854 0.7837932
0000a0 55 c1 28 3e 29 3a bb 3f 76 7d 8f 3f 72 84 ac 3f
       0.1648 1.4627124 1.1210163 1.3477919
0000b0 32 8f ce 3f 5b 91 00 3f 88 f6 71 3f 4f ca 91 3f
       1.613745 0.50221795 0.945168 1.1389865
0000c0 ae 8f 3f 3f a1 4e 4a 3f 0a 64 8d 3f 2b 18 67 40
       0.7482861 0.7902623 1.1046154 3.61085
0000d0 88 24 d1 3e d0 9f 24 40 51 b1 75 3e a3 ef 29 3f
       0.40848184 2.5722542 0.23993422 0.6638128
0000e0 1f 5c 20 3f 9d 29 89 3f d3 f4 ca 3f a2 f4 2d 3f
       0.62640566 1.0715824 1.5855964 0.67951405
0000f0 83 67 cb 3e 2c 09 99 3f 8a 48 e9 3f 63 e3 3a 3d
       0.3972741 1.1955924 1.8225262 0.04562701
000100 b6 a5 0f 3e 7a 1c db 3e 64 1c 40 3e a5 8e ee 3e
       0.14028057 0.42795163 0.1876083 0.46593204
000110 24 2b 6b 3f 97 26 62 40 02 f6 9a 3f e4 4e 6b 3f
       0.918627 3.5336053 1.2106326 0.9191725
000120 cf 84 67 3f e8 23 c0 3f 17 c7 d7 3e ce 48 a6 3f
       0.90437025 1.5010958 0.4214408 1.2990968
000130 0c e8 ce 3e 0e cd b6 3e 7f 60 2f 40 52 cd 90 3d
       0.40411413 0.3570332 2.7402647 0.07070412
000140 dc bd 31 40 df 05 14 3f cf 01 e9 3e fe ba 99 3e
       2.777213 0.5782146 0.45509192 0.30025476
000150 b3 57 7b 40 35 af 32 40 ac ba 13 3f 0b 13 05 40
       3.9272277 2.7919438 0.57706714 2.0792873
000160 95 04 d9 3f ec b3 cd 3e 9b e6 dc 3e 20 44 cc 3f
       1.6954523 0.40176332 0.43144688 1.595829
000170 83 16 81 3e 91 54 2b 3e d8 b0 ac 3e 45 12 3b 3f
       0.25212488 0.16731478 0.3372867 0.7307475
000180 64 64 34 3f e8 6e 94 3d 20 56 09 3d 54 45 e7 3f
       0.70465684 0.07247716 0.0335294 1.8068032
000190 09 09 84 3f 69 a3 b8 3d 73 d1 fd 3d 94 8c 1b 3e
       1.0315257 0.09015543 0.12393465 0.15190345
0001a0 d0 13 fc 3e e1 be 97 3f 91 00 47 3f c9 87 57 3f
       0.49233866 1.1855127 0.7773524 0.84191567
0001b0 ae 8a f9 3f 46 76 86 3f 04 00 00 00 49 19 19 3f
       1.9495447 1.0504844 6e-45 0.5980421
0001c0 d8 d4 24 40 b5 e7 a8 3e 8b 28 de 3f cc a6 3a 3f
       2.575491 0.32989278 1.7356123 0.7291076
0001d0 72 f6 ce 3e 29 0d d8 3f e5 b0 86 3f f4 e0 81 3f
       0.40422398 1.6879016 1.0522734 1.0146775
0001e0 10 8d 4d 3d 3c 14 78 3e 21 49 3c 40 dd db 83 40
       0.050183356 0.24226469 2.9419634 4.120589
0001f0 10 42 17 3e 20 a2 81 3d f9 72 c1 3d a3 91 70 3e
       0.14771295 0.06329751 0.094457574 0.23493056

bn1.running_var f4 [128]
000000 04 00 00 00 98 4f bd 3f f8 9a ee 3f c9 92 9b 3e
       6e-45 1.4789915 1.8641043 0.30385426
000010 83 f3 b4 3f 04 00 00 00 04 00 00 00 31 42 f0 3e
       1.4136814 6e-45 6e-45 0.469255
000020 28 2c 64 3e cb ed 96 40 de 5e 1a 40 54 a2 d9 3e
       0.2228247 4.7165275 2.4120402 0.4250666
000030 dd b9 b1 3f f7 9a e9 3f 74 2a 22 3f 68 04 21 3e
       1.3884846 1.8250417 0.6334603 0.15724337
000040 98 58 25 3f 10 b9 bd 3e 0d 95 44 3f 7a 2e a0 3f
       0.6458831 0.37055254 0.76789933 1.2514184
000050 32 fb 82 40 fd 63 f8 40 e3 42 00 3e b4 bc b7 3f
       4.0931635 7.7622056 0.12525515 1.4354463
000060 82 b8 26 3f 04 00 00 00 a7 71 ab 3e 69 4a d5 3e
       0.65125287 6e-45 0.33485147 0.41658333
000070 39 07 bc 3f 05 97 91 3f 15 d9 1b 40 50 13 b3 3f
       1.4689704 1.1374213 2.4351246 1.3990269
000080 c5 d5 f4 40 59 cc a9 3d e2 7c 72 3e ed bf 48 40
       7.651095 0.08290929 0.23680452 3.1367142
000090 f7 54 b0 3f 6c c3 a8 3b 3d 6b f5 3f 4f 6a 0e 40
       1.3775929 0.005150249 1.9173352 2.2252386
0000a0 ea 05 b4 3e d6 d4 84 3f 23 60 18 40 26 f8 69 40
       0.35160762 1.0377452 2.3808677 3.6557708
0000b0 8c 96 62 40 d4 c1 a3 3f 41 a9 16 40 78 69 82 40
       3.5404387 1.2793527 2.3540804 4.0753746
0000c0 e1 9b 35 40 1e 52 53 40 59 be 32 40 d7 77 dd 3f
       2.837639 3.301887 2.792868 1.7302197
0000d0 91 1e 00 3f eb 81 3a 41 88 98 e0 3e 25 2c e3 3f
       0.5004664 11.656718 0.43866372 1.7747847
0000e0 d3 30 d6 3f 89 03 8f 40 c5 46 cf 40 12 62 02 40
       1.673365 4.4691815 6.477389 2.0372357
0000f0 e8 a3 83 3f 53 9c 8f 40 03 ca 72 40 cd 16 ab 3d
       1.0284395 4.4878325 3.7935798 0.08353958
000100 c5 e5 a7 3e 9f 55 b8 3f e7 85 b0 3e 16 08 af 3f
       0.32792488 1.440113 0.3447716 1.3674343
000110 85 25 87 40 3e 00 8a 40 d4 64 76 40 55 a0 e0 3f
       4.22333 4.3125296 3.849904 1.754893
000120 e6 a3 00 40 ca 90 b8 40 be 0c 55 3f 69 ec 26 40
       2.0100036 5.7676744 0.8322257 2.6081793
000130 6d 72 68 3f d1 e9 52 3f 8d 3e c0 40 ad 6d e3 3d
       0.907996 0.82388026 6.0076356 0.11104903
000140 88 fb 99 40 fb a5 b2 3f e1 dc d4 3e 8a 92 2f 3f
       4.8119545 1.3956903 0.41574767 0.68582976
000150 ea 47 e1 40 fc ab e6 40 10 c9 e4 3f 53 f8 d1 40
       7.0400286 7.208494 1.787386 6.561563
000160 96 18 d6 40 c6 6c 8c 3f 3c 94 8b 3f 8d 77 e8 40
       6.690501 1.0970695 1.0904613 7.2645936
000170 32 ce 0f 3f 92 e0 02 3f 48 49 25 3f b2 60 d7 3f
       0.56174004 0.5112392 0.64564943 1.6826384
000180 67 ea a5 3f 36 6b 5c 3e e9 d1 38 3d 1f 93 f9 40
       1.2962159 0.21525273 0.04512206 7.799209
000190 78 0c 69 40 51 64 23 3e 2a 12 a0 3e 04 3a a3 3e
       3.641386 0.15956236 0.31263858 0.318802
0001a0 56 dd b2 3f bb 58 74 40 6e f3 34 40 e2 51 20 40
       1.3973796 3.8179157 2.8273578 2.5049977
0001b0 56 2b df 40 8f b0 28 40 04 00 00 00 67 41 ec 3f
       6.97404 2.6357763 6e-45 1.8457459
0001c0 08 a7 c8 40 b8 01 72 3f 32 5e c9 40 86 cb 12 40
       6.2703896 0.9453387 6.2927485 2.293672
0001d0 5f 22 59 3f f0 ab c2 40 08 c5 4a 40 9c 72 4d 40
       0.8481807 6.0834885 3.1682758 3.2101202
0001e0 25 6e d2 3d b5 31 c1 3e 8c 25 0b 41 e4 c4 0a 41
       0.10274915 0.37733236 8.696667 8.673069
0001f0 f4 36 80 3e 40 d7 f2 3d 2b ed 43 3e 89 cb 06 3f
       0.25041926 0.11857462 0.19133441 0.5265432
