3. Multi-Agent Reinforcement Learning/collaboration-competition/agent_1_critic_checkpoint.pth (torch_old, 83992 bytes, 9 tensors)

fcs1.weight f4 [128, 24]
00000000: 371c bf3c 0575 21bb da34 9239 b798 813d
00000010: 65ce f83d 0703 663d 8090 a0bc c8fd e9bc
00000020: ffe3 01be 86fd f83d 4c56 8a3d ef77 60bd
00000030: d9a0 0d3e e051 b2bd ccd1 1cbd f5bb 193d
00000040: 7518 15bd b8ed 7a3e 8bf4 063d 3c8a 60bd
00000050: 1838 e83d c124 303e 70e5 333d 096a fabd
00000060: 9821 29bb 9b12 c23c 20e0 4ebd d71e e8bc
00000070: 2a02 923d 0b4a 1f3e 0ec8 2a3d 00ca 91bc
00000080: b04b 5c3d eb01 fdbc 9107 853d de12 7a3d
00000090: 754a 1d3e eb1d 5c3e 4f05 afbd 0838 bfbc
000000a0: d37b ce3d 54af bcbb d479 19bd 7fe3 56bb
000000b0: c536 753c 9192 7e3d 08ff 2b3d f20c df3d
000000c0: 5822 fcbd 8a50 b53d dc5a a2bd 81d1 89bd
000000d0: 199d 6ebd d51c 593e 4097 b43d 5723 9dbd
000000e0: a50a 843d 7545 343e 047e e6bd 44c0 03be
000000f0: 7ea0 443d 10d0 1e3e 5476 6a3c e6fe 45be
00000100: c126 8e3d c156 3c3e b017 3fbc dce6 0bbd
00000110: 52b0 32bc 14b4 0e3e 32ad 3d3b fc00 d43c
00000120: 8b7e ea3c 406b d1bc 6386 d63c caa6 9dbc
00000130: 8c4b 34be b082 aebd fb19 86bd 2c5b 93bc
00000140: ea96 5c3d a474 5a3c ec4a 34bc 6da4 ba3d
00000150: 2187 22be 7c71 28be 3266 1fbc 4728 29bd
00000160: e488 3bbc dc1d 0c3e 5a14 043d c4e4 51bd
00000170: de4e 1e3d 9718 fcbd b3dc 1bbd 7396 9b3d
00000180: 0c80 5b3b f6a2 9c3e a12a 5b3d 82b2 df3c
00000190: 4bff 6f3c 09be 0bbd d76f 66bd 6bc5 04bd
000001a0: a575 2cbd 3677 803e 848b 013d 5674 39bd
000001b0: 30e6 be3d fb80 dfbc 0abe 4fbd 8fa7 813c
000001c0: 1334 3fbb 2bab ac3e db6e e3b9 2251 dd3d
000001d0: cdd9 653e 9cc6 823c 9bc6 22bc d926 fb3d
000001e0: 2fda d03c 6cf4 da3c d6e2 3e3c 8d42 5a3d
000001f0: 5e6e 8c3c 66e7 a1be 27bb bdbd 4b58 c0bc
00000200: b982 7dbc d4e9 cc3d 6d56 d4bc bf1e b1bb
00000210: 8af5 9dbb de69 2cbe b65b 8c3d 0715 91bb
00000220: e490 14bd f0d5 1a3d 6c03 0e3c 4535 503d
00000230: eb8a d43d 3293 e63d f01a d03a 3f90 403d
00000240: fd59 493d 6ee5 5d3e a3fe 563d 5647 163e
00000250: 26a1 1f3d 01b0 d9bd bb13 45bd a84c 1c3e
00000260: 0975 d2bd d05d 683e 8328 ea3c 6b4a bd3d
00000270: cb72 90bd 0a59 86bd 9bfb 183b a21c 89bc
00000280: ad83 3d3d 78fd 6b3e 6256 31bd be7f 28bd
00000290: 9440 f0bd 5d85 a3be 1aec 713d 9432 03be
000002a0: cfd5 5a3d 33ad fd3d 1385 c3bb 94ce 9d3c
000002b0: 6e88 d9bc 7e43 1a3e 2f4f 1f3c a382 ea3d
000002c0: 391d d23d ceb8 983e 3d3a 77bd 7e18 d73b
000002d0: a740 d0bd 87f9 f23d 1173 3f3d 39b3 80ba
000002e0: 92d9 473d 4b30 9f3e 7485 633d aeb2 4b3c
000002f0: dad4 ffbd 8730 b83c a6cd 6cbd 0023 b33c
00000300: 10c9 a5bd ec1f 893d dda8 023d f95a 773b
00000310: 3424 ff3d 9309 a53d 8cb9 14bd 3321 fb3c
00000320: da3c 14bd 4568 78bd 9c74 3fbd aa50 1d3d
00000330: bfbc 413c 4836 383e e020 013d 2093 7bbd
00000340: 02b9 733d f149 dfbd 5859 98bc 6bfc 91bc
00000350: 21b9 8bbd c559 8abe dec6 133d 1930 533c
00000360: 0b3b 39bd 7969 20bd e41d 5e3d ad99 2b3d
00000370: f9c3 88bd 7046 ab3d 4e50 5cbd c0ef 80bd
00000380: 9208 29bc a77f 35bd 6af5 483d 755d 6abd
00000390: cde1 60be d443 2f3d 8476 6dbd 94c8 8bbd
000003a0: 3da1 953d a01f 953d a6eb 1b3d 7db7 c13d
000003b0: 5a0b 17bf f629 bebd 021f 43bd 0d72 fd3b
000003c0: 0486 843d ae96 b63d 01dd 16bd 51d3 9bbd
000003d0: 71bd a63d cf87 b4bd 61e2 2fbd f64b 173d
000003e0: 7065 43bb 23bc 1e3d 7711 173d 0ccd bebd
000003f0: e463 6a3d 3168 be3d a390 10bc d619 f5bd
0.023328884 -0.00246364 0.00027886668 0.06327956 0.12148742 0.05615523 -0.019600153 -0.028563395
-0.1268463 0.12157731 0.06754741 -0.054801878 0.1383089 -0.08707023 -0.038286015 0.037532765
-0.036400277 0.24504745 0.032948058 -0.05481933 0.11338824 0.1720152 0.04391998 -0.12227256
-0.0025807377 0.023690512 -0.05050671 -0.028335018 0.07129319 0.15555589 0.041694693 -0.017796516
0.05378312 -0.030884704 0.06495584 0.06105315 0.15360434 0.21495788 -0.085459344 -0.023342147
0.10082211 -0.0057582054 -0.0374697 -0.0032789407 0.014966671 0.062151495 0.041991264 0.10891141
-0.12311238 0.08853252 -0.07927486 -0.06729413 -0.05825529 0.21202405 0.08817911 -0.07672756
0.06447343 0.17604621 -0.11254504 -0.12866312 0.04800462 0.15509057 0.014310438 -0.19335517
0.069409855 0.18392469 -0.011663362 -0.03415571 -0.010906296 0.13935882 0.0028942344 0.025879376
0.028624794 -0.025563836 0.026187127 -0.01924457 -0.17606944 -0.085210204 -0.06547924 -0.01798781
0.05385486 0.013333473 -0.011004191 0.09113393 -0.1587186 -0.16449541 -0.009728955 -0.041298177
-0.0114462115 0.13683265 0.03224597 -0.05124356 0.038649432 -0.12309378 -0.038052272 0.07597055
0.003349307 0.3059308 0.05350745 0.027306799 0.014648269 -0.03411678 -0.056259003 -0.032414835
-0.042104382 0.2509095 0.031627193 -0.045276962 0.093212485 -0.027283182 -0.050718345 0.015826968
-0.0029175326 0.3372434 -0.00043379408 0.108064905 0.22446366 0.015963845 -0.009935047 0.12263269
0.025494663 0.026727878 0.011650762 0.053286124 0.01714247 -0.31621855 -0.09264212 -0.023479601
-0.015473061 0.10005537 -0.025920117 -0.0054052765 -0.0048205303 -0.1683726 0.0685343 -0.0044275555
-0.03627099 0.037801683 0.008667808 0.05083205 0.10378059 0.11258544 0.0015877169 0.047012564
0.049158085 0.21669552 0.052488934 0.1467565 0.038972043 -0.10629273 -0.04811452 0.15263617
-0.10276229 0.22692037 0.02858377 0.0924271 -0.07053145 -0.065599516 0.0023343328 -0.016737286
0.046268154 0.2304591 -0.04329527 -0.04113745 -0.11731067 -0.31937686 0.059063055 -0.12812263
0.05342656 0.12386551 -0.0059667914 0.019263543 -0.026554313 0.15064809 0.009723469 0.11450698
0.1025948 0.29828495 -0.060358275 0.006564199 -0.101685815 0.11864 0.046740595 -0.0009819038
0.048791476 0.31091532 0.055547193 0.012432737 -0.1249177 0.022484077 -0.05781331 0.021867275
-0.0809499 0.06695542 0.03189932 0.0037743433 0.12458077 0.08058467 -0.036309764 0.030655479
-0.036190845 -0.060646314 -0.046742067 0.038407005 0.011824786 0.17989457 0.031525493 -0.061419606
0.05950261 -0.10902775 -0.01859729 -0.017820558 -0.0682242 -0.27021614 0.036078326 0.012889885
-0.045222323 -0.039163087 0.054227725 0.041894604 -0.06678004 0.08363044 -0.053787522 -0.06295729
-0.010316985 -0.044311192 0.04906217 -0.057218034 -0.21961136 0.042789295 -0.057974353 -0.068253666
0.073061444 0.072814226 0.03806653 0.09458826 -0.59001696 -0.09285347 -0.047636993 0.007734543
0.06470874 0.089154586 -0.03683186 -0.07608665 0.08141602 -0.08814966 -0.0429405 0.036937676
-0.00298151 0.03875364 0.03688189 -0.09316453 0.05722417 0.09297217 -0.008823547 -0.119678184

fcs1.bias f4 [128]
00000000: efaf 163e 0457 97be 7de4 13be c18e 473e
00000010: a475 84be a313 3ebe 0580 d4bd 5f22 0dbe
00000020: ed57 4ebe 2ca3 19be 94db 07bd 9b20 06be
00000030: 9dc1 abbe bd28 043e f2d5 833e ee0a 24be
00000040: 2546 04be 8871 afbc 0f63 66be 0396 1cbe
00000050: 41d0 93be 81a5 1abe f5d3 b7be 0d30 acbd
00000060: 988e 14be a22f 18bd 132f 663e 36d6 eb3c
00000070: 01df 443d 595b 6ebe 547e 74be ecbb 29be
00000080: a545 1ebe 87b1 d3bc 11e4 433e 9203 543d
00000090: 0729 4d3e 8596 d4bd 9553 7cbe df1f acbc
000000a0: e4a2 153e 8be5 5cbe e972 c73d a58b 8c3e
000000b0: e436 bbbd 0ce7 2a3d 113e 09be 96b6 593e
000000c0: ed2a b8bd 2829 8fbd 143d 09bd a643 12be
000000d0: 0916 8bbd 4fc9 54bb f664 33be 1f79 343d
000000e0: 7d97 cabe b0ee 3e3e 80ef 30be 8187 c6be
000000f0: c986 e0bd fbe9 f3bd 505c a03c 2a0b 01be
00000100: 63fe 5e3d baed 7cbd 52c1 30be a79e 9ebe
00000110: 3057 4d3e 80b5 52bd 7c79 81bb 4e88 d93c
00000120: ad89 cb3c 4d44 adbe 8c89 a5be a24b 46be
00000130: e890 8ebc 1035 c33c c2fa 553d c37e 35be
00000140: a37a 05be cf5c 3e3d 4960 02bd b623 103e
00000150: 8339 2ebe 1e9c 413d 9f44 62be 1baa 7abe
00000160: 394b abbe 48ea 9ebd 4cea 08be bfe3 1a3e
00000170: feeb 13be f6c4 64be 15d1 02be 9ab8 5ebe
00000180: 9c7e 893d 97ef 143d 5137 af3d 42e2 5fbe
00000190: 2d71 acbe 7313 4dbb 3efd c43d c4ce 393e
000001a0: 4237 89be b9cd a53d 9c5c 5fbe 4f19 4a3d
000001b0: 2dd0 873c b1cb 0b3d 1112 d7be 8f14 5abe
000001c0: cbfc 943d f9fb 16be 6fec f3bc 54d5 72be
000001d0: 7b43 a5bd 7f12 84be a213 17be d1c0 a2bd
000001e0: 740b 23be 3bfd 34be 12e2 77bd 96e4 fabc
000001f0: 2603 9fbe 57f5 45be bf8a 4cbe a0ca 32be
0.14715551 -0.29558575 -0.1444263 0.1948805 -0.25871003 -0.18562178 -0.1037598 -0.13782643
-0.20150729 -0.15003651 -0.03316839 -0.13098375 -0.33546153 0.12906165 0.25749165 -0.16019794
-0.12917383 -0.02141644 -0.22498725 -0.152916 -0.28869823 -0.15102197 -0.35903898 -0.084076025
-0.1450752 -0.0371548 0.22478895 0.028788667 0.048064236 -0.23277034 -0.23876315 -0.16575593
-0.15456255 -0.025841488 0.19129969 0.051761217 0.20035182 -0.10380272 -0.24641259 -0.021011291
0.14612919 -0.21571939 0.09738714 0.2745029 -0.09141329 0.04172425 -0.13402583 0.21261057
-0.089925624 -0.06990272 -0.033505514 -0.14283618 -0.06791312 -0.0032468622 -0.17518982 0.044060823
-0.395687 0.1864574 -0.17278862 -0.38775256 -0.10963208 -0.119098626 0.019575268 -0.12601915
0.05444182 -0.06175015 -0.17261246 -0.30980417 0.2005279 -0.051442623 -0.0039512496 0.026554253
0.024845922 -0.33841172 -0.32331502 -0.19364789 -0.017403081 0.023829013 0.052241094 -0.17724137
-0.13035063 0.046475228 -0.031830106 0.14076123 -0.17014126 0.047268026 -0.2209649 -0.24478953
-0.33455828 -0.07759529 -0.13370627 0.1512594 -0.14445493 -0.2234076 -0.12775071 -0.21750107
0.06713602 0.036361303 0.08555473 -0.21863654 -0.33680096 -0.003129211 0.096186146 0.18145281
-0.2679997 0.08095879 -0.21812671 0.049340542 0.016578758 0.034129802 -0.4200597 -0.21296905
0.07274779 -0.14744557 -0.029775826 -0.2371419 -0.080695115 -0.2579536 -0.14753583 -0.07946933
-0.15922338 -0.17674725 -0.06051833 -0.030626576 -0.3105709 -0.19331871 -0.19974802 -0.17460108

fc2.weight f4 [128, 130]
00000000: 33d4 993d 69ad 3bbd fe17 303d 90ba fa3c
00000010: da7c ae3d cc32 1a3d 0088 f63c f638 e73d
00000020: c48b 22bd c22f 81bc 6d15 77bd 423a eabc
00000030: 3edd a43d c7f1 e23d 11e9 c8bc 1d82 35bd
00000040: f4cb dabc e895 083d 4f7a 4e3c 7046 9b3c
00000050: a7a8 113c 1e42 e23c d0fc 23bd 11ca 413e
00000060: f09c e73d 1f45 65bd 268b 9fbd 939a 173e
00000070: 0dde 863d 25ad 243d 0977 92bd edd1 2e3c
00000080: 68d9 24bd 9dd4 bcbd 3064 043c c148 c7bd
00000090: 1011 95bc 1209 b8bc a77c c5bc aed0 bebd
000000a0: eae8 9d3d f8f1 c7bc 1bb9 e9bc 309a 3c3d
000000b0: 0efb 583c dc4f 5cbd 3fe8 893d 6e5d 95bd
000000c0: b5af 8c3b 69c4 e6ba 860e e33c ee6c 5cbd
000000d0: 307b 17bc 1a3b e13c d333 ebbc 2e26 00bb
000000e0: 0530 19bb 53aa 193d 87aa 21bd 154b 04be
000000f0: d002 373d efdc c9bd ef92 f2bd 6fd9 52bd
00000100: 9b5c a9bb 0865 c0bd 99cc 14bd cf69 17be
00000110: f886 f33c be86 16bd 644f 73bd 3aee a93b
00000120: 4282 683d 7e63 bf3d aa2f ab3c 2efa a8bd
00000130: c982 cf3c 7889 c2bc 3cf5 bebc 8f3a b43c
00000140: 0f5c 653d 6c85 bbbc da45 6db9 dabb 71bc
00000150: e23f 24bc 8574 2dbd 9661 30bd 3d2a 1a3d
00000160: ccf9 1dbd cb1a e53d 5d42 6abd 0ec4 7fbd
00000170: 234d 17bd 8d30 54bd 7120 a5bd 35e6 af3d
00000180: db73 14bd f0f9 f13c 99dd e5bb a617 2ebe
00000190: a7eb 7e3c 85ad fabc b178 47bd 154d 093d
000001a0: 8a0d 75bd b496 073e 4c10 893d adcb b23d
000001b0: f972 553c 0ecc 993d b3ae 053e a2a1 27bd
000001c0: c854 35bd c74b 3b3c c59d e53c 5dde f23d
000001d0: 24f3 db3c 311f ee3a e6cd 8bbd f2aa 4f3d
000001e0: 0a6b 063d 6489 083e 42b9 133d 20a3 453a
000001f0: 6045 2b3d 8fb3 81bd 4062 d2bd cc14 af3b
00000200: 3cce 1fbd 2c13 2e3c 5938 86bd 5ed0 82bc
00000210: c84c 9e3d 9265 12bc 53d2 d03c 4dcc 1bbe
00000220: dab1 e33c 992b 8f3b b702 fdbd 635f 27be
00000230: 8948 fabd df44 b73b 27df 2cbe a3cf 16bd
00000240: 2414 50bd 914f 70bd e70a 13bd 02f0 7bbc
00000250: fed6 a0bd eb33 9dbd 3395 113d c51f 0b3c
00000260: 5d35 12bd a40b 3d3e 6c85 bcbd 0144 1f3d
00000270: 7050 a9bd ed16 c1bd 6193 113d 1410 e0bd
00000280: 0786 8e3b 8663 30bd e917 f8bc 173a a83c
00000290: ec8c f23b f200 cebd 5f23 22bd 19c8 e2bc
000002a0: ac10 a0bd c796 8ebd 5b86 05ba 22f5 253d
000002b0: 4d14 7ebd 022d 11bd dd56 d9bb 80ba 123d
000002c0: 727d 3d3c 5dfd edbd b470 edbd dfdf 20bd
000002d0: 59a5 1c3d 0f5f fbbd cb4a 00be 05bc 3b3c
000002e0: b50d 85bc e553 d23c c00d 95be 9f12 fdbb
000002f0: 57fa d2bd f71b 7abd 7c92 d83c 3f61 2cbd
00000300: 8b19 b03d 3902 b4bd 153a f23c dec4 94bb
00000310: 43f4 cabd f65a 84bb c117 86bd 1a2f 3a3c
00000320: e5db 9bbc 0d68 383c b467 bf3d 02f7 7dbd
00000330: f122 01be 6ac0 aebd 609d 453d a19b 28be
00000340: 6b5e 413d df03 69bc a97d b23d b19e 703d
00000350: d6c4 ffbc 677e d1bd 80a6 5b3d e41e 9c3b
00000360: b799 2bbc 07c9 ddbd a8a5 60bc 3e15 9ebc
00000370: ce11 36bd 1d56 7c3d 2b7a 293d 692d bdbd
00000380: 42e7 c3bc af7a d8bc 0d5f a53c 34d2 173e
00000390: 56ce 8fbd 7482 eebd fa0c 0cbe 4653 373d
000003a0: a14e 95bd 4d1f 653d 7bb7 c8bc 9827 1b3e
000003b0: 2336 e6bc 8312 593c 0f54 1a3c 1829 75bc
000003c0: b9e8 61bd a338 a63d aa98 23bd 2885 b4bc
000003d0: 7843 993d 65a5 4cbd 2e83 b9bc 884b d53c
000003e0: 3a8b 4cbd d4e7 efbd 0154 83bd db7d f53c
000003f0: 5485 adbd 744d c4bc fcc9 be3d 931b f33d
0.07511177 -0.045819674 0.04299163 0.030606538 0.08519907 0.0376461 0.030094147 0.11290161
-0.039684072 -0.015769843 -0.060323168 -0.028592233 0.08050011 0.110812716 -0.024525197 -0.04431354
-0.02670858 0.033346087 0.012602403 0.018954486 0.0088903075 0.027619418 -0.040036023 0.18924738
0.1130923 -0.055974122 -0.07790212 0.14805059 0.065853216 0.040204186 -0.071516104 0.010670167
-0.040246397 -0.0922024 0.008080527 -0.097306736 -0.018196613 -0.022465263 -0.02410729 -0.09317146
0.077104405 -0.024407372 -0.028530648 0.046045482 0.01324345 -0.053787097 0.067337506 -0.07293211
0.004293407 -0.0017606142 0.027716886 -0.05381482 -0.009245679 0.027494002 -0.028711235 -0.0019554007
-0.002337457 0.03751595 -0.03946927 -0.12919267 0.044680417 -0.09856593 -0.118444316 -0.051476892
-0.00516851 -0.0939427 -0.036327932 -0.14786457 0.029727444 -0.036749594 -0.059401885 0.0051858695
0.05676485 0.093451485 0.020896751 -0.08250843 0.025330918 -0.02374719 -0.023310296 0.02200058
0.055995997 -0.022890769 -0.00022628103 -0.01475426 -0.0100249965 -0.04234745 -0.043061815 0.037637938
-0.038568303 0.11186751 -0.057192195 -0.06244283 -0.036938798 -0.051804114 -0.08062828 0.085888304
-0.0362433 0.029538125 -0.007014942 -0.17001209 0.015559114 -0.030600319 -0.048699085 0.033520777
-0.059827365 0.13241082 0.066925615 0.08730254 0.0130279 0.075096235 0.13054924 -0.04092563
-0.044270307 0.011431641 0.028029332 0.11858819 0.026849337 0.0018167255 -0.068263814 0.050700136
0.032816924 0.1333366 0.036065347 0.0007539261 0.041814208 -0.06333076 -0.10272646 0.0053430554
-0.03901504 0.010624688 -0.06553716 -0.015968498 0.077294886 -0.008935349 0.025490915 -0.15214653
0.027794767 0.004369211 -0.123540334 -0.16344981 -0.12220866 0.005592927 -0.16882001 -0.03681911
-0.050800458 -0.05866963 -0.03589907 -0.015377047 -0.078535065 -0.07675918 0.035542678 0.008491461
-0.035695422 0.18461472 -0.09205136 0.038883213 -0.08267295 -0.09428201 0.035540942 -0.10940567
0.0043494734 -0.043063663 -0.030284839 0.020535512 0.007402053 -0.10058774 -0.039584514 -0.027683305
-0.0781568 -0.06962352 -0.0005093568 0.04051698 -0.06203108 -0.035443313 -0.0066326694 0.03582239
0.011565553 -0.11620591 -0.11593762 -0.039276 0.038243625 -0.1227399 -0.12528531 0.011458402
-0.016241888 0.02567477 -0.29112053 -0.007723167 -0.10301655 -0.061061826 0.026437037 -0.04208493
0.08598622 -0.087894864 0.029568711 -0.00454007 -0.099098705 -0.0040391637 -0.065474994 0.011363769
-0.019025752 0.011255276 0.09345952 -0.062003143 -0.12610985 -0.08532794 0.048245788 -0.16465618
0.047209185 -0.014222114 0.08715374 0.05874509 -0.031221788 -0.102291875 0.053625584 0.0047644246
-0.01047366 -0.108293585 -0.0137113705 -0.019297238 -0.044450574 0.06160556 0.041376274 -0.09237177
-0.023913983 -0.026425688 0.020186925 0.1482628 -0.07021777 -0.11645976 -0.13676825 0.04475715
-0.07290388 0.055938054 -0.024501553 0.15151823 -0.028101986 0.013249042 0.009419455 -0.014963411
-0.055153582 0.08116271 -0.039940514 -0.02203615 0.07483572 -0.04996242 -0.02264556 0.026036993
-0.049937464 -0.117141396 -0.06412507 0.02996724 -0.08472696 -0.023962714 0.09315869 0.11870494

fc2.bias f4 [128]
00000000: cff3 babc c6ce 26bd dad2 49bc 8311 93bc
00000010: 3032 cabd e377 5fbd 3bbf 433c 8d47 30be
00000020: fc91 1fbe 46eb bc3c 96a4 cebd b685 06bd
00000030: b265 aabd b47d 07be e96a eabd a200 84bd
00000040: fa06 14be b839 c0bd e904 20be 5770 e3bd
00000050: 99aa ecbc f298 11be df4c 35bd c325 56bd
00000060: c679 883d 6573 7dbd 56b8 443c faa6 2abd
00000070: c64f 61bc e4f6 b5bd 11ef a5bc 876c 013d
00000080: 8010 87bd 8682 4fbd dbc4 68bd ed5a 193c
00000090: b892 953b 212d 4a3d 64a5 e6bd d8c9 c9bd
000000a0: 54c6 2cbe 5b8c bc3d 139d 1a3c 21bf 94bd
000000b0: cb32 16be 220f a5bd d47d edbc b98d 2abe
000000c0: 5d98 11be ccaa 83bd 02f2 653d dc03 903c
000000d0: d1cb e1bd 9db7 4fbd 77f8 f43c cb30 06bb
000000e0: 5d6a 73bc fdbe 5bbd 0abd a7bd bb85 a9bd
000000f0: 1525 a6bd a837 82bd 3ccb 60bd 9bc0 21be
00000100: 5872 c6bd 5df0 00be 8212 d9bb cc94 1fbd
00000110: 8bcb 18be e64e a0bc b08b 95bd 3bc6 edbc
00000120: b396 bbbd 4a1b 0fbe 430c 33bd 661b 16bd
00000130: 13ea 63bd b8d6 023d f295 5dbd 904c 14bd
00000140: a01e 77bd 2131 04bd c717 29be 4da5 a5bd
00000150: f9f7 72bd 1c46 24be b985 d4bc b3ab da3b
00000160: 04b4 d6bd e366 61bd 6be9 80bd 24a9 fb3a
00000170: 02b1 acbd 1e46 533c 3647 31be 9b65 53bd
00000180: 38d6 dabd 3d0f 17be 78a8 90bc d182 cdbc
00000190: 4008 f8bd 6737 633c d27f 04be e3fa c9bd
000001a0: 0ae9 7bbd b260 40be 0561 17be a1ab 37bd
000001b0: 6514 ecbd 58c2 89b9 6bca 29be e435 58bd
000001c0: af54 3bbe 36e7 15be 6ac2 94bc a248 e4bd
000001d0: c0c4 97bd 4556 2cbd e096 21be 10bd c3bd
000001e0: 353e edbc ad51 0fbe 3022 0dbe 91c8 c8bd
000001f0: 621d 27be ff31 72bd b5fa afbd 6890 0dbd
-0.022821335 -0.04072454 -0.012318337 -0.017952686 -0.09872854 -0.054557692 0.011947448 -0.17214794
-0.15583032 0.023061406 -0.10089986 -0.03284236 -0.08320178 -0.13231546 -0.11446173 -0.06445433
-0.14455786 -0.09386009 -0.15626873 -0.111054115 -0.028889941 -0.142185 -0.044262763 -0.052282106
0.066638514 -0.061877627 0.01200684 -0.041663148 -0.01375193 -0.08884981 -0.020255597 0.03159764
-0.06594944 -0.050661586 -0.05682836 0.009360057 0.0045646094 0.049359445 -0.112620145 -0.09852952
-0.16872531 0.09206458 0.0094368635 -0.072630174 -0.14667813 -0.08059527 -0.028990664 -0.16655625
-0.14218278 -0.06429061 0.056139 0.017579965 -0.11025203 -0.050712217 0.029903634 -0.002047586
-0.014856902 -0.053648937 -0.08190353 -0.0827746 -0.081125416 -0.06358272 -0.05488132 -0.1579613
-0.09689778 -0.12591691 -0.0066245208 -0.038960263 -0.14921395 -0.019568872 -0.07302034 -0.029025188
-0.09159603 -0.13975254 -0.043712866 -0.036647223 -0.055643152 0.031943053 -0.054098077 -0.03620583
-0.06033194 -0.032273415 -0.16512977 -0.08088169 -0.059318516 -0.1604237 -0.02594267 0.0066733
-0.10483554 -0.05502976 -0.06294521 0.0019200188 -0.08432199 0.012895135 -0.17312321 -0.05161057
-0.1068539 -0.14751907 -0.017658457 -0.025086792 -0.121109486 0.013868189 -0.12939385 -0.09862306
-0.06150154 -0.18786886 -0.14783104 -0.044841412 -0.115273274 -0.00026275474 -0.16581123 -0.05278577
-0.18294023 -0.14638981 -0.01815911 -0.11146666 -0.07410574 -0.04207446 -0.1578021 -0.09557545
-0.028960327 -0.13996 -0.13782573 -0.0980388 -0.16319802 -0.05912971 -0.085927404 -0.034561545

fc3.weight f4 [1, 128]
00000000: e429 b0bc 17fb 52bd 1423 fbbc 9379 1a3d
00000010: 35fa 44bc 19ab 073d b2c9 bd3c 2117 3abe
00000020: c20e c63e fdc2 39bc 0709 1b3e 9b9b 75bd
00000030: a227 9b3d f90f 4a3d 429b 2c3d 588e 0abd
00000040: ca07 413d 2514 18bd f02a a73d 54ea a13d
00000050: aea4 afbc ac3a 4abd e880 93bc 9ad0 4a3d
00000060: d88e 403d 4862 9a3c 7a23 86bc 9e75 44bc
00000070: bdf5 1bbd 25a9 b6bc bfe8 f7bc 0616 013d
00000080: 1ef2 ee3c 5ea7 963c 58dd 38bd 22c1 2fbd
00000090: eb29 58bd bfcc 173d 51df cd3c eb6d 393d
000000a0: 7c08 08be ec5a 043d c2b5 213d 9bcd 153d
000000b0: d805 63bd 1a28 05bd 039f 903c e4fb c93c
000000c0: bd81 2a3d 8972 43bc f197 e4bc 540a 8cbc
000000d0: 8ff4 ff3c 2568 89bc 9e29 babc ed81 88bc
000000e0: 8e8f 43bd fe82 11bd 72a9 0c3d 32a4 09bd
000000f0: beaa f53c f3e9 44bc fdde 053d 4f21 913d
00000100: 2fe4 d53c 74aa 4cbd 80bf 8bbc 5f32 093d
00000110: 3039 83bd d640 2c3d 9c8c 8abd 172a 1fbc
00000120: 7f1f 1abe 892d 15bd d744 a7bd cf28 3f3d
00000130: 9d99 28bd 6c4a 89bc 8686 163d 93b7 3ebd
00000140: 4fbe 2f3d 1b67 afbc 947e 4b3d 734d 4fbd
00000150: deb7 1fbd fcef d83d f260 303d 244f edbc
00000160: 4976 89bd 16d1 213d 6d7e 56bd 0049 063d
00000170: 6d0e 033d d9d7 febc d117 533d 2e68 6d3d
00000180: cd36 dc3c 5ed7 02bd 5b54 02bd 5b7a b5bc
00000190: 9f33 69bb 2d1f 3dbc dbc1 013d 3b0d 4e3d
000001a0: e7bd f93c 2662 8cbd 2d15 773c 76a2 38bd
000001b0: 2cef 28bd 492d 00bd f9e6 c13c f497 20bd
000001c0: e0ed 3d3d e1ab ddbc 01ec 043d 640b 483d
000001d0: 09fb 9c3c bbe5 003d 9496 19bd 656b 2bbd
000001e0: 7ad2 ccbc eda7 b33c 6c3b 21bd 357f 743d
000001f0: b7d5 00bd d1fc a73c 5447 a93d 430b 263d
-0.02150435 -0.05150899 -0.030656375 0.0377136 -0.012022545 0.033122156 0.023167465 -0.18172885
0.38683134 -0.011337993 0.15140162 -0.05996285 0.07575919 0.04933164 0.042140253 -0.033827156
0.04712657 -0.037128586 0.081624866 0.07906023 -0.02144083 -0.04937236 -0.018005803 0.049515344
0.047011226 0.018845692 -0.016374338 -0.011990933 -0.03807615 -0.022297451 -0.03026235 0.031515144
0.029168185 0.018390354 -0.045132965 -0.042908795 -0.05277435 0.037060495 0.0251309 0.04527084
-0.13284487 0.032313272 0.03947998 0.036573034 -0.055425495 -0.032508947 0.017653948 0.024656244
0.041627634 -0.011929163 -0.027904483 -0.017094769 0.031244544 -0.016773293 -0.022724923 -0.016663516
-0.047744326 -0.035525315 0.034341283 -0.033603854 0.029988643 -0.012018668 0.03268336 0.07086431
0.026109783 -0.049967244 -0.017059088 0.033495303 -0.06407392 0.04205402 -0.067651 -0.009714625
-0.15051077 -0.03642038 -0.08167427 0.046669777 -0.041162122 -0.01675912 0.036749385 -0.04656179
0.0429061 -0.02141147 0.04968126 -0.05061097 -0.03899371 0.105926484 0.043061204 -0.028968401
-0.06712014 0.03950604 -0.052366663 0.032784462 0.03199618 -0.031108784 0.051536385 0.05796068
0.0268816 -0.03194367 -0.03181873 -0.02215307 -0.0035583747 -0.011543077 0.031679016 0.050305586
0.03048606 -0.06854658 0.015080732 -0.04507681 -0.041243717 -0.031293187 0.023669707 -0.039207414
0.046369433 -0.027059497 0.032451633 0.048838988 0.019162672 0.031469088 -0.037497118 -0.041850466
-0.025002707 0.02193066 -0.03936331 0.059691627 -0.031453814 0.020506294 0.08265558 0.040538084

bn1.weight f4 [128]
00000000: 5a60 3c3f 9001 653e 51ee a13d 73b6 2e3f
00000010: 699f 1b3f 8578 2b3e 4493 713e f6b5 193f
00000020: 96ef 3b3e 72b4 6d3e 18bc 113e 34cf ed3e
00000030: eca4 2f3f 732c dd3e 9379 5b3e 1350 be3d
00000040: 5c1e b13e 5f53 7c3e 98e8 903f d99d e73e
00000050: 232f 833e 3c2f 333f 7db3 023f d52d 2d3f
00000060: 49f8 973e f99e 0e3f 6126 dc3e 450c 273f
00000070: 5017 3d3f a0a7 763e 8899 6e3f 974c 213f
00000080: e6db 313f 5961 2d3f 44f5 393f bd44 d73d
00000090: ea3c cc3e 1e9f 643f 9363 373f d238 fb3e
000000a0: 0624 6f3f 9b3f 093f 178a 9d3e 84b5 853e
000000b0: ea89 483f a8cf 233f 2800 033f 8886 c33e
000000c0: 8227 f43d c153 103f d744 ae3e 1611 fd3e
000000d0: d559 a23e 929b c63e e1eb d23e 2353 0d3f
000000e0: 81cb be3e f691 b23e 4ff8 093f eca9 1d3f
000000f0: cc05 ad3e 08d8 a03e 191f 303f df63 153f
00000100: e80b 1e3e 0691 cf3e f3ee a53e 4438 093e
00000110: d43d 1c3f f2f4 043f cb5b 753e a67c ee3e
00000120: 55f2 7b3e 00ac f13e f30c ba3d 8300 543f
00000130: c8e5 e93e af5a 183e d50f bc3e f587 f83e
00000140: fd17 c63e 4aa1 6f3e e668 af3e d898 bc3e
00000150: f860 7e3e 73bd af3e ba78 883e a490 123f
00000160: ef4d f33e 02a8 8c3e b543 1f3f 9282 463f
00000170: f586 303e c6a0 623e dca5 223f cfda 473f
00000180: 3aaa b93e 3db6 a43e cada 153f a67b e03e
00000190: 0c52 4e3f a084 273f 2a62 263f 2bc2 ff3e
000001a0: 2e2e 273e 5933 d03d 4bc5 7f3f 0654 263f
000001b0: 9036 d03e b178 a03d 88d1 6c3e 6249 743f
000001c0: 3eb9 2e3e 7e0a 233e 2e5a 063f 3f8f 423f
000001d0: 6672 cb3e fdb6 743e c0be b03e cc4b d73d
000001e0: 29fe 203e bb6a 013d 0e81 b33e 132d 133f
000001f0: 048c 1d3f 2dcd 603e 1808 6d3e 47a2 693e
0.7358452 0.22363877 0.07906783 0.68247145 0.60790116 0.16745193 0.23591334 0.60043275
0.18353114 0.23213366 0.14231908 0.46447146 0.68611026 0.43197975 0.21433096 0.09292617
0.34593475 0.24641179 1.1320982 0.45237616 0.256219 0.6999395 0.5105513 0.6764806
0.29681614 0.55711323 0.4299803 0.65253097 0.738637 0.24087381 0.9320302 0.6300749
0.69476163 0.67726666 0.7263987 0.10511158 0.39890224 0.89305294 0.71636313 0.49066788
0.9341434 0.5361268 0.30769417 0.26115048 0.7833544 0.63988733 0.51172113 0.38188577
0.11921598 0.563778 0.34036896 0.49427098 0.3170916 0.38790566 0.41195586 0.5520498
0.37264636 0.34876984 0.53894514 0.61587405 0.33793485 0.3141482 0.6879745 0.58355516
0.1543423 0.40540332 0.32408866 0.1340037 0.6103184 0.51936257 0.23960797 0.46579474
0.24604161 0.47201538 0.09084501 0.8281328 0.45683122 0.14878343 0.3673083 0.48541227
0.38690177 0.2340137 0.3425972 0.3683536 0.24841678 0.34324226 0.26654607 0.57251954
0.47520396 0.2747193 0.6221269 0.77542984 0.17238982 0.22131643 0.6353433 0.7806825
0.36262685 0.32170287 0.5853697 0.43844336 0.80593944 0.65436745 0.64993536 0.49952826
0.1632621 0.10166044 0.9991042 0.6497196 0.40666628 0.0783552 0.23126805 0.95424473
0.17062852 0.15921971 0.52481353 0.75999826 0.39735717 0.2389793 0.3452053 0.10512504
0.15721954 0.031595927 0.35059398 0.5749065 0.6154177 0.21953268 0.23147619 0.2281581

bn1.bias f4 [128]
00000000: 68ed 3f39 eeca 0c3e fc5a 03be 749c 163c
00000010: 767c 123d 9a30 803d 1f1a 9d39 f5c0 39be
00000020: 08a8 e63c a7e7 933d 05d7 253d d007 13bc
00000030: 41b7 533d f979 c83d 9aa2 123d ae6e 8e3d
00000040: d180 913d 4a64 c13c 7638 b23d f879 0f3d
00000050: 56d4 70bd c2dc 083e 83da 183d 601a 383c
00000060: f876 e83d afcc d63d ae3c 9a3d 996c 76bc
00000070: 93d7 9bbd 7921 9d3d af68 15bc 8b36 75bd
00000080: 9908 3c3e a231 eb3d 5cf1 dc3b e4e4 1cbe
00000090: 3ba5 2ebd e0d8 26bd b40d e83d 5ae3 473e
000000a0: 7002 b63d 2a96 12bd 625d 663c d72c e63d
000000b0: 552b 153e 5dab 853d feb7 033d 3f30 a63d
000000c0: fdb5 b1ba 62ac e63d b687 ab3d 8221 a13d
000000d0: 1734 3ebb 0132 983c 957e ca3d f8c5 c9bd
000000e0: ea34 b03d 501c a73d b95b 163e a079 093d
000000f0: c2c4 1a3e 1811 cf3d 8fde d73d 071a 013d
00000100: 0d17 44bc 032e 633b ce32 b03d bad3 7a3d
00000110: db35 1c3c b3f8 ee3d 9d47 95bd e532 093c
00000120: 5294 943d ced3 80b9 90c8 f13d 6758 fc3d
00000130: a3a1 8b3d 7377 4e3e eab6 bdbc 870c a23d
00000140: 35dc 29bd e087 383d 95de 273e 05e2 143e
00000150: f222 1c3c 70b3 823c c748 a1bc 7700 083e
00000160: 0a56 063d 9e3f cbbd dd2e 5c3d 5d4e d83d
00000170: 02e9 39be 609a 82bd a0f7 d13d 9a49 c03d
00000180: 15e5 13bd 860a 30be 0be6 0c3e 5313 873d
00000190: a47f 8b3d 6476 46bb 1336 083e 9749 093e
000001a0: 77c0 8a3d 80f3 0abe a22e 8fbc a58d 11bd
000001b0: 2a68 373c fa6a d93b c20c 8dbd 0962 f13d
000001c0: 9cae 5c3d 2fa5 233d 7358 6c3d 28bd 5e3c
000001d0: 2432 983d 7f2f 183b d713 193e 20fe a83d
000001e0: aef9 c03c de9b 89be fb84 bc3c 0727 cf3c
000001f0: d26c aa3d ce3c b73d 6eaf 85bb 80d9 52bd
0.0001830362 0.13749287 -0.12827677 0.009192575 0.035763226 0.0625927 0.00029964835 -0.18140014
0.028156295 0.072219186 0.04048826 -0.008974031 0.051688436 0.097888894 0.0357996 0.06954704
0.07104648 0.023607392 0.08702175 0.035028428 -0.05879625 0.13365462 0.037317764 0.011236757
0.113508165 0.10488259 0.07531105 -0.01504054 -0.07609477 0.076724 -0.009119197 -0.05986647
0.18362655 0.11484076 0.0067426395 -0.1532169 -0.042638045 -0.040734172 0.11330739 0.19520321
0.08887184 -0.03578774 0.01406035 0.11239021 0.14567311 0.065268256 0.03215789 0.08114671
-0.0013558265 0.11263348 0.08375494 0.07867719 -0.0029022747 0.018578531 0.09887425 -0.09852213
0.086038426 0.08159697 0.14683427 0.033563256 0.1511412 0.10110682 0.105404966 0.031518962
-0.011968386 0.0034664876 0.0860344 0.061237074 0.0095343245 0.11668529 -0.0728905 0.008373951
0.07254852 -0.0002457187 0.118058324 0.12321549 0.06817939 0.20162754 -0.02315851 0.07912546
-0.04146977 0.045051455 0.16393502 0.14539345 0.009529816 0.015954703 -0.019688023 0.13281427
0.032796897 -0.099242434 0.05375563 0.105618216 -0.18155292 -0.06377101 0.10252309 0.093890384
-0.03610714 -0.17191514 0.1375963 0.06595483 0.06811455 -0.0030282969 0.13301878 0.13406979
0.06774991 -0.1356945 -0.017478291 -0.035535473 0.011194268 0.006635067 -0.06887199 0.11786277
0.053877458 0.039952453 0.05770154 0.013594903 0.074314386 0.002322167 0.14948975 0.082515955
0.023556557 -0.2687673 0.023012629 0.025287164 0.08321537 0.089471444 -0.0040797507 -0.051476955

bn1.running_mean f4 [128]
00000000: 3a85 1540 2706 2b3f 5740 9c3f 2e27 b33e
00000010: 7747 003f 21b8 f33d cc9c 843e 24e5 043f
00000020: 15e7 b23e 7e2c 2240 5f71 bc3f 3c85 4c3f
00000030: 50f0 573e 79f3 133f 91e5 0b40 29ff f83f
00000040: 663d 8040 3b14 613e 12af 8f3d cd01 2640
00000050: 618c 123f 3fdc f73e fda2 933f d645 5f3e
00000060: b3da 1f3f 31ad ad3f 7bcf e63f 8148 b53d
00000070: e82f ce3d 05d3 1a3f c692 883f 785c e33f
00000080: 0400 0000 c8c0 d83f 16a4 2640 e244 ff3d
00000090: 6db8 1f40 848a a13f a98d 2b3f 3c45 9c3f
000000a0: 4fb0 933d 70e4 3a3f 28ce f43e 03fd 873f
000000b0: 1bbe 1a3f 3ae5 733f 0842 363f 338e ae3e
000000c0: a611 023f 3cbe bd3c 57a4 853f 6bf3 f63e
000000d0: e795 823f f577 f73d 0bb4 a23e c943 c33f
000000e0: 4262 fb3d c154 713e 18fa 0740 d0af 3a3f
000000f0: e3c6 013f 4c5e f13e 507c 133e ecc7 9b3d
00000100: 0400 0000 7c08 4a40 97b6 2c3e 3e8f 103e
00000110: df13 783f cd06 6f3e bbcd 293f 2e01 4e3e
00000120: e300 793f 34d3 a53f c021 1140 afed 813e
00000130: 45a4 453f de33 af3f e9e4 093f 8e18 853e
00000140: 3dd4 853e 644d 0b3f 4ff1 9d3f a733 013d
00000150: ca48 3f40 6a57 5b3f 8ec2 4540 4315 ff3e
00000160: 1e35 0040 a1e8 8d3e e291 893f dfc7 203f
00000170: a157 2d3e 030a 563f 3fd0 8c3e d39f dc3f
00000180: 35e1 9e3f fc12 f83f 9b8a 2e3f b068 753f
00000190: 0192 0940 e56c 2240 396b 0640 84cb 143f
000001a0: 9476 7b3f 85e7 fe3f 64f0 2f40 be99 2140
000001b0: 55a9 1f3f 78ba 7540 9c72 9c3e b731 313f
000001c0: 86e5 4f3e 537a 753f 2b6d 013f 578c 2a40
000001d0: c3cc 8b3d 224e 973f 8445 fc3f f3a9 5b3e
000001e0: c643 d63f ccc6 0c3f 7e73 d13e 0450 1440
000001f0: 3ad7 273f 4e4d f33f c38a a13f 8218 1e3f
2.3362565 0.6680626 1.2207135 0.3499083 0.50109047 0.11900354 0.25900877 0.5191214
0.34941927 2.5339656 1.4722098 0.798908 0.21087766 0.57793385 2.1858866 1.9452869
4.007495 0.21980374 0.07015814 2.59386 0.5724545 0.48410222 1.1534115 0.21803984
0.62443084 1.3568479 1.8032068 0.0885172 0.10067731 0.6047824 1.0669792 1.7762594
6e-45 1.6933832 2.603765 0.1246431 2.4956315 1.2620397 0.6701303 1.2208629
0.072113626 0.7300482 0.47813535 1.0624088 0.6044633 0.95271647 0.71194506 0.34092864
0.5080818 0.023162 1.0440778 0.48232588 1.0201997 0.12083427 0.31777987 1.5255061
0.122746006 0.23567487 2.1246395 0.7292452 0.506941 0.47142255 0.1440289 0.076064914
6e-45 3.1567678 0.16866527 0.14117143 0.9690532 0.23342438 0.66329545 0.20117638
0.9726698 1.2955079 2.267685 0.2537665 0.7720378 1.3687704 0.53864914 0.25995296
0.26138487 0.54414964 1.2339267 0.0315434 2.9888177 0.8568026 3.0899997 0.4982091
2.003242 0.27716544 1.0747645 0.6280498 0.16927959 0.83609027 0.2750263 1.7236274
1.2412478 1.9380794 0.68180245 0.95862865 2.1495364 2.5378964 2.1002944 0.5812304
0.9822781 1.9914404 2.7490473 2.5250087 0.62367755 3.8395061 0.3055619 0.69216484
0.203024 0.95889777 0.505572 2.6648157 0.068261646 1.1820719 1.9708714 0.21451549
1.6739433 0.5499084 0.40908426 2.3173838 0.65562785 1.9007967 1.2620472 0.61756146

bn1.running_var f4 [128]
00000000: 54d3 9740 712b 2f3f 7684 1340 3978 1b3f
00000010: 4da2 283f b251 2e3e 7c2e 033f 07d5 0c3f
00000020: 574c 603e 289b 0c41 b0a9 9740 700c 0440
00000030: 6d05 053e 3fe6 1b3f 87d1 cc40 7a1e 8240
00000040: d202 9441 61df 6b3e 4a25 8b3d 5d46 4841
00000050: 1950 8a3f 7941 2c3f fbd8 0d3f 4b02 413d
00000060: 078a fb3f 91d5 e93f f761 9340 6cf9 0f3e
00000070: be2b 1a3d eaa3 dd3f 2df5 0d3f baa0 2940
00000080: 0400 0000 ab23 ec40 0b80 0c41 f928 fb3d
00000090: bc00 5f40 531f 2240 d3ff f43e 9bd2 a140
000000a0: f04f c43d 2a1c ff3f bdfc 0e3f 6b06 b23f
000000b0: 1a41 e13f 5b9e 0640 df00 ba3f 84cb 0d3f
000000c0: cf00 563f 1f9c e53c 8dda 5140 bc6d 0f3f
000000d0: 0bbb 4340 6797 083e 11d0 113e 449b 8f40
000000e0: f4c5 223d 9132 eb3e b5e2 5240 6759 5d3f
000000f0: f31f 283f 0045 f93e 5c60 743d 2013 873d
00000100: 0400 0000 fc2c 4340 1ba9 133e fdc0 293e
00000110: 3acb f63f e191 923d 57ed cf3f e3e5 da3d
00000120: 03ca f43f b6ba 2740 595e 1441 867e 2d3e
00000130: b7e6 b33f 43fb 9540 f75e 8e3f a610 953e
00000140: c70b cb3e 0b62 1e3f 9c6a 8d40 09dc 213d
00000150: 728e 4241 9094 d73f 7c65 e140 84e0 053f
00000160: cb4e b740 5216 133f 6304 ad3f e923 a03f
00000170: ee75 323e 0830 573f 4c15 b23e 6b46 9340
00000180: 4c61 e03f de18 aa40 89d4 ae3f 7f58 cc3e
00000190: 6170 ae40 d6ce 0e41 872d c240 ebf9 a83f
000001a0: 014d 1240 3956 0841 27b2 5341 f289 3d41
000001b0: 00c6 973f fb1b 7741 0fb7 b63e f9ed 073f
000001c0: 1ed6 4d3e 1220 c03f 9c80 5c3f 96ba fe40
000001d0: 6a1c b33d 11ba 5b40 7be7 cf40 9432 963e
000001e0: fd80 4940 5700 813f 035e 353f 5c5b d440
000001f0: d16d 293f 303d b640 4205 3b40 2807 883f
4.744547 0.6842566 2.3049598 0.6073032 0.6587265 0.17023352 0.51242805 0.55012554
0.21904121 8.78788 4.739464 2.0632591 0.12990351 0.608982 6.400577 4.0662203
18.501377 0.23034431 0.06794222 12.517179 1.0805694 0.67287403 0.5540921 0.047121327
1.9651498 1.82683 4.6057086 0.1405999 0.037639372 1.7315648 0.55452234 2.650435
6e-45 7.379354 8.7812605 0.12263674 3.4844198 2.5331619 0.47851428 5.0569587
0.09585559 1.993047 0.558544 1.3908209 1.7597992 2.1034153 1.4531516 0.55388665
0.83594984 0.028028546 3.2789643 0.56026816 3.0582912 0.13339005 0.14239527 4.4877033
0.039739564 0.45937017 3.295087 0.8646454 0.6567375 0.48685455 0.059662208 0.06595445
6e-45 3.0496206 0.14419977 0.16577525 1.928077 0.071567304 1.6244305 0.10688379
1.9124149 2.620771 9.273034 0.16942796 1.4054784 4.6869216 1.1122731 0.29114264
0.39657423 0.6186835 4.419264 0.039516483 12.159777 1.6842213 7.043638 0.5229571
5.7283683 0.57455933 1.3516964 1.2510959 0.17427799 0.84057665 0.34781873 4.602346
1.7529693 5.3155355 1.365861 0.39911267 5.451218 8.925497 6.0680575 1.3201269
2.28595 8.52105 13.230994 11.846178 1.18573 15.444331 0.35686538 0.5309749
0.2010121 1.5009787 0.8613374 7.9602766 0.08745654 3.4332316 6.497007 0.29335463
3.1484978 1.0078229 0.70846575 6.6361523 0.6618319 5.694969 2.922196 1.0627184
